hw8/lightning_logs/version_1/checkpoints/epoch=99-step=200.ckpt (torch, 225623 bytes, 36 tensors)

encoder.encoder.0.weight f4 [20, 784]
00000000: e511 9bbc 4a62 873c 1027 1b3b 6c40 02bd
00000010: d30d 94bc 50fb 6a3b a6ef f93c c31c babc
00000020: 6e58 b13c 2ab8 f53c 4789 8abc 4a90 d2bc
00000030: c0b4 c1bb 886d 81bb a830 103c caef abbc
00000040: 325d 1dbc 3848 85bb 7a87 ddbc 5963 0d3d
00000050: 10fc 55bb 28cc b23c eacf ffbc 00dc 11b8
00000060: 180e 023c 055d 08bd 1336 f1bc a057 8b3c
00000070: 150c d2bc 2808 793c 4046 243c 3848 f13b
00000080: eb41 003d 20d6 033c 9429 403c cb9d 0dbd
00000090: 3080 9e3b 0f8f 0e3d cc60 b53c 8829 183c
000000a0: 0406 0e3c 00e1 d2b9 70a3 d3bb eae3 e2bc
000000b0: 5e2f ef3c 0388 033d d291 09bd 9aa6 94bc
000000c0: 60dd 433b ae9d 6cbc 8e69 fa3c d256 ed3c
000000d0: 2cc9 fcbc 5079 b33c 303f b2bc ee4b 14bc
000000e0: 4c85 c6bc 4663 73bc 4692 aa3c 5d0e 09bd
000000f0: febc ef3c a072 4a3c df47 083d 5a3f f23c
00000100: 482d e2bb 390f 003d 707f f73b ccf3 fdbc
00000110: e1f8 a0bc 94af bf3c b1dc 153c ff8c 25bc
00000120: 20ef 36b9 fc20 2b3d 86bf 4bbc da72 9ebc
00000130: 04a9 893c a38a 0a3d 9282 893c ce44 bb3c
00000140: 0dc5 0fbd a8c9 653c aa47 24bc a030 23bb
00000150: b328 b2bc 4a83 fa3c bc96 543c 0128 eebc
00000160: b2c6 06bd 9939 0a3d 0056 133a d466 1dbd
00000170: f6bf 553b 04d9 e7bc 1ae0 c7bc dd4c aebc
00000180: 9669 c5bc 2cb1 553c 3c2d ebbc 231b 13bd
00000190: 8add 843c c34b 6d3d 01d4 833c 4206 99bc
000001a0: 792e e03c 03a2 03bd 9b8d 113d 3035 733b
000001b0: 9787 88bc f050 aa3b 8a36 5bbc 18d8 febc
000001c0: 13db 90bc af73 0ebd a1f2 fcbc 57f8 a0bc
000001d0: 6342 52bc c898 463c e0b6 b3ba a3e8 81bc
000001e0: 50e0 95bc 6266 693c 4e9d 11bd a1f8 d73b
000001f0: f2a5 61bd 8425 8a3a e579 663c d7e2 0abc
00000200: 77b8 69bc 323e 3c3b ed9a 75bb 8702 1abc
00000210: ba50 bc3c 2af8 2b3d b403 753d 3575 863c
00000220: 99ea c23c 3860 ef3c f3ef 87bc 326f 903c
00000230: be58 ed3c 68b3 713c 4035 4a3c 5522 9abc
00000240: 674e 54bd 83ba 0abc d575 e4bc 9f20 243b
00000250: ce15 473c 54e2 27bd 255e 21bc a0ee ddbb
00000260: 00f1 34bc 5b84 65bd 0546 1dbd 34fd 51bd
00000270: f66e fc3b 5dd3 ed3b 89b4 b13c 4f60 fc3b
00000280: b042 d7bc 6903 0e3d ada0 403d 3c39 a9ba
00000290: 8315 ef3b dfc6 2e3d 3652 ff3c 0da0 043d
000002a0: 0875 bebc 2e46 b6bc 0ae0 5ebc 807d 58ba
000002b0: aa01 9bbb 3b41 49bd 626d 4ebd f003 12bd
000002c0: 4918 4bbd 1d83 14bd 6e06 11bd a171 52bc
000002d0: 90c4 583a cece 4ebd ce53 5abc 04a4 41bc
000002e0: f089 17bd 0cfc 22bc 55de 3fbd 7aa4 083b
000002f0: 4aaf 083c 0a82 17bd eb57 c6bb aa19 c8bc
00000300: ad26 c3bc 1277 903c 8671 18bc fcc8 67bc
00000310: d8de bbbc d233 cd3c 31d0 eebc ceb1 ea3c
00000320: f806 c9bc 9af2 6fbc 4442 06bc 5d9f 65bd
00000330: ef24 4dbd d53c 81bb e67b a0ba d33d ccbb
00000340: 5d70 27bd 4a05 71bc 56b5 e4bb a864 b53c
00000350: 9adf 553c 30f4 5f39 b347 91ba a619 6dbc
00000360: 12d8 59bd 2c95 e2bc 82fc c8bc dea9 9fbb
00000370: 808b 06bd f85e a2bb 00c3 5ab9 7bd1 083d
00000380: 8814 0abd 4293 bf3c 5aac 6a3c 7149 e83b
00000390: 1f72 133d ac32 333a c2cc e5bc 8729 083c
000003a0: a09e 0cbd 7700 fd3c 5574 35bc 1d58 84bc
000003b0: 6438 23bb 358a 293d cadd 883c 9f61 7abc
000003c0: 5e00 53bb df57 a13b 4692 8ebc 70ce 97bc
000003d0: afc7 7abd 26a9 29bc 7ea2 f0bc 6dd0 81bd
000003e0: fac5 30bd 6845 62bc 1026 343c da15 f83c
000003f0: bbb0 04bc bc4e 78bc 2e7d 71bc b549 2f3d
-0.018929431 0.01652636 0.0023674406 -0.03179972 -0.018072998 0.003585536 0.030509781 -0.022718793
0.021648612 0.029995043 -0.016911162 -0.025703568 -0.0059114397 -0.0039498247 0.008800663 -0.020988364
-0.009604739 -0.004067447 -0.02704214 0.034518573 -0.0032651462 0.021825865 -0.03122707 -3.4775585e-05
0.0079379305 -0.033291835 -0.02944473 0.017009556 -0.025640527 0.0151996985 0.0100265145 0.0073633455
0.031312864 0.008046657 0.011728663 -0.03457431 0.0048370585 0.0348044 0.022140883 0.009287246
0.008668426 -0.0004022196 -0.0064586923 -0.027696569 0.029197391 0.032112133 -0.03358633 -0.018145848
0.0029886588 -0.014441891 0.03056791 0.028972063 -0.030857645 0.021908432 -0.021758646 -0.009051306
-0.024233483 -0.014855212 0.020821702 -0.033460964 0.029264923 0.01235643 0.033271667 0.029571224
-0.0069023706 0.031264517 0.0075530335 -0.03100004 -0.019649925 0.023399152 0.009146855 -0.010104417
-0.00017445954 0.041779503 -0.012435799 -0.019341875 0.016804226 0.03382362 0.016785894 0.022859957
-0.03510003 0.014025129 -0.010026852 -0.002490081 -0.021747923 0.030580182 0.012975391 -0.02907181
-0.032904334 0.033746336 0.000562042 -0.038428143 0.0032615638 -0.028301723 -0.024398852 -0.021276886
-0.024098199 0.013042729 -0.028708093 -0.03591455 0.01621892 0.05793358 0.016092302 -0.018679742
0.02736591 -0.03213693 0.035535436 0.003711056 -0.016666217 0.005197637 -0.013379702 -0.0311089
-0.017682588 -0.034778293 -0.030877413 -0.019649668 -0.012833211 0.012121387 -0.0013711117 -0.015858
-0.018295437 0.014245601 -0.035550408 0.006590918 -0.0550899 0.0010539745 0.014067148 -0.008476934
-0.014265171 0.0028723595 -0.0037476376 -0.009400017 0.022987712 0.041984715 0.059817985 0.01641331
0.023793506 0.029220685 -0.016593909 0.017631147 0.02897298 0.014752246 0.012341797 -0.018815199
-0.051832583 -0.008467319 -0.027888218 0.0025043858 0.012151195 -0.040987328 -0.009849106 -0.006772831
-0.011043787 -0.056034427 -0.038396854 -0.051266864 0.0077036573 0.0072578625 0.021692531 0.0077019106
-0.026276916 0.03467122 0.047028232 -0.0012910734 0.0072962656 0.042670127 0.03116713 0.0323792
-0.023249164 -0.022250261 -0.01360322 -0.0008258447 -0.004730423 -0.049134474 -0.050397284 -0.035648286
-0.049583707 -0.036257852 -0.035406522 -0.012844474 0.0008269036 -0.050490193 -0.013325645 -0.0118188895
-0.03699678 -0.009947788 -0.04684289 0.0020849989 0.008342573 -0.03698925 -0.006052961 -0.0244263
-0.023822153 0.017634902 -0.00930441 -0.0141470395 -0.022933409 0.025049124 -0.029152008 0.028649237
-0.024539456 -0.014645243 -0.00819451 -0.056060184 -0.05008405 -0.0039440193 -0.0012243956 -0.006232956
-0.040878642 -0.014710734 -0.0069796247 0.022142723 0.013053799 0.00021357904 -0.001108399 -0.014471447
-0.053184576 -0.027659021 -0.024534468 -0.0048725447 -0.03284788 -0.004955169 -0.00020862743 0.0334029
-0.033710986 0.023385648 0.014323318 0.007088833 0.035997506 0.0006835859 -0.028051738 0.008310682
-0.034330964 0.03088401 -0.011075099 -0.016155297 -0.0024905438 0.04139157 0.01670732 -0.015282064
-0.0032196264 0.004923805 -0.017403733 -0.018531054 -0.06122559 -0.01035527 -0.029374357 -0.06338582
-0.043157555 -0.013810493 0.010995403 0.030283857 -0.008098776 -0.0151554905 -0.014739318 0.042794902

encoder.encoder.0.bias f4 [20]
00000000: 2eae adbb ef8d 3dbc d8af 103c 51f5 8a3c
00000010: cc60 8ebc 1d4f 16bd e313 b33c 3ce6 1f3d
00000020: a5b4 283c 6dc5 69bc a935 993c b990 b13c
00000030: 3887 a03a b02c 46bb e008 033d 2ebf 793c
00000040: 3f39 303d 75a4 5f3c 73ae d13c ce6b da3c
-0.005300305 -0.011569484 0.008830987 0.01696268 -0.01738014 -0.036696542 0.021860069 0.039037928
0.010296975 -0.014268261 0.018702345 0.021675454 0.001224733 -0.0030239038 0.031990886 0.015243335
0.043023344 0.013650049 0.02559588 0.026662733

encoder.encoder.1.weight f4 [20, 20]
00000000: 75c0 dbbd 62e7 46be 89f3 233e 7a17 4ebe
00000010: 9e93 483e 33c6 12be 06b4 6c3e 969e febd
00000020: 24db 45be 8f19 1dbe 369f 0dbe 903f c3bd
00000030: 75c8 61be 2656 f83d 1cb7 a13d 802a 283e
00000040: c160 e2bd aa31 62be 1652 e13d 0681 bfbd
00000050: cf2a 2dbe 28f9 f43d 2e32 bf3d ee31 853d
00000060: 06a4 10be 839e 6e3b 2bd2 143e e4a7 fc3d
00000070: 03db e0bd 24f5 683e 66c0 a23d 2bf1 bebc
00000080: 2c17 633d f64a 9bbc b265 10be 68cd d23d
00000090: 958b c3ba a48a 70bc 63c5 6b3d 10a2 2ebe
000000a0: fcf1 f73d 107e a13b c49e 4abb ceb4 01be
000000b0: 8791 02be cde6 05be 7929 a8bc 8605 6d3e
000000c0: 1041 413e 4682 27be 6d46 cc3d 3a78 57be
000000d0: b42b b73d 1256 033e 0814 4d3e 9ab7 c6bd
000000e0: 2ce8 353e 4674 34be f8ab a3bd 3149 873e
000000f0: 3f7a 613c e0b2 43be 1794 6fbd 3d6e 513e
00000100: be1f 813e 01f5 05be eabf ecbd dea2 a23d
00000110: b10a 04bd e0e7 6a3d 439e 0d3c 6029 4cbe
00000120: 4a65 383b fead 6ebe 196c b7bb 72c7 8fb9
00000130: 2993 ed3c dca8 1abe 79ba 30be 3d84 dd3c
00000140: 9911 253e 29dd 7abd 1dae 5cbe cd58 cebd
00000150: 57fb 0e3e ab21 f3bd 2a09 66bd 9e74 363e
00000160: 893a 383e 9f97 073d 3d8b 4d3d 7021 b83d
00000170: 56d9 1cbd 4445 40be ecd1 05be 67ec 34bd
00000180: 2c08 20be ad3a f5bd 34f3 c7bd 9705 d8bd
00000190: 1b74 ccbd 376b 0cbe 6bd6 213e 3a38 e3bd
000001a0: 1660 243e d04c 903d d766 88bd 3573 0dbe
000001b0: 350d 65be 9c3b 983d 6feb c8bd 4037 29bd
000001c0: 9917 00be ba21 b83d 43c9 8b3c 07bd 513e
000001d0: 3e3a 823c 56a4 41bd 2fef e8bb 80f7 a8bd
000001e0: ab69 29be 42f0 32be a88d 68bd 1df5 983d
000001f0: b24f 1ebe 5732 323e 78cb 4e3d aaf4 9a3d
00000200: cdd0 88bd 9d50 12be 6253 01be 976c 46be
00000210: b253 14bd cfe0 5f3d cbd9 4ebb 4dd7 4ebd
00000220: 1b72 46be f296 203c 091e 203d 47e8 c73d
00000230: 04cf 5fbe 8824 0f3e 0ce4 a73d c7ba 343e
00000240: b4bc fe3d 978c ed3d adc6 ebbc cd98 70bd
00000250: 37a8 ad3d 19a5 f3bd 4a52 56be f79c 3abe
00000260: 81d3 54be 110c 0abe 6928 21be 8479 f4bd
00000270: 5f30 a63c e37a 1a3e 30f0 7fbe 12b7 91bc
00000280: 8ead d03b a091 75bd 98e4 2abe 134b 2abe
00000290: 37a7 63be a386 80bd d5be f33d 265e 663e
000002a0: bba2 b73d 7883 23bd dac7 dabd a2bf 583c
000002b0: bb14 3fbd 016b eb3d edcb b03d 50de dd3d
000002c0: 9308 da3c 29c7 913d b8c2 d23d 8c44 8a3b
000002d0: e621 a03d d7bf 21be c636 363e efe4 e0bd
000002e0: cd8a d13b b0eb 313e 5228 653e 7c32 183e
000002f0: 76f7 5abd 300d 9dbd 02b6 a13d a4b6 86bd
00000300: 19b8 d7bd af04 1e3d 22dc 063d 3bd1 693e
00000310: db7e 383e 4c90 343e 1bf0 82bd 5070 083e
00000320: a4f4 073e 55dd 3a3d 9956 403c d18d e5bd
00000330: 70e3 d2bd eb14 543e 9908 73be db13 3f3e
00000340: dcf8 02be 81b9 8e3d 1c41 19be adac 2fbe
00000350: d22b 303d 4996 13be 4343 54be 6d3d 0f3e
00000360: 5989 d83d b763 663e 937c 133e 50da 2d3e
00000370: 53a3 92bd cdaf ae3d 2b14 b0bd ec48 75be
00000380: eff0 233e 1f0b dcbc 2de9 013e c059 9a3c
00000390: 458e 18be 0888 673e caed 14be 9932 2dbe
000003a0: 032f 5ebe aaf3 f83d 0b97 16be fa75 03be
000003b0: c9df 943d d152 0c3e d9dd fc3d c6b9 f83c
000003c0: 7258 5d3c bcac 73bd efc1 cc3d 631b 393e
000003d0: 56f5 403e 1d0f 783d f8fc 133e ee89 353e
000003e0: af1b dfbd 3522 5c3e 032c 4e3d cc39 1abe
000003f0: 2ff9 62be 3bf1 673e fa41 ff3c 17c7 553d
-0.10730068 -0.19424203 0.1601087 -0.20126143 0.19587561 -0.1433342 0.23115548 -0.124325916
-0.19321877 -0.15341781 -0.13830265 -0.09533608 -0.22049125 0.121258065 0.078962535 0.16422462
-0.110536106 -0.22089258 0.11001985 -0.09350781 -0.16910861 0.11961585 0.09335743 0.06503664
-0.1412507 0.0036410398 0.14533298 0.1233671 -0.10979273 0.22749764 0.07946853 -0.023308357
0.05544202 -0.018956643 -0.14101294 0.102930844 -0.0014918918 -0.014681492 0.05756129 -0.1705401
0.12106702 0.004928358 -0.0030917386 -0.12666628 -0.12750827 -0.13076325 -0.020527588 0.23146638
0.18872476 -0.16358289 0.0997437 -0.21041957 0.089438826 0.12825802 0.20027173 -0.09702988
0.17764348 -0.1762248 -0.07991785 0.26423028 0.013762056 -0.19111204 -0.05849084 0.20452209
0.2521953 -0.13081743 -0.11560042 0.07941221 -0.03223676 0.05735004 0.00864369 -0.19937658
0.0028136545 -0.2330856 -0.005597603 -0.00027423684 0.029000835 -0.15103477 -0.17258634 0.027040595
0.16119994 -0.06124607 -0.21550794 -0.10075531 0.13963066 -0.11871656 -0.056161083 0.17817923
0.1799108 0.03310358 0.050181616 0.08990753 -0.038293205 -0.18776423 -0.1306836 -0.044170763
-0.15628117 -0.11974082 -0.09763184 -0.10547941 -0.09983083 -0.13712774 0.1580445 -0.11094709
0.16052279 0.07045901 -0.0666024 -0.13813479 -0.2236832 0.074332446 -0.098105304 -0.041312456
-0.12509002 0.08990808 0.017063743 0.20482264 0.015896913 -0.047275864 -0.007108591 -0.08250332
-0.16544215 -0.17474464 -0.05677572 0.07468627 -0.15460089 0.17402016 0.05048701 0.07566197
-0.066804506 -0.14288564 -0.12629464 -0.19377361 -0.03621263 0.054657754 -0.003156292 -0.050498296
-0.19379465 0.009801613 0.039091144 0.097611 -0.21856314 0.1397878 0.08197793 0.17649375
0.12438336 0.11599081 -0.02878126 -0.058739472 0.0847935 -0.11896724 -0.20929828 -0.1822394
-0.20783807 -0.13481165 -0.15738072 -0.1193724 0.020286737 0.1508594 -0.24993968 -0.01778749
0.0063683456 -0.059953332 -0.16688764 -0.16630201 -0.22231756 -0.0627568 0.11901633 0.22496852
0.08966585 -0.0399203 -0.1068265 0.013229283 -0.04665063 0.11495019 0.08632646 0.10833418
0.026615417 0.07118065 0.10291046 0.004219597 0.078189656 -0.15795837 0.17794332 -0.109811656
0.00639472 0.17375064 0.22378662 0.14863008 -0.053458653 -0.07668531 0.07896043 -0.06577805
-0.10533161 0.038578685 0.03292478 0.22833721 0.18017142 0.1763317 -0.06393453 0.13324094
0.13276917 0.045621235 0.0117393965 -0.1120869 -0.102972865 0.20711105 -0.23733748 0.18659918
-0.12790245 0.06968976 -0.14966244 -0.17155714 0.04301054 -0.14412798 -0.20728783 0.13988276
0.10573072 0.22498976 0.1440299 0.16977811 -0.07160058 0.08529625 -0.08597597 -0.23953599
0.16009878 -0.026860772 0.12686606 0.018841624 -0.14898022 0.22610486 -0.14543834 -0.16913833
-0.21697621 0.1215585 -0.14706056 -0.12837973 0.07269246 0.13703467 0.123470016 0.030362021
0.013509857 -0.059490904 0.099979274 0.18076853 0.18843588 0.06056129 0.14451969 0.17728397
-0.10893952 0.21497424 0.05033494 -0.1506111 -0.22165368 0.22650616 0.03115939 0.05219182

encoder.encoder.1.bias f4 [20]
00000000: 0cc7 033c 1666 3f3e 03d6 1abc b73e f43d
00000010: 1eae 2bbd c7e0 0d3d 9fbd 10be 9088 3bbe
00000020: 3ed6 bb3d 2dcf 61bd 1372 e63d df5b ac3c
00000030: a634 1cbe 5176 613e 18f0 183e 5ad9 a13c
00000040: 396b 66bd 3f06 64bd a5a3 5b3e be21 44be
0.008043062 0.18691286 -0.009450438 0.119260244 -0.041914098 0.034638193 -0.14134835 -0.18313813
0.09171723 -0.05512922 0.11252227 0.021039901 -0.15254459 0.2201779 0.14935338 0.019756962
-0.0562546 -0.05567002 0.21449144 -0.19153497

encoder.encoder.3.weight f4 [20, 20]
00000000: 2620 3dbe 6dae 1e3e 05d6 df3d 033d 313d
00000010: 4323 2a3e bfb8 10be d32c 15be 3035 02be
00000020: 42e9 633e 7af9 413e 3742 d63b 173d d7bd
00000030: 6a53 f9bd f114 6d3e 2368 693e 253c e9bc
00000040: 0782 49be a137 e43d 3e1c 13be ac22 20be
00000050: 03f8 553d ede7 923d 1877 5a3e 569c a53d
00000060: c1d4 e73c a30a 863d 08cd 98bc c852 e5bd
00000070: 59b6 9abd 5c00 3ebe 4b82 77be 1be9 9fbd
00000080: c141 9bbd 0a96 e33c c690 ea3d 5e90 fd3d
00000090: 8e91 82bc b218 1b3e 7ef2 3f3e d01a ef3d
000000a0: a7f7 53be dc27 2abd 9e97 223d eb37 39be
000000b0: c4f6 1cbe 8fff c73d 3761 aa3c edbc 10be
000000c0: 0ca5 ccbd a0ad 27be 5fe2 00be 8ad5 b43c
000000d0: ee8f 93bb 9854 59be 06d1 b13d b3bd 90bd
000000e0: 53d9 2cbd 04a3 043c 4f56 9fbd 734b 3bbe
000000f0: be9c 2fbd f2bd 13be 1f1b 5d3e 9f8d 363e
00000100: a25a e23d 0de8 11be 2a1c 833e d247 dfbd
00000110: 7f0a 0b3e 5fde 04bc 3439 303e 62b1 96bd
00000120: a3a1 193d e9cc 523e 1141 67bc 190a 0e3d
00000130: a92c 463b 51ae 353d 12e3 353e 34f8 a53d
00000140: 9d90 6ebd 5204 3a3e a018 e8bd f653 a83d
00000150: af49 df3b b379 37be 9de9 563d c5ac 62be
00000160: a3c2 163e d372 cf3d 28ff 36be 4b2e b2bc
00000170: 77f1 b83d 7ce2 1fbd 8900 5c3e df4a 4a3e
00000180: c404 3f3e c7e9 7f3e 81d7 993d 90c6 3ebe
00000190: 8bb4 8b3d a413 69bd 0674 263e e3b3 993d
000001a0: b320 813d a4e0 a93d 76a6 a63b 5042 403e
000001b0: 52e8 a3bb 2bbb 243e e31e 78be 95ee 333e
000001c0: 3230 a23d ddc9 52be fa28 a0bd 8665 023e
000001d0: 4643 54bd 726e 1b3d 240c b3bb 8ad1 06be
000001e0: 05bb 613e facc 963c ccbd 2a3d 2c80 21be
000001f0: abe7 c93d a67b fe3d de91 d13b 53e1 11be
00000200: 1c8b e4bc 0310 dfbd e8bb 5abd 4acc b03d
00000210: 7267 babd e3af cc3d 8c39 6b3e 2e70 64be
00000220: 7774 16be 0aa5 b93c b0f3 2abe 3492 85bc
00000230: 9fd7 963c 0423 73be 2049 a2bd 12fd 94bd
00000240: 0e78 4d3e db38 41be 780a b1bd 3a32 493e
00000250: dd95 6cbe 08c3 213e 0ee2 2b3e 6bb4 1abe
00000260: 47cc edbd dd7c b5bd 35b3 63be 740d 10be
00000270: 419a 6b3e 401d 11be fcef 59be d6e0 f33d
00000280: 839a cabc 0493 58be fbaa 023c 5ac4 663e
00000290: bdf6 523e faac 013e 6394 13be 6d9d 713e
000002a0: 86eb d3bc d687 08be 8ce5 50bd f5c8 47bd
000002b0: 598a 133e 1314 c33d cd62 833d a9e0 22be
000002c0: c0b3 ce3d a983 62bd af95 bdbd 5120 91bc
000002d0: 6bd1 093e 44ae 17bd f837 4cbc 5e22 343d
000002e0: 3625 c23d 1d4e 7c3e 3774 ecbd 2a3f d1bd
000002f0: c010 e2bd 9d41 253d ccfa 883c dad1 923d
00000300: b6be 27be 3b3d 143c 5f5b 99bc 6efb 5f3e
00000310: d7c4 3cbe 196e a4bd 9ddc 1ebe 3ea6 2dbc
00000320: cb70 dfbd 11db 003e 6479 46be 1597 27be
00000330: 54f8 493e e032 243e ef99 6abe d8c6 d03d
00000340: 8ad4 68be df65 103e fe08 08bb bcf1 83bd
00000350: a254 3c3e c934 c6bd 10df 113e dd7f 6ebe
00000360: d385 5b3e 67ba 083e b609 37be 30e7 14be
00000370: 99be 153e bf61 5d3e 1070 04be 9fae 9c3d
00000380: a982 19be a76f 493e 7c19 4bbe 131b eb3d
00000390: 194d 5f3e 63ca c43d 12c1 2abe e7f8 a1bc
000003a0: 58a7 69be 67a3 183e 35a1 3b3e ea3e 52be
000003b0: 62a9 133d 8feb 01be 13c1 81bd 2f2a ac3d
000003c0: 51b3 ce3d 6e20 843e 9094 3abe 826d e2bd
000003d0: a27f cf3d 3379 933c b18d 49be 2b11 8f3d
000003e0: ad6c a0bd e543 2e3e 5de9 4c3c cd38 61be
000003f0: ef6f 44be 2b91 65bc 7c1a 133e e2c5 3c3e
-0.18469295 0.15496226 0.10929493 0.043271076 0.16615014 -0.14132975 -0.1456788 -0.12715602
0.2225695 0.18942824 0.006538655 -0.10509699 -0.12174113 0.2315252 0.22793631 -0.028471062
-0.19678508 0.11143423 -0.14366242 -0.15638226 0.052238476 0.071731426 0.21334493 0.08086459
0.028299691 0.065449975 -0.018652454 -0.1119743 -0.07554311 -0.18554825 -0.24170797 -0.07808133
-0.07580901 0.027781505 0.114533946 0.123810515 -0.015938547 0.1514614 0.18744847 0.11675036
-0.2069994 -0.04154192 0.039695375 -0.18087737 -0.15328509 0.09765541 0.020798309 -0.1413457
-0.09992418 -0.16374826 -0.12586354 0.02207448 -0.0045032417 -0.21223676 0.08682446 -0.07067432
-0.042199444 0.008095507 -0.07780134 -0.182905 -0.04287409 -0.14427927 0.21592377 0.17827462
0.11052443 -0.14248677 0.25607425 -0.109023705 0.13578223 -0.008109658 0.17209321 -0.07358052
0.037507664 0.2058598 -0.014114634 0.0346776 0.0030239022 0.044355694 0.17762402 0.081039816
-0.058243383 0.1816571 -0.11332822 0.08219139 0.0068142037 -0.17917518 0.052468885 -0.22136219
0.14722686 0.10129323 -0.17870772 -0.02175059 0.09030431 -0.03903435 0.21484579 0.19755124
0.18654162 0.24991523 0.07511807 -0.18630433 0.06821545 -0.056903496 0.16255197 0.07505014
0.06305065 0.082948 0.0050857617 0.18775296 -0.00500206 0.16087024 -0.24230532 0.1757148
0.07919349 -0.20584817 -0.07820316 0.1273404 -0.05182197 0.037947126 -0.0054640938 -0.1316587
0.22043999 0.018408287 0.04168491 -0.1577155 0.0985864 0.12425928 0.0063955626 -0.1424611
-0.027898364 -0.10891726 -0.053401858 0.08632715 -0.09101762 0.09994485 0.22971171 -0.22308418
-0.14692865 0.022661705 -0.16694522 -0.016305067 0.018413363 -0.23743826 -0.07924104 -0.07274832
0.20065328 -0.18869345 -0.08644575 0.19648066 -0.23104043 0.15797055 0.16785452 -0.15107886
-0.116112284 -0.088617064 -0.22236331 -0.14067632 0.23008062 -0.14171314 -0.21282953 0.119081184
-0.02473188 -0.21149832 0.007975335 0.2253584 0.20601936 0.12663642 -0.14412074 0.2359521
-0.025869142 -0.13333067 -0.051000163 -0.048775632 0.14408244 0.09525313 0.06415329 -0.15906014
0.10092878 -0.055301342 -0.092570655 -0.017715605 0.13458793 -0.037031427 -0.012464516 0.043978088
0.09479754 0.24639173 -0.11545604 -0.10217126 -0.11038351 0.040345777 0.016721152 0.07168932
-0.16381344 0.009047802 -0.018720327 0.21873257 -0.18434463 -0.08028812 -0.15513845 -0.010598717
-0.109101854 0.12583567 -0.19382244 -0.16366227 0.19723636 0.16035032 -0.22910284 0.101941764
-0.22737327 0.1410136 -0.0020757313 -0.064425915 0.1839166 -0.09678037 0.14245248 -0.23290963
0.21437769 0.13352357 -0.17874798 -0.14541316 0.14623488 0.21619318 -0.12933373 0.07650494
-0.14991249 0.19671498 -0.1983394 0.11479773 0.21806754 0.09608915 -0.16675213 -0.019772006
-0.22817743 0.14906083 0.18323214 -0.20531812 0.036050208 -0.12687515 -0.06335654 0.084064834
0.10092796 0.25805992 -0.18220735 -0.11056043 0.10131766 0.018002128 -0.19682957 0.069856964
-0.07833228 0.17018087 0.01250681 -0.21994324 -0.19183324 -0.0140116615 0.14365572 0.18434861

encoder.encoder.3.bias f4 [20]
00000000: b980 47be 767c 6d3c 8653 303e eca2 e03d
00000010: 814f 333d 32f0 943c 30a9 183e 535f d2bd
00000020: 5a09 2a3d 517c f3bd 47c7 323e 8688 e6bd
00000030: 0494 32be 3e10 943b 9d65 2abd 57b5 15bb
00000040: a9d0 3cbe dbaa 043e e75f 013c 252e 833d
-0.19482698 0.014495006 0.17219362 0.10968575 0.043776993 0.01818094 0.1490829 -0.10272088
0.041512825 -0.11888946 0.17458831 -0.112565085 -0.17439276 0.004518538 -0.041600812 -0.0022843683
-0.18438973 0.12955801 0.0078964 0.06405286

model.0.weight f4 [20, 20]
00000000: 806b fabd 806f 02be 6d99 f93c 4ceb 27be
00000010: c5f6 063e f0f5 4a3d d167 8f3d cf57 1fbe
00000020: ae08 4a3e 14bd f4bc 3618 0b3a 83e5 3dbe
00000030: 8844 71be 1ef4 4bbd 8661 993d 7c51 5e3d
00000040: ef43 0ebe c182 00be ac37 bebd 2232 73be
00000050: 28fc 703e c750 763e ddca bfbc b4b8 55bd
00000060: aae1 6b3e f0c2 563e 38d6 08bd c810 34bc
00000070: 709a fd3d ed2e 263e cff0 903d 1410 80bd
00000080: 1db6 b93c cc83 b33d a319 a03c b24c 4e3e
00000090: 4043 9dbd e504 acba 301e 1abc 80b0 223e
000000a0: 83f6 23be c6e5 8abd 28c2 f8bb 3fdc 643d
000000b0: a742 1abd 7341 dc3b 791a 6cbd c67e bc3d
000000c0: e9e5 a23d 9ceb 4b3d 477f 51be 987d 313c
000000d0: 4e4b f7bc 39f6 5b3e 3309 28be bdae 523e
000000e0: b051 3dbd eb05 cfbd ff10 a4bb 1dbd 413e
000000f0: 50f7 5dbd 8bfc 993d 9d5a 873d e049 443d
00000100: 1ad6 57be 995c ecbc dc2b f9bd 2def 04be
00000110: 8842 653d 7312 cbbd 5a64 0cbc ce2d 303c
00000120: 35a5 5a3e a7e0 e9bd 41c8 e5bd 438d 073e
00000130: 7793 353d cc4b 2bbe bbe9 333b 6226 be3d
00000140: 0865 63bc bb5e 203e 5c50 243e db83 cd3b
00000150: 5ea4 cc3d e5d5 60be e496 1f3e ff98 4d3d
00000160: 5312 1a3d 0273 23bc ab25 573d f8ca a83d
00000170: 58d6 803e e40c 4cbd a0f2 403d c2c4 133e
00000180: 9d1b 2abe 88b5 673d a78f 9b3d 187f 5c3e
00000190: ca7e 27bd 9899 61be 97e4 dbbd 1d76 b83d
000001a0: f335 d8bd 0049 993d bb33 c3bd 3a2e 46be
000001b0: 2bb7 17be 3aca 413e 6bd9 ab3d 00e4 5abe
000001c0: 4f4d 82be 5b26 7d3d 79c1 f6bd ae95 0c3c
000001d0: f53b 80be 130c efbd 0a67 61be e67d 263e
000001e0: 48b7 6d3e c60a 383e ff13 44be 9456 15be
000001f0: 6fce 783e ea75 693e d5e1 413d 13af 873d
00000200: 9fa4 47be ed6f 433e 417e ebbd 9d71 5dbe
00000210: 91d2 cdbc 6aa6 cd3d 8ab0 8d3c 8f34 51be
00000220: caba 043e 85fd cdbd fcd0 913d 145a 4dbe
00000230: 28d2 293e 4494 4abe efef a8bd 3385 fd3d
00000240: ceab 963d 354e 393e 60eb 5b3e 2e4e 0fbe
00000250: eadc 72be c605 443e ff24 19be e133 5d3e
00000260: 5373 ebbd d712 233e 8815 66be 01c8 3c3e
00000270: ed18 47be 943a 69be e334 e63d 5429 d3bd
00000280: 05cc 4a3d 1b15 46be d3f2 3bbe e5e7 6bbd
00000290: 3ce5 66bd c8ff df3d 0fb9 0c3e 62d4 62be
000002a0: 8e68 163d 84c1 18be 2e1c 143d bfc8 3abe
000002b0: 3f17 f23c 1e5c fbbd c039 483e ec64 49be
000002c0: e3b5 0f3e ca0a 353c 8078 c13b 1367 d4bd
000002d0: 4a39 3e3e 4681 cfbd bede f33d ecfb 183e
000002e0: 8a75 81be 45cd 55be 2986 273e cb3d 773c
000002f0: ac44 f03d 8315 c8bd a6df ab3c d0bc 1bbd
00000300: de56 053e 9b1e 1bbe 7c62 c3bd 570f e6bd
00000310: 07b0 413e 5b77 8c3d 022f 62bd 9e2e 38be
00000320: 0a45 c03d 9f88 ea3d ec7b bdbd 490e 633e
00000330: 0588 13bd a64c cd3d 5dfe 52be 72e8 b43d
00000340: f5bb c73d 6ee0 de3d 6239 dabd 1ce4 c7bd
00000350: 7910 1bbe fa66 fdbd 91be ee3d d3a4 62be
00000360: 3f2a bcbd 4c95 18be e10b 443e db0d 81bd
00000370: fd28 a03d 6784 c63d b993 adbc 71cb 9c3d
00000380: 2ef2 3abe 6671 473e 19c1 e43d e87d 303c
00000390: 4ea3 9bbd 9102 0cbe a43e 12be 94a4 c8bd
000003a0: ce96 843c fb12 54be 5c5d 203e 9d47 56bd
000003b0: 3dea 8a3d 85ce 423e 7b14 963d 6168 80be
000003c0: b0e7 7abd 9975 6c3e 365c 20be 35c2 443e
000003d0: 9dc0 9bbd d0e2 b5bd 861d f73d 362b 2c3b
000003e0: e324 203e 476d bbbd 3ce5 32be f1cc b23d
000003f0: 5440 5d3e dad1 a13d f11e 603d c586 423d
-0.12227535 -0.12737846 0.030468667 -0.16398352 0.13180073 0.04955095 0.07002223 -0.1556084
0.19729874 -0.029875316 0.0005306037 -0.18544583 -0.23561299 -0.049793355 0.07489304 0.05427693
-0.13893102 -0.12549879 -0.09287962 -0.23749593 0.2353369 0.24054252 -0.023412162 -0.0521781
0.23035303 0.209728 -0.03340742 -0.010990329 0.12382972 0.16228838 0.070771806 -0.06253067
0.022669846 0.08765373 0.019543475 0.20146444 -0.076788425 -0.0013124017 -0.009406611 0.15887642
-0.16012006 -0.06782107 -0.0075915046 0.055874106 -0.03766122 0.0067216693 -0.057642434 0.092038676
0.07954008 0.04978524 -0.20458709 0.010833167 -0.030187275 0.21480645 -0.16409759 0.2057447
-0.04622048 -0.10108551 -0.005006909 0.18919797 -0.054190934 0.07518872 0.0660908 0.047922015
-0.21077767 -0.028852748 -0.12166569 -0.12981863 0.055971652 -0.09915628 -0.008568848 0.010753108
0.21352084 -0.11419802 -0.11219836 0.13237481 0.044330087 -0.16728133 0.0027452547 0.09284665
-0.013879068 0.15661137 0.1604628 0.006271822 0.09992288 -0.21956594 0.15584904 0.050194737
0.03761513 -0.0099761505 0.052526157 0.08241838 0.2516353 -0.04981698 0.047106385 0.14430526
-0.16612096 0.056569606 0.07595759 0.21532857 -0.0408924 -0.22031248 -0.107369594 0.09006903
-0.10557165 0.07484627 -0.09531351 -0.19353572 -0.14815967 0.189248 0.083910786 -0.21376038
-0.25449607 0.061804157 -0.12048621 0.008580608 -0.25045744 -0.11672225 -0.22011963 0.16258964
0.23214447 0.1797286 -0.19148253 -0.14583808 0.24297498 0.22798887 0.04733451 0.0662519
-0.19496392 0.19085665 -0.114986904 -0.21625371 -0.02512482 0.100415066 0.017296094 -0.20430206
0.1296188 -0.10058121 0.07119939 -0.20053893 0.16584074 -0.19783121 -0.08248889 0.12378921
0.07356988 0.1809624 0.21476507 -0.13994667 -0.23717085 0.19142827 -0.14955519 0.21601821
-0.11496606 0.15925156 -0.22469151 0.1843567 -0.19443102 -0.22776252 0.11240556 -0.10310617
0.049510974 -0.19343989 -0.18354349 -0.0575942 -0.05637096 0.10937458 0.13742469 -0.2215133
0.036720805 -0.1491757 0.036159687 -0.18240641 0.0295521 -0.12273429 0.1955328 -0.19667405
0.14034228 0.011049936 0.0059042573 -0.10371222 0.18576542 -0.10132079 0.11907719 0.1493985
-0.25284988 -0.20879085 0.16359772 0.015090416 0.11731848 -0.09769728 0.020980667 -0.038021863
0.13021418 -0.15148394 -0.09540269 -0.112333946 0.18914805 0.06858703 -0.05522061 -0.17986533
0.09388168 0.1145184 -0.09252152 0.22173418 -0.03601839 0.10024385 -0.20604844 0.08833398
0.09752647 0.1088265 -0.10655476 -0.09760305 -0.15143003 -0.12373157 0.116574414 -0.22133188
-0.09187745 -0.14900702 0.19145156 -0.06301471 0.07820318 0.096932225 -0.021188604 0.07655991
-0.18256447 0.19476852 0.11169643 0.010772206 -0.07599507 -0.13672854 -0.14281708 -0.09797016
0.01618519 -0.20710365 0.15660614 -0.05231439 0.06782959 0.19024093 0.07328125 -0.25079635
-0.06125611 0.23091735 -0.15660176 0.19214709 -0.076050974 -0.08881152 0.12066178 0.0026270873
0.15639071 -0.091517024 -0.17470258 0.08730496 0.2160657 0.07901354 0.054717008 0.047491807

model.0.bias f4 [20]
00000000: d23e 073e d84e c0bc 2939 003d 9ff8 fb3c
00000010: 2485 25be c071 993d a097 62bc 5797 903d
00000020: ed50 193e 53c7 df3d 8af2 06bd 1519 693e
00000030: 44eb 32be e6a9 d6bd 2ade cc3b f83f b7bd
00000040: ea18 193c 1165 18be d06a 913d d7e7 39bd
0.13207558 -0.023475096 0.031304512 0.0307582 -0.1616407 0.07492399 -0.0138300955 0.07060116
0.14972277 0.1092669 -0.032946147 0.22763474 -0.17472559 -0.10481624 0.00625207 -0.08947748
0.009344319 -0.14882304 0.07100451 -0.045387115

model.2.weight f4 [20, 20]
00000000: 325f 55bc 62ee a73c 3f5d be3b 0277 92bd
00000010: 8ff0 32be c5ab bf3d 9754 6bbe edfb 163e
00000020: a237 1b3e 5f2b cfbd 75d3 583d 9f0a 2cbe
00000030: c0fa ac3c 32c2 263e 4535 19be 802a 0dbe
00000040: c9bb 44be 4d82 363e 0b57 3cbd 2083 263c
00000050: fe98 663e 0bd5 3a3e 36bb 03be cee4 1c3e
00000060: 7328 aebd 109a a43d ff45 7a3e b624 e6bd
00000070: 1f58 543d ce7a 33bd 53ef b53d 4d77 353e
00000080: 09ed 1b3e 2f60 bf3d 964f 1b3e 336e 9e3d
00000090: 03b2 97bc ff66 6c3e df70 6ebe a928 a53c
000000a0: 79f7 55be 128c dbbd be5c 973d 8317 593e
000000b0: afb4 8ebc 772d 15be 78de f7bc 8072 383d
000000c0: 4de7 5fbc 1349 73bd cc37 71be 0d22 9cbd
000000d0: 6e59 023e c4d7 4e3e 1a55 22be 6fe0 0bbd
000000e0: cb2e 03be a77f 0f3e 152d 19bd 7d26 8bbb
000000f0: a7e2 203d a886 2ebe 6955 c5bd 31ff 74be
00000100: 32b4 d53d 0c80 3b3e d82a 723d 0787 0e3e
00000110: 7cd0 cf3d a125 ffbd 0d6a 283d 10ef ae3d
00000120: 094d 3abe e76a 8dbc 304c 5dbe e6e7 1c3e
00000130: 8839 053d a1a8 2dbd fc7f ebbd a219 a7bc
00000140: 2203 50bd db26 113d 8433 1f3b f1bd babd
00000150: a6e0 293e 3505 e3bd 819b d03d b473 553e
00000160: 2446 373d 7118 2c3d 7fdb d03c d44e 723e
00000170: 9d49 43be 2b3e bdbd d87e d53d 036b d6bd
00000180: d9c9 19be b406 62be 0789 583c b8f2 de3d
00000190: 7b8c ca3d e6c5 d6bd 1250 ff3d 9043 d43d
000001a0: 7e9a 033e adef 453e 3209 74bd c16d 40be
000001b0: 1b1a e53d fa2a 0b3e 27d4 c83c 896e 27be
000001c0: bcad 3bbe 7b1e 6d3d b441 28bd d399 ff3d
000001d0: 0185 2ebe cd95 cb3d 46ed 89bd aaa1 85bc
000001e0: ef73 aabd 3d35 5abe ce62 363e 0825 603e
000001f0: 401d 80be 984e 233e a02d 60be 3626 6c3d
00000200: 977f ffbd 4a57 4b3c 6b33 ac3d 5745 f0bd
00000210: 39f7 0cbe 760e 3dbe 04ef 503e f65b d43d
00000220: 4fa8 1ebe 5d29 113e 5183 bf3d 9674 17bc
00000230: d399 09bd 997a 403e 5b8a 29be 0f20 fbbd
00000240: 14e6 34be bf75 163e 793e 1f3d 82fb 4d3e
00000250: c801 1e3e d95e ce3b 89f8 04be f80f 86be
00000260: a9be f7bd d82f 39be 8f51 083d 7105 123e
00000270: 9c8d ea3d 100c d63d da7b 35be 2f4b 1e3e
00000280: 52bd 75be 9587 b4bc 8891 0dbe b098 2e3e
00000290: ab08 cd3d 5dc1 fd3c 804e 36be cdea 753d
000002a0: a07d 0bbe c75a 893d 3e42 62be 3f52 a93d
000002b0: 80b6 8b3e 059f 823e aaa4 42bd 9809 6cbd
000002c0: 7946 7abd 5f0a 1fbe e050 9abd 78a1 833e
000002d0: 10b5 d2bc ab5f 313e e108 443e da9c cc3c
000002e0: f959 33be f6b2 3d3e 6a0f cd3c 249f 473d
000002f0: 4423 cd3d 5866 3d3e 7d40 9d3d 956c a9bd
00000300: eec0 2f3e e060 233e 5404 ef3c 2e9e 3d3e
00000310: 56d2 6e3e c91b 1fbe c76f 34be eeff 19bc
00000320: 2d7a 933d 01a2 783b ecca 263e 9153 5c3b
00000330: 2299 053e c423 103e ccce bcbd f83c 10bd
00000340: dd5e b93d e070 cc3d 69f7 513e b3e7 abbc
00000350: f65a d43d 5175 8cbd c1e2 07be 5d81 4c3e
00000360: f64b 9abc 5415 a93d 897d 1abe 2323 8d3d
00000370: de72 0ebe 6c37 b2bd 294e 16be 68b9 603e
00000380: d951 283e 1f1d 16be d94f 80bc 7b48 c7bb
00000390: 390b 883c b0a6 933d 4bb1 3cbe 6bce 54be
000003a0: b156 9a3d ed8e 8c3d 020e 33be 7015 873e
000003b0: 89a2 cebb 320c ddbd c6d7 dcbd 88cc 46be
000003c0: 8a75 373e fa40 82be 6530 7dbc c8c5 32bd
000003d0: de87 203e b65b b9bd 43d5 9c3d c8f3 543e
000003e0: 62e6 553e 6ad7 bc3d 26d7 7d3e df24 583e
000003f0: 872c e4bd 1a94 953d f659 fbbc b106 20be
-0.013023185 0.020499412 0.0058094556 -0.07151605 -0.17474578 0.09358934 -0.22981487 0.1474454
0.15157941 -0.10115694 0.052936036 -0.16800927 0.02111566 0.16285017 -0.14961727 -0.13785744
-0.1921226 0.17823143 -0.04598145 0.010163099 0.225193 0.18245332 -0.12864384 0.15321657
-0.08503809 0.080371976 0.24440764 -0.11237471 0.05184185 -0.043818288 0.08883538 0.17721291
0.1522714 0.093445174 0.15167078 0.077358626 -0.0185175 0.23086165 -0.23285244 0.02016099
-0.20895185 -0.10720076 0.07390736 0.21200375 -0.017420141 -0.14568125 -0.030257449 0.04503107
-0.013665986 -0.05939586 -0.23556441 -0.07623682 0.12729427 0.20199496 -0.15852776 -0.034149583
-0.12810819 0.14013539 -0.03739651 -0.0042465315 0.039278653 -0.17043555 -0.09635431 -0.23925473
0.1043476 0.18310565 0.05912289 0.13918696 0.10147187 -0.12458349 0.041116763 0.08541691
-0.18193449 -0.01726289 -0.21611094 0.15322837 0.03252557 -0.042397145 -0.114990205 -0.020397965
-0.050784238 0.035437446 0.002429218 -0.0911826 0.16589603 -0.110849775 0.1018591 0.20844918
0.044744626 0.042015497 0.025495289 0.23662883 -0.1907105 -0.09240373 0.10424584 -0.104696296
-0.15018405 -0.2207287 0.013216264 0.10886139 0.09890076 -0.10486965 0.12466444 0.10364449
0.12851903 0.1932971 -0.05957908 -0.18791868 0.1118662 0.13590613 0.024515225 -0.1635076
-0.18327993 0.057890397 -0.041078284 0.124805115 -0.17042924 0.099406816 -0.067347094 -0.016312439
-0.08322894 -0.21309371 0.17811128 0.21889126 -0.25022316 0.1594795 -0.21892405 0.05765363
-0.12475508 0.012410948 0.08408245 -0.117319755 -0.13766183 -0.18462548 0.20403677 0.10369103
-0.15493892 0.14175935 0.093512185 -0.009244105 -0.033593964 0.18796767 -0.16556685 -0.12261974
-0.17665893 0.14693354 0.038877938 0.20115474 0.15430367 0.006297928 -0.12985434 -0.26184058
-0.120969124 -0.18084657 0.033280905 0.14259888 0.11452791 0.104515195 -0.17723027 0.15458368
-0.23998001 -0.022037307 -0.13825047 0.17050433 0.10011419 0.030975992 -0.17803383 0.060038377
-0.13622141 0.067067675 -0.22095582 0.0826764 0.27287674 0.25511947 -0.047520317 -0.057626337
-0.061102364 -0.155313 -0.07534957 0.25709128 -0.025721103 0.1732165 0.19144012 0.024977136
-0.1751479 0.185253 0.025031764 0.048735753 0.10016492 0.18496072 0.07678316 -0.082726635
0.1716344 0.15954924 0.029176868 0.18517372 0.23322424 -0.15537943 -0.17620765 -0.009399397
0.072010376 0.0037938359 0.16288346 0.0033619145 0.13046697 0.14076144 -0.09219131 -0.035214394
0.09051297 0.09982467 0.20504536 -0.020984506 0.10368912 -0.06858314 -0.13270094 0.19971223
-0.01883505 0.08256021 -0.1508695 0.068914674 -0.13911006 -0.08701977 -0.14678253 0.21945727
0.16437472 -0.14659546 -0.015663074 -0.0060816384 0.016606914 0.072095275 -0.18427007 -0.20781867
0.07536066 0.068631984 -0.17485812 0.26383543 -0.006305997 -0.10793342 -0.10783343 -0.1941396
0.17915931 -0.25440198 -0.015453433 -0.04364565 0.15676829 -0.090506956 0.07657864 0.2079612
0.20888665 0.092207745 0.24789104 0.21107815 -0.111413054 0.07303639 -0.030682545 -0.15627553

model.2.bias f4 [20]
00000000: c5d0 0abd 10bf 5ebd bbe3 693e 0d9f 883d
00000010: eb8e edbc 17c5 06be e062 ba3d 8dcd 4fbc
00000020: 95df eb3d dd17 5d3c 88f8 dd3d 607b 95bc
00000030: f842 07bd 05ae 36be 9731 013d 0446 6b3e
00000040: 751a b6bd 1c77 903d 7380 17be 0a22 1fbd
-0.033890504 -0.05438143 0.22840779 0.066709615 -0.028998813 -0.13161121 0.0910089 -0.0126832845
0.11517254 0.013494459 0.10838419 -0.018247306 -0.03302285 -0.1783982 0.031541433 0.22975928
-0.08891765 0.07053968 -0.14795093 -0.03885082

model.4.weight f4 [10, 20]
00000000: 27d2 dc3d 252c 963d d9f6 593d d965 ae3d
00000010: 10b4 aebd d55a cdbd 41e8 5ebc 829a 0bbd
00000020: 894c 8cbb 50e3 fe3d d7da eb3d 746c 353d
00000030: 5c6c 45bd f3d0 f1bd c8da c23d 7a18 3abe
00000040: 1f44 ea3c c683 1a3c caea 293e 5155 7dbe
00000050: 2214 643d 485e 4d3e 4b75 0f3e e9da 203e
00000060: f1c4 e73d 4afe c03d fbca 54be 85f9 06be
00000070: a2f3 24bd 5762 60bb 745a 2c3e f28f 4ebe
00000080: aedd d13d b62a 4fbe 675d ce3d 3764 32bd
00000090: e42c 3d3e 141f 213e fff7 6b3d 45c1 5bbe
000000a0: 3ae6 553e e917 80bd 0254 67bd d576 083e
000000b0: c175 483e 1ce5 c4bd 6883 dc3d 32da 043c
000000c0: c6ef b0bd 06e2 2cbe 879e 92bd 740a c93d
000000d0: 23de 653e 71c7 59be 6ae4 93bc 76b6 0bbd
000000e0: 9052 6ebe 898d 423e d9ca e63c 1189 533d
000000f0: e5ed ce3c 85cb 063e 3daf 163e 9447 c93c
00000100: 0445 c7bd 7dc1 2ebe 6008 3f3e b2ca 09be
00000110: 9ba2 2dbd 9c71 41be 4526 1fbe 3246 183e
00000120: d6d3 433d 90b7 1cbe 410f ea3d 9c9b 32be
00000130: 1366 35bd 6ed8 d93c 57f6 6a3e 2d90 6dbc
00000140: 78c9 103d 49e7 5e3e 9661 593e db5a 4b3e
00000150: 3d2d 9bbd a109 edbd d991 4dbe d42a 443e
00000160: bc81 7c3e 6f3d d0bd a09f f83d 1956 acbd
00000170: 2114 0ebe 38e8 2e3c f843 30bd e8b7 b53d
00000180: 9f11 653c 6241 19be 79f3 fa3d 5eba e8bd
00000190: 693b edbd 52a6 ef3d 8756 593d 83b4 3f3c
000001a0: 0352 c93c 00d5 bfbd ec50 12bb 122f a63d
000001b0: 1bb1 103e aee4 893d ce2e 22be 30d9 793e
000001c0: 2931 d03d 711e 49be e686 6a3e c91b f63d
000001d0: e673 da3d f588 19bd 63ad 2abe a140 1abd
000001e0: e0e7 bcba 32f3 123e f38d 15be 54e5 373e
000001f0: e2dc 553d 5ed9 273e 65fa 433d 26a9 fd3d
00000200: b22e 463d 706c 5cbd 7380 0fbe 32ae 833c
00000210: 7b8d 373e 53d8 38be 30d4 18bd 7187 40be
00000220: c82d 58be 13ad 4c3d e41f debc 31b0 17be
00000230: b5ea 253e 9aae 953d a448 fb3c 5c6b 25be
00000240: f2a1 d03c 3566 f53d 67d1 fd3d d3c3 4bbe
00000250: c405 0d3e 187d 86bc 32d2 3abe 8aa0 42be
00000260: 013b 313d 34e3 0dbd 8d1c ffbc 9263 41be
00000270: 1e7b ecbd f6ef 823e aa78 b73d aa52 5abd
00000280: 40a0 5d3e 3c56 33bd a75c 18be bc5b 85be
00000290: 20e6 4b3e f0e9 5d3c 6d46 213e f547 2ebe
000002a0: 7e0e 84be 32a8 17bb 554c d3bd 33b9 14be
000002b0: 71bb 503e 51ad 4c3e 6ce8 22be 4b3b 153e
000002c0: 9d81 88bd 0c1f 50be 6ce0 253e cfc1 a03d
000002d0: 221e c93c aff3 aabd 98dc eb3b 3a5c 49be
000002e0: 1a67 eebd 4820 94bd 34e8 703e 9bbc 44bd
000002f0: 4675 13be bf86 cd3d ba92 593d c86b 73be
00000300: 0fb7 8d3c d3f7 01be e77e 24bc 6e0f 4bbe
00000310: 2a17 14be 6e35 eebc 7697 c7bd 2074 573d
0.10782271 0.07332639 0.053213928 0.0851552 -0.08530438 -0.100270905 -0.013605178 -0.034082897
-0.0042815846 0.124457 0.1151635 0.044292882 -0.048199043 -0.11807432 0.095143855 -0.181734
0.028596936 0.009430831 0.16593471 -0.24739577 0.055683263 0.20055497 0.14009587 0.15708508
0.113168605 0.09423502 -0.20780556 -0.13181122 -0.04027141 -0.0034238303 0.1683138 -0.20172098
0.1024736 -0.20231137 0.10076409 -0.043552604 0.18474156 0.15734512 0.057609554 -0.21460445
0.20888606 -0.062545605 -0.0564766 0.13326581 0.1957617 -0.09614012 0.10767251 0.008108662
-0.08639483 -0.16883096 -0.07159143 0.09816447 0.2244802 -0.21267487 -0.018053252 -0.034109555
-0.23273683 0.18999304 0.028172897 0.05164439 0.025259921 0.13163574 0.14715286 0.024570264
-0.097299606 -0.17065997 0.18655539 -0.13456228 -0.0423914 -0.18890995 -0.15541942 0.14870527
0.047809444 -0.15304399 0.11428691 -0.17442173 -0.0442868 0.02659246 0.22945534 -0.014499706
0.035348386 0.21767916 0.21228632 0.19858877 -0.07576988 -0.11574102 -0.20075168 0.19156963
0.24658865 -0.101679675 0.12139821 -0.08414859 -0.13874866 0.010675482 -0.04303357 0.08872968
0.013981252 -0.14966348 0.1225347 -0.11363672 -0.11583597 0.11701645 0.053061035 0.011700752
0.024575239 -0.093667984 -0.0022326065 0.08114447 0.1413006 0.0673307 -0.15838167 0.24399257
0.101656266 -0.19640519 0.22903022 0.12017018 0.10666637 -0.037484128 -0.16667704 -0.03765929
-0.0014412366 0.14350584 -0.1460493 0.17958575 0.052212603 0.16391513 0.047846217 0.12385778
0.048384376 -0.05381435 -0.14013843 0.016074274 0.17925064 -0.18051271 -0.037311733 -0.18801667
-0.21111214 0.049969744 -0.027114816 -0.14813305 0.16202815 0.07308693 0.030674286 -0.16154236
0.025467847 0.11982385 0.12393456 -0.1989892 0.1377173 -0.016417071 -0.18244246 -0.19006553
0.04326916 -0.034640506 -0.031141544 -0.1888564 -0.1154692 0.255737 0.08958562 -0.05330149
0.21643162 -0.04378341 -0.14879094 -0.2604655 0.19912004 0.013544545 0.15749522 -0.17019637
-0.25792307 -0.0023141024 -0.103172936 -0.14523773 0.20384003 0.1998799 -0.15908974 0.145734
-0.06665347 -0.20324343 0.16198891 0.07849466 0.024550501 -0.0834726 0.0071979277 -0.19664088
-0.11640759 -0.0723272 0.23526078 -0.04803143 -0.14400205 0.100354664 0.053118445 -0.23771584
0.017299203 -0.12692194 -0.0100400215 -0.19830105 -0.14461961 -0.029078212 -0.09745686 0.05260098

model.4.bias f4 [10]
00000000: 91dc 2fbd cd2e 6abd 5d0f 20be ba11 ecbd
00000010: fee4 ad3d 3f31 6cbd 8dd4 34bd 8cf5 d7bd
00000020: c9a6 3f3e 153d 45be
-0.042934958 -0.05717354 -0.1563086 -0.115268186 0.084909424 -0.057664152 -0.044148017 -0.10544881
0.18715967 -0.19261582

exp_avg f4 [20, 784]
00000000: 0000 0000 0000 0000 0000 0000 0000 0000
00000010: 0000 0000 0000 0000 0000 0000 0000 0000
00000020: 0000 0000 0000 0000 0000 0000 0000 0000
00000030: 0000 0000 0000 0000 0000 0000 0000 0000
00000040: 0000 0000 0000 0000 0000 0000 0000 0000
00000050: 0000 0000 0000 0000 0000 0000 0000 0000
00000060: 0000 0000 0000 0000 0000 0000 0000 0000
00000070: 0000 0000 0000 0000 0000 0000 0000 0000
00000080: 0000 0000 0000 0000 0000 0000 0000 0000
00000090: 0000 0000 0000 0000 0000 0000 0000 0000
000000a0: 0000 0000 0000 0000 0000 0000 0000 0000
000000b0: 0000 0000 0000 0000 0000 0000 0000 0000
000000c0: 0000 0000 0000 0000 0000 0000 0000 0000
000000d0: 0000 0000 0000 0000 0000 0000 0000 0000
000000e0: 0000 0000 0000 0000 0000 0000 0000 0000
000000f0: 0000 0000 0000 0000 0000 0000 0000 0000
00000100: 0000 0000 0000 0000 0000 0000 0000 0000
00000110: bb2d 4237 c337 c737 f0c5 2d37 deae 4736
00000120: 78ec 89b6 5028 5fb6 0000 0000 0000 0000
00000130: 0000 0000 0000 0000 0000 0000 0000 0000
00000140: 0000 0000 0000 0000 0000 0000 0000 0000
00000150: 0000 0000 0000 0000 0000 0000 0000 0000
00000160: 0000 0000 0000 0000 0000 0000 3728 e334
00000170: a1ac a435 5188 c635 8704 1536 feb4 d2b5
00000180: b710 0737 f581 d237 8d63 5838 b75e 5238
00000190: c46c 4137 de28 cdb7 3aee a1b7 33c9 f3b6
000001a0: c844 a3b5 0000 0000 0000 0000 0000 0000
000001b0: 0000 0000 0000 0000 0000 0000 0000 0000
000001c0: 0000 0000 0000 0000 0000 0000 0000 0000
000001d0: f48e ce37 0000 0000 9fe9 0f35 d735 d535
000001e0: 9790 3d36 da15 3f36 39bb 9bb7 a532 f4b5
000001f0: 48fa 8b38 641d 4138 6d60 c438 d884 1f39
00000200: 01af 2239 0dc0 d738 79c4 bc37 e220 0337
00000210: bcf9 80b6 4507 2fb6 ccd6 64b6 78f2 8fb6
00000220: ccd6 64b6 72af 90b5 0000 0000 0000 0000
00000230: 0000 0000 0000 0000 0000 0000 0000 0000
00000240: 8163 2238 72f2 3037 4437 a935 9c19 89b7
00000250: 53a9 b937 cbe4 2639 7de3 2439 41e9 2139
00000260: 28de 4039 0438 3539 3960 1039 a3cc 3a39
00000270: 0b52 7839 a2f4 4a39 ab68 0a39 8505 9f38
00000280: 8159 2e37 7335 0337 ed19 d635 f46a bcb6
00000290: 8772 bcb6 3c54 97b6 0000 0000 0000 0000
000002a0: 0000 0000 0000 0000 0000 0000 0000 0000
000002b0: 5882 8437 c0ea 1838 df98 a237 f43f 2f36
000002c0: 1178 8138 1cb8 c638 9ead 5f38 810d 0d39
000002d0: 72b3 5939 a0e7 4c39 5026 1639 27c7 f638
000002e0: 2b21 1239 8400 5539 cbfe 3e39 5bf7 8738
000002f0: 36c5 e437 e8b9 0638 b471 6337 be28 c336
00000300: 7cf7 1a36 e19f 8a35 0000 0000 0000 0000
00000310: 0000 0000 0000 0000 0000 0000 0000 0000
00000320: 90f0 71b4 3d70 e337 ad1c 1e38 73b1 6837
00000330: 0c34 6238 affc 68b8 5f9a b7b8 011d 6337
00000340: 9ee1 d238 c54e cf38 eac8 a938 3e95 4c38
00000350: 8091 ed38 be69 0139 ee7a ce38 594a ea38
00000360: ba01 2038 e836 f737 173b 8037 e3b6 7237
00000370: 4e45 f036 45c5 cc35 0000 0000 0000 0000
00000380: 0000 0000 0000 0000 e3a8 55b2 3999 adb2
00000390: 7124 02b6 937e 42b7 5477 8036 32b1 4538
000003a0: 34c6 9f37 f499 19b9 5bdc 97b8 1d25 57b6
000003b0: d3d9 ca37 703f e5b7 a987 45b7 0050 ab34
000003c0: d2a4 1bb7 0df8 2636 569c a135 c4d6 c238
000003d0: 89d8 9a38 fd61 0438 acb3 cc36 74ab bb36
000003e0: 495b 3bb6 f552 45b6 0000 0000 0000 0000
000003f0: 8eb8 fdb2 5009 72b4 daef b0b4 3aa3 9eb5
0.0 0.0 0.0 0.0 0.0 0.0 0.0 0.0
0.0 0.0 0.0 0.0 0.0 0.0 0.0 0.0
0.0 0.0 0.0 0.0 0.0 0.0 0.0 0.0
0.0 0.0 0.0 0.0 0.0 0.0 0.0 0.0
0.0 0.0 0.0 0.0 0.0 0.0 0.0 0.0
0.0 0.0 0.0 0.0 0.0 0.0 0.0 0.0
0.0 0.0 0.0 0.0 0.0 0.0 0.0 0.0
0.0 0.0 0.0 0.0 0.0 0.0 0.0 0.0
0.0 0.0 0.0 0.0 1.15739485e-05 2.3748615e-05 1.03576895e-05 2.9755097e-06
-4.1104468e-06 -3.3253054e-06 0.0 0.0 0.0 0.0 0.0 0.0
0.0 0.0 0.0 0.0 0.0 0.0 0.0 0.0
0.0 0.0 0.0 4.2311305e-07 1.2269194e-06 1.4791823e-06 2.2205365e-06 -1.5698895e-06
8.050519e-06 2.5094467e-05 5.1591127e-05 5.015611e-05 1.152902e-05 -2.4456935e-05 -1.9303629e-05 -7.265387e-06
-1.2164464e-06 0.0 0.0 0.0 0.0 0.0 0.0 0.0
0.0 0.0 0.0 0.0 2.4623681e-05 0.0 5.3611615e-07 1.5885406e-06
2.8247357e-06 2.8473937e-06 -1.8564622e-05 -1.8194156e-06 6.674655e-05 4.6042158e-05 9.363969e-05 0.0001521291
0.00015514718 0.00010287771 2.2502836e-05 7.815865e-06 -3.84377e-06 -2.6081264e-06 -3.4099676e-06 -4.289959e-06
-3.4099676e-06 -1.0779897e-06 0.0 0.0 0.0 0.0 0.0 0.0
3.871648e-05 1.0546866e-05 1.2607566e-06 -1.6343598e-05 2.2132566e-05 0.00015916226 0.00015725005 0.0001544105
0.00018393307 0.00017282373 0.00013768756 0.00017814575 0.00023681686 0.00019355354 0.00013199697 7.582739e-05
1.0392047e-05 7.820653e-06 1.5951788e-06 -5.6152876e-06 -5.6161693e-06 -4.509957e-06 0.0 0.0
0.0 0.0 0.0 0.0 1.5796322e-05 3.6458252e-05 1.9383091e-05 2.6114258e-06
6.1735635e-05 9.475669e-05 5.3329037e-05 0.00013451838 0.00020761581 0.00019541243 0.00014319387 0.00011767289
0.00013936001 0.00020313455 0.0001821473 6.483375e-05 2.7271552e-05 3.212123e-05 1.3556728e-05 5.816196e-06
2.3091843e-06 1.0328332e-06 0.0 0.0 0.0 0.0 0.0 0.0
-2.253239e-07 2.7112774e-05 3.7696842e-05 1.3869593e-05 5.393107e-05 -5.554844e-05 -8.754874e-05 1.3537007e-05
0.00010055605 9.885201e-05 8.095971e-05 4.8776383e-05 0.00011328142 0.0001234179 9.845743e-05 0.00011171838
3.814858e-05 2.9470262e-05 1.5286305e-05 1.4466906e-05 7.1606255e-06 1.5256597e-06 0.0 0.0
0.0 0.0 -1.2436632e-08 -2.0209528e-08 -1.9392721e-06 -1.1592771e-05 3.828589e-06 4.7133486e-05
1.9046573e-05 -0.00014648569 -7.2412855e-05 -3.20591e-06 2.4181709e-05 -2.7328468e-05 -1.1773701e-05 3.190944e-07
-9.277095e-06 2.4880312e-06 1.2040935e-06 9.290644e-05 7.383625e-05 3.156251e-05 6.1005903e-06 5.592994e-06
-2.7918306e-06 -2.9403575e-06 0.0 0.0 -2.9537002e-08 -2.2541394e-07 -3.295707e-07 -1.1819423e-06

exp_avg_sq f4 [20, 784]
00000000: 0000 0000 0000 0000 0000 0000 0000 0000
00000010: 0000 0000 0000 0000 0000 0000 0000 0000
00000020: 0000 0000 0000 0000 0000 0000 0000 0000
00000030: 0000 0000 0000 0000 0000 0000 0000 0000
00000040: 0000 0000 0000 0000 0000 0000 0000 0000
00000050: 0000 0000 0000 0000 0000 0000 0000 0000
00000060: 0000 0000 0000 0000 0000 0000 0000 0000
00000070: 0000 0000 0000 0000 0000 0000 0000 0000
00000080: 0000 0000 0000 0000 0000 0000 0000 0000
00000090: 0000 0000 0000 0000 0000 0000 0000 0000
000000a0: 0000 0000 0000 0000 0000 0000 0000 0000
000000b0: 0000 0000 0000 0000 0000 0000 0000 0000
000000c0: 0000 0000 0000 0000 0000 0000 0000 0000
000000d0: 0000 0000 0000 0000 0000 0000 0000 0000
000000e0: 0000 0000 0000 0000 0000 0000 0000 0000
000000f0: 0000 0000 0000 0000 0000 0000 0000 0000
00000100: 0000 0000 0000 0000 0000 0000 0000 0000
00000110: b1f2 7734 41fb a435 d5b0 cd34 4753 a632
00000120: b1fc 4635 d63a 0235 0000 0000 0000 0000
00000130: 0000 0000 0000 0000 0000 0000 0000 0000
00000140: 0000 0000 0000 0000 0000 0000 0000 0000
00000150: 0000 0000 0000 0000 0000 0000 0000 0000
00000160: 0000 0000 0000 0000 0000 0000 b502 1b34
00000170: abb2 a435 a46e fa35 82e9 0b36 f619 6036
00000180: 6ce8 3737 b464 5c37 9d42 2337 2010 d036
00000190: 3417 1736 f301 e936 5409 f036 d8f6 2936
000001a0: 5dda f334 0000 0000 0000 0000 0000 0000
000001b0: 0000 0000 0000 0000 0000 0000 0000 0000
000001c0: 0000 0000 0000 0000 0000 0000 0000 0000
000001d0: 5161 0936 0000 0000 ddad 7634 ccf6 f735
000001e0: 267a 4636 d0ce 2037 87ce aa37 814c 2238
000001f0: 1c2b 7a38 2b66 3e38 af83 3e38 4438 4038
00000200: 0a8c f137 803f a537 b206 1438 9e91 7036
00000210: 7eba 0736 63a3 e833 dbf7 6f34 efe6 bd34
00000220: dbf7 6f34 dada bf32 0000 0000 0000 0000
00000230: 0000 0000 0000 0000 0000 0000 0000 0000
00000240: 01d1 a936 0f00 d634 5886 aa35 b1d4 0d36
00000250: 4079 2137 d8e5 3a38 5b6d 7d38 fdd1 ab38
00000260: 924d db38 0db5 c138 3af1 a238 9abe bc38
00000270: 73e1 9338 4adf 2d38 4d22 da37 a15e 3037
00000280: 89da d336 d2a0 ee36 b0e7 7c36 d459 2635
00000290: 15c0 2635 ede0 d134 0000 0000 0000 0000
000002a0: 0000 0000 0000 0000 0000 0000 0000 0000
000002b0: 8525 6235 c9a7 8b36 f141 2536 4c1b 1c36
000002c0: 8da9 9837 b84c 2b38 5af5 8038 c57c 8f38
000002d0: 882c 8438 ad56 8538 7ab2 8038 fe38 4738
000002e0: e6a1 7738 178f 8638 24d7 5338 3cc2 cd37
000002f0: a0ae 8137 d431 3637 8fad 1437 79ad 8036
00000300: 3995 2536 6bd1 7333 0000 0000 0000 0000
00000310: 0000 0000 0000 0000 0000 0000 0000 0000
00000320: 2b24 9c32 4bef 0736 494e 8c36 2b28 d736
00000330: 0a57 3038 0b77 3738 6ca9 4e38 0564 5d38
00000340: 2637 1c38 f474 3938 f946 6138 e98d 7e38
00000350: 810a 8938 b88b 9838 0532 b738 cc8e 8f38
00000360: 9ebd ea37 34bb 8237 52b4 3a37 025a c036
00000370: f60a af35 5f14 3933 0000 0000 0000 0000
00000380: 0000 0000 0000 0000 1724 5130 d010 0a31
00000390: aa6e a135 577a 7c36 1dd8 be36 62d4 a337
000003a0: 38de 5d38 022a 9538 b5b8 8e38 9bab 5238
000003b0: 3441 4d38 a07b 2e38 bdfb 4138 1eca 6c38
000003c0: e42f 8438 38b2 a538 afec 8238 17f9 8638
000003d0: bc26 4c38 4309 bb37 3e67 4a37 b6cf 3137
000003e0: 4a3e ba36 92f0 8735 0000 0000 0000 0000
000003f0: f375 9331 0831 8634 4d6d 0f35 d46b 7735
0.0 0.0 0.0 0.0 0.0 0.0 0.0 0.0
0.0 0.0 0.0 0.0 0.0 0.0 0.0 0.0
0.0 0.0 0.0 0.0 0.0 0.0 0.0 0.0
0.0 0.0 0.0 0.0 0.0 0.0 0.0 0.0
0.0 0.0 0.0 0.0 0.0 0.0 0.0 0.0
0.0 0.0 0.0 0.0 0.0 0.0 0.0 0.0
0.0 0.0 0.0 0.0 0.0 0.0 0.0 0.0
0.0 0.0 0.0 0.0 0.0 0.0 0.0 0.0
0.0 0.0 0.0 0.0 2.3091958e-07 1.2292077e-06 3.8312888e-07 1.9362814e-08
7.412846e-07 4.851439e-07 0.0 0.0 0.0 0.0 0.0 0.0
0.0 0.0 0.0 0.0 0.0 0.0 0.0 0.0
0.0 0.0 0.0 1.4436485e-07 1.2270951e-06 1.8658652e-06 2.0848533e-06 3.3393712e-06
1.0961765e-05 1.3136469e-05 9.731067e-06 6.2007603e-06 2.251426e-06 6.944168e-06 7.1536433e-06 2.5326644e-06
4.5421157e-07 0.0 0.0 0.0 0.0 0.0 0.0 0.0
0.0 0.0 0.0 0.0 2.0471236e-06 0.0 2.2973786e-07 1.8474761e-06
2.95754e-06 9.584895e-06 2.0361751e-05 3.869506e-05 5.9644794e-05 4.539468e-05 4.542217e-05 4.582877e-05
2.879465e-05 1.9699102e-05 3.5292185e-05 3.5847547e-06 2.022512e-06 1.0833062e-07 2.2348779e-07 3.537202e-07
2.2348779e-07 2.2334849e-08 0.0 0.0 0.0 0.0 0.0 0.0
5.0609237e-06 3.986065e-07 1.2705086e-06 2.113444e-06 9.6245785e-06 4.4559914e-05 6.0421746e-05 8.193029e-05
0.00010457182 9.2366805e-05 7.769694e-05 9.000041e-05 7.0514994e-05 4.145437e-05 2.6003598e-05 1.051245e-05
6.313731e-06 7.1116747e-06 3.7685786e-06 6.1970536e-07 6.2119335e-07 3.909294e-07 0.0 0.0
0.0 0.0 0.0 0.0 8.424616e-07 4.1620556e-06 2.46253e-06 2.32617e-06
1.8198765e-05 4.0841027e-05 6.149216e-05 6.8420115e-05 6.302545e-05 6.358079e-05 6.1367595e-05 4.7498375e-05
5.904017e-05 6.4162705e-05 5.0506686e-05 2.4528352e-05 1.5459314e-05 1.0859647e-05 8.861897e-06 3.834892e-06
2.4673775e-06 5.676831e-08 0.0 0.0 0.0 0.0 0.0 0.0
1.8177237e-08 2.0255854e-06 4.1814387e-06 6.4121755e-06 4.204273e-05 4.3741467e-05 4.9272014e-05 5.2783656e-05
3.724466e-05 4.421636e-05 5.371028e-05 6.0690483e-05 6.5346256e-05 7.2739494e-05 8.735437e-05 6.845369e-05
2.7983271e-05 1.558438e-05 1.1128448e-05 5.732524e-06 1.3041706e-06 4.3092196e-08 0.0 0.0
0.0 0.0 7.6085044e-10 2.00912e-09 1.2027642e-06 3.7622137e-06 5.6876e-06 1.9530013e-05
5.2897463e-05 7.112698e-05 6.805492e-05 5.022772e-05 4.8936534e-05 4.1599968e-05 4.6249235e-05 5.645502e-05
6.303171e-05 7.901009e-05 6.242969e-05 6.4360145e-05 4.8673464e-05 2.229645e-05 1.2064176e-05 1.0598384e-05
5.5504834e-06 1.0128299e-06 0.0 0.0 4.2916724e-09 2.499512e-07 5.3430705e-07 9.217158e-07
