hw8/lightning_logs/version_3/checkpoints/epoch=49-step=100.ckpt (torch, 338135 bytes, 36 tensors)

encoder.encoder.0.weight f4 [30, 784]
-0.004050486 -0.028077535 0.025572274 0.018340252 -0.011557844 0.024917744 0.033143904 0.018975187
0.015372589 0.02873015 -0.004201051 0.028821293 -0.022507519 0.023393452 0.024834488 0.027857076
-0.0036860332 -0.03446051 -0.012811147 0.013850227 -0.020729471 -0.034474082 0.021871615 0.02701727
0.026154742 0.014406119 0.025697134 0.033980217 0.008379862 0.030371722 0.0037907884 0.0069669373
-0.0045554675 0.029967945 -0.012165772 -0.034025338 -0.03217761 -0.0024391003 -0.017720547 0.015449934
-0.007797204 -0.022084642 0.016594157 -0.0034800507 0.011784926 0.00987713 -0.023695335 0.0047371387
0.0061783157 0.02181444 -0.0038553886 0.026715804 0.024426881 -0.017254958 -0.035593253 0.029577103
-0.03360536 -0.009847945 0.017185569 0.03528275 -0.033498198 -0.0019959882 0.03345294 0.019367427
0.00245741 0.022231255 -0.023472106 0.019078158 0.039471943 -0.030556312 -0.01921529 0.037333153
-0.010720576 -0.026726954 0.018124178 -0.017053789 -0.011335259 -0.012636505 0.028601374 -0.016920473
0.029011723 -0.02240167 -0.017863644 0.0025499687 -0.021493815 -0.006738063 -0.018419024 -0.031264022
0.013922267 -0.01732744 -0.015620973 -0.01772417 0.01735976 -0.020532943 -0.0009965202 -0.012492354
0.010555223 0.014090549 0.015679004 -0.019555526 -0.011799637 0.026237242 -0.0123022245 0.028134255
0.0035961226 0.007753458 -0.014718883 0.026089277 0.03494889 -0.020236064 0.03297719 -0.020649383
0.035429258 0.023357391 -0.026475511 -0.023594886 -0.00445434 -0.0017994083 0.00041806276 -0.001619982
0.00165568 -0.010260675 -0.0027522005 -0.042780813 0.012985196 -0.01046547 0.024869708 -0.01007709
-0.018627107 -0.011233227 -0.011542246 0.041890625 0.0144038545 0.0042843367 0.03218888 -0.015777178
0.027426228 0.04269354 0.0014681332 0.027642403 0.0041314736 -0.0031864382 -0.006088756 0.027958151
-0.04849676 0.0007161484 0.007041158 0.020390797 -0.019470952 -0.052174278 -0.058727194 -0.036543153
0.032032896 0.026209623 -0.011657252 -0.017049197 0.02406425 -0.015345716 -0.01567997 0.020085908
-0.005412092 -0.017241497 -0.015492118 0.0023365237 0.011272293 0.0070735663 0.0018455349 -0.027758714
-0.0011709854 -0.011040717 -0.033148333 -0.012242423 -0.061377343 -0.010178646 -0.010072088 -0.0028633075
-0.0138825495 -0.051048566 -0.027738446 0.017803809 -0.009047211 -0.046893377 0.008290871 0.010244867
-0.016113393 -0.003678492 -0.033177212 0.025146684 0.02258721 -0.022557292 -0.009394824 0.009675375
-0.018810648 0.010681269 -0.007985154 -0.035180293 -0.001164116 -0.033768196 0.0037448928 0.0066561773
-0.027644234 -0.01670462 -0.041176233 -0.018160578 -0.008829937 0.026868012 7.041505e-05 0.014623768
-0.015587937 0.024806926 -0.03778813 -0.03290404 -0.006045816 -0.02085462 -0.0009099778 0.025589207
-0.01251919 0.017168336 0.02174191 0.02136807 0.003834541 -0.012615824 0.0189926 0.01272437
0.0013726577 -0.0003441088 -0.02223316 -0.029062752 -0.036319647 -0.024487464 -0.00026816188 -0.012838055
-0.0040734764 -0.009385799 -0.010744052 0.03263725 0.03765076 -0.03313324 -0.0077803326 -0.027884945
-0.027009865 -0.019728974 0.011761829 -0.009679072 -0.04326318 0.012043762 -0.03580972 0.026845131
-0.026782453 -0.006259846 -0.020580877 0.010138653 -0.02147472 -0.037819464 0.001991425 -0.041252002
00000000: f0b9 84bb dc02 e6bc f27c d13c 4c3e 963c
00000010: 1c5d 3dbc 4c20 cc3c e7c1 073d da71 9b3c
00000020: 50dd 7b3c 7e5b eb3c f8a8 89bb a21a ec3c
00000030: b061 b8bc a0a3 bf3c b271 cb3c 8634 e43c
00000040: 6091 71bb 7726 0dbd d8e5 51bc 10ec 623c
00000050: dad0 a9bc b234 0dbd 1a2c b33c 5253 dd3c
00000060: 7842 d63c a407 6c3c cc82 d23c d72e 0b3d
00000070: b04b 093c 1ece f83c e06e 783b e84a e43b
00000080: 0846 95bb 567f f53c f252 47bc 275e 0bbd
00000090: abcc 03bd 50d9 1fbb ae2a 91bc b821 7d3c
000000a0: b07f ffbb daea b4bc 78f0 873c 9011 64bb
000000b0: 9015 413c b0d3 213c b81c c2bc 003a 9b3b
000000c0: 7873 ca3b 32b4 b23c b0aa 7cbb 1adb da3c
000000d0: e21a c83c 455a 8dbc 3bca 11bd ae4b f23c
000000e0: c6a5 09bd 4659 21bc c0c8 8c3c a584 103d
000000f0: 6835 09bd 20cf 02bb f305 093d 70a8 9e3c
00000100: 800c 213b 521e b63c 9348 c0bc cc49 9c3c
00000110: 55ad 213d 3b51 fabc 6269 9dbc a6ea 183d
00000120: 5ba5 2fbc 7cf2 dabc 2879 943c 63b4 8bbc
00000130: 86b7 39bc 5809 4fbc 6e4d ea3c ce9c 8abc
00000140: fea9 ed3c b583 b7bc c756 92bc 601d 273b
00000150: cc13 b0bc f8ca dcbb 7ee3 96bc b40e 00bd
00000160: 381a 643c 47f2 8dbc 1cef 7fbc 4732 91bc
00000170: 0e36 8e3c b434 a8bc ab9d 82ba bbac 4cbc
00000180: d0ef 2c3c 0cdc 663c 4171 803c e932 a0bc
00000190: 4453 41bc 7cef d63c 458f 49bc cf79 e63c
000001a0: edac 6b3b b810 fe3b 7827 71bc 2eb9 d53c
000001b0: 9126 0f3d 1ac6 a5bc 1713 073d e528 a9bc
000001c0: 451e 113d 0058 bf3c 2ce3 d8bc 104a c1bc
000001d0: b6f5 91bb 20da ebba 6f2f db39 9355 d4ba
000001e0: 6703 d93a 641c 28bc 435e 34bb ef3a 2fbd
000001f0: dcbf 543c 5d77 2bbc 8fbb cb3c 611a 25bc
00000200: e097 98bc 920b 38bc b01b 3dbc 8195 2b3d
00000210: 25fe 6b3c 9f63 8c3b 7dd8 033d 243f 81bc
00000220: f8ac e03c 6cdf 2e3d 606e c03a 5272 e23c
00000230: 5061 873b 90d3 50bb 3084 c7bb 7e08 e53c
00000240: 8aa4 46bd e8bb 3b3a 84b9 e63b 9a0a a73c
00000250: 8c81 9fbc b2b4 55bd ed8b 70bd 46ae 15bd
00000260: ed34 033d 90b5 d63c 0ffe 3ebc c2aa 8bbc
00000270: 6422 c53c 996c 7bbc 4873 80bc 348b a43c
00000280: eb57 b1bb 0a3e 8dbc a7d2 7dbc 5d20 193b
00000290: 6caf 383c 60c9 e73b e0e5 f13a 3e66 e3bc
000002a0: c07b 99ba 20e4 34bc 8cc6 07bd 7294 48bc
000002b0: cf66 7bbd 56c4 26bc 6605 25bc 54a6 3bbb
000002c0: a273 63bc 4d18 51bd bd3b e3bc 4bd9 913c
000002d0: c13a 14bc 4513 40bd 6fd6 073c 16da 273c
000002e0: 3c00 84bc db12 71bb d4e4 07bd 6b00 ce3c
000002f0: d008 b93c 12ca b8bc bfec 19bc 7785 1e3c
00000300: ca18 9abc 7d00 2f3c 2ad4 02bc 3619 10bd
00000310: 4095 98ba 8550 0abd e06c 753b 101c da3b
00000320: 2976 e2bc 21d8 88bc 69a8 28bd 7ec5 94bc
00000330: 71ab 10bc 4e1a dc3c cbab 9338 8798 6f3c
00000340: 8c64 7fbc e537 cb3c bac7 1abd 63c6 06bd
00000350: fb1b c6bb 4fd7 aabc 948b 6eba 75a0 d13c
00000360: 4a1d 4dbc 9ca4 8c3c 171c b23c 170c af3c
00000370: ec4c 7b3b 9ab2 4ebc 5e96 9b3c e079 503c
00000380: c0ea b33a 8069 b4b9 5122 b6bc 0215 eebc
00000390: e9c3 14bd ef99 c8bc 1498 8cb9 b556 52bc
000003a0: cc7a 85bb e5c6 19bc d207 30bc a3ae 053d
000003b0: af37 1a3d b8b6 07bd 29f2 febb f86e e4bc
000003c0: cb43 ddbc a89e a1bc b0b4 403c f894 1ebc
000003d0: bb34 31bd 3353 453c 37ad 12bd 52ea db3c
000003e0: e066 dbbc 651f cdbb 3a99 a8bc 981c 263c
000003f0: c1eb afbc 95e8 1abd 9182 023b dcf7 28bd

encoder.encoder.0.bias f4 [30]
-0.024126394 0.0029052566 0.014919766 -0.029288359 -0.009892288 -0.022309167 0.036092088 0.03934529
-0.024535839 0.014655513 -0.025831146 0.0014561366 0.0076951967 -0.027076073 -0.009761926 0.003436371
0.018782811 0.020818993 -0.019349592 0.02267186 0.032294083 -0.036496047 0.022574848 -0.01634156
-0.019634815 0.008595611 0.048365228 0.013918537 -0.031838823 -0.018223451
00000000: b7a4 c5bc 1e66 3e3b 0972 743c 24ee efbc
00000010: 4313 22bc b7c1 b6bc 4cd5 133d 8728 213d
00000020: 62ff c8bc ad1d 703c d79b d3bc d6db be3a
00000030: fd27 fc3b a4ce ddbc 7cf0 1fbc bd34 613b
00000040: 69de 993c 988c aa3c 0983 9ebc 56ba b93c
00000050: cd46 043d e17c 15bd e3ee b83c bcde 85bc
00000060: 31d9 a0bc 9bd4 0c3c 9e1a 463d 930a 643c
00000070: 6d69 02bd 5949 95bc

encoder.encoder.1.weight f4 [30, 30]
0.019362899 -0.13919139 0.05622453 0.16397876 0.116099305 -0.113468185 -0.007289832 0.109317556
-0.0231345 0.12620512 0.022470497 0.13347682 -0.058593612 -0.17797287 0.1625491 -0.14736001
-0.10632968 -0.08248139 0.06189465 -0.12928474 0.14087448 -0.010382739 0.15713905 0.06639348
0.072519526 0.1484713 0.1605991 0.13836852 0.017012559 -0.07135547 0.10176272 -0.06095515
-0.09261146 -0.13948911 0.043762952 0.039419044 0.015302552 -0.15905021 0.15895015 0.13900116
0.15095338 0.08286155 -0.13765848 0.0791081 0.16679384 0.17224304 0.15546916 -0.08922612
-0.17769162 0.038810533 0.11904113 -0.07974752 0.122592315 0.05751762 0.04159346 0.065221556
-0.05371943 -0.0598254 -0.10755853 0.0009992848 0.010437064 -0.11825778 0.100188896 0.09219895
-0.09719747 0.087007366 -0.0650082 -0.1410741 0.15677683 0.04511953 0.02350772 -0.023879645
-0.020517392 0.07472998 0.16811089 0.16864088 0.17147861 0.080171436 0.21485484 0.0026381784
-0.09244028 -0.07860915 0.08522606 -0.058176998 0.09946633 0.17572817 0.15575789 0.049864333
0.12507144 -0.16872762 0.16952196 -0.10882832 0.06356895 0.034867052 0.024381151 0.020161625
0.0093873115 0.009404568 -0.17460626 0.15109603 0.081993274 0.18811338 0.05447312 0.121454306
-0.045899116 -0.122252844 0.01860203 -0.025064316 0.012266285 -0.051163215 -0.010950089 0.17563653
0.14216737 -0.15671347 -0.1359964 -0.13121863 0.040460467 0.086443 -0.15896085 -0.150195
0.029217932 0.08088481 -0.07413904 -0.16634576 0.1356908 -0.027669886 0.16292739 -0.09325005
-0.0032241838 0.14133084 0.1826699 0.06717201 0.16300781 0.10262887 -0.08715091 0.047894143
0.1660693 -0.11993787 -0.14880714 0.14639735 -0.007442469 0.004532785 0.0945549 -0.11690395
0.14951046 -0.091142766 -0.12044396 0.036264364 -0.151609 -0.03907717 -0.053336177 0.0050563626
-0.083588436 0.037843168 -0.07581802 -0.15799418 -0.047734536 -0.18474674 -0.018162176 0.1643007
-0.15910852 -0.062655844 -0.06593985 -0.11286656 -0.00999116 0.1285135 -0.047238242 0.15232044
-0.030338906 -0.079528615 0.14648268 0.17374502 0.12353174 0.14232768 0.14645745 -0.13864528
0.057402506 -0.059899345 0.0064105876 0.205564 0.062185805 -0.009960271 0.08408626 -0.1330219
0.03705299 0.12700358 0.05347746 0.16500136 0.1022346 0.1430459 -0.023274994 0.14926058
-0.11691953 -0.13524081 0.0006380461 0.1624876 -0.1002719 -0.020424692 0.15159549 -0.13331428
-0.06892569 0.15528698 -0.13281113 -0.0019436603 -0.0058705756 -0.17444764 -0.18786156 -0.043954708
-0.16783433 0.1578228 -0.18807027 -0.0035362479 0.08685524 -0.038393177 -0.09650338 -0.17964546
0.1662297 -0.049641825 0.04358467 -0.10940289 0.10673566 0.10979174 -0.01988745 -0.0013097085
-0.1120734 -0.13772708 0.1085185 0.08298707 0.12996891 0.17180458 -0.06582579 0.013808374
0.11058972 -0.06714371 0.021166965 -0.06378289 -0.08277836 0.090102576 0.007408787 0.16313198
0.1671264 -0.061366286 0.15597695 -0.1995023 -0.107306905 0.14233887 0.18719776 0.10818495
0.07012529 0.12028804 -0.13252965 0.035309196 0.019212756 0.110466376 -0.017863851 -0.059281882
00000000: f19e 9e3c 3088 0ebe b14b 663d 0cea 273e
00000010: 79c5 ed3d 0262 e8bd 8bdf eebb e2e1 df3d
00000020: 9084 bdbc ea3b 013e 0c14 b83c 26ae 083e
00000030: dbff 6fbd 853e 36be 4573 263e 8be5 16be
00000040: 60c3 d9bd 01ec a8bd 3f85 7d3d 3863 04be
00000050: 6641 103e 5d1c 2abc 0fe9 203e 4ef9 873d
00000060: 1e85 943d dc08 183e 1774 243e 7ab0 0d3e
00000070: ec5d 8b3c d122 92bd f968 d03d 1bac 79bd
00000080: 14ab bdbd 3cd6 0ebe c840 333d dd75 213d
00000090: 8eb7 7a3c 0fde 22be d4c3 223e 5256 0e3e
000000a0: 8693 1a3e 51b3 a93d 58f6 0cbe 6d03 a23d
000000b0: 01cc 2a3e 7b60 303e 4f33 1f3e 2fbc b6bd
000000c0: cbf4 35be cbf7 1e3d d6cb f33d ab52 a3bd
000000d0: ae11 fb3d 9997 6b3d e75d 2a3d e192 853d
000000e0: e808 5cbd 7b0b 75bd a647 dcbd 6ffa 823a
000000f0: 3800 2b3c 2331 f2bd d62f cd3d ced2 bc3d
00000100: 780f c7bd eb30 b23d 0523 85bd bb75 10be
00000110: 1b8a 203e 42cf 383d 4393 c03c 3f9f c3bc
00000120: 1714 a8bc 080c 993d 4325 2c3e 32b0 2c3e
00000130: 1798 2f3e ec30 a43d e802 5c3e 4ae5 2c3b
00000140: 5451 bdbd d6fd a0bd 008b ae3d 014b 6ebd
00000150: 01b5 cb3d 16f2 333e ff7e 1f3e 8b3e 4c3d
00000160: ba12 003e efc6 2cbe 2a97 2d3e 62e1 debd
00000170: 7030 823d c1d0 0e3d fbba c73c fe29 a53c
00000180: 3dcd 193c 9e15 1a3c fccb 32be ebb8 1a3e
00000190: 17ec a73d cba0 403e 351f 5f3d 09bd f83d
000001a0: b600 3cbd b35f fabd 4963 983c ae53 cdbc
000001b0: 87f8 483c 8590 51bd 0168 33bc 10da 333e
000001c0: 5394 113e 7f79 20be a442 0bbe 2d5e 06be
000001d0: e0b9 253d 0709 b13d a2c6 22be b8cc 19be
000001e0: 725a ef3c efa6 a53d 36d6 97bd 8b56 2abe
000001f0: 87f2 0a3e f5ab e2bc 70d6 263e e2f9 bebd
00000200: d44c 53bb 08b9 103e d10d 3b3e 7b91 893d
00000210: 85eb 263e 162f d23d 2d7c b2bd a62c 443d
00000220: 120e 2a3e fca1 f5bd e660 18be 30e9 153e
00000230: f4df f3bb c287 943b 00a6 c13d 576b efbd
00000240: 4519 193e 0fa9 babd 53ab f6bd f189 143d
00000250: 643f 1bbe 620f 20bd 0977 5abd d8af a53b
00000260: 6a30 abbd 7001 1b3d 7a46 9bbd 3ac9 21be
00000270: 4a85 43bd 402e 3dbe d8c8 94bc 713e 283e
00000280: 58ed 22be b551 80bd 790b 87bd 9526 e7bd
00000290: f6b1 23bc 0b99 033e e37c 41bd e4f9 1b3e
000002a0: 4c89 f8bc e6df a2bd 8eff 153e 37ea 313e
000002b0: 35fe fc3d 59be 113e f1f8 153e 07f9 0dbe
000002c0: e41e 6b3d 0459 75bd e80f d23b 5f7f 523e
000002d0: 8bb6 7e3d 6830 23bc 6b35 ac3d e536 08be
000002e0: e0c4 173d 3a0d 023e 2e0b 5b3d 1ef6 283e
000002f0: 6060 d13d a07a 123e 33ab bebc c4d7 183e
00000300: 8273 efbd 917c 0abe 8d42 273a 2663 263e
00000310: 5b5b cdbd af51 a7bc d93b 1b3e 8a83 08be
00000320: ea28 8dbd 8d03 1f3e a4ff 07be 6bc2 feba
00000330: f55d c0bb 67a2 32be c85e 40be da09 34bd
00000340: c3dc 2bbe 4d9c 213e 7e95 40be 65c0 67bb
00000350: 29e1 b13d 2a42 1dbd 90a3 c5bd fbf4 37be
00000360: 1e38 2a3e 3a55 4bbd d785 323d 9f0e e0bd
00000370: 3a98 da3d 7eda e03d 01eb a2bc 86aa abba
00000380: bd86 e5bd 5408 0dbe f33e de3d 20f5 a93d
00000390: 9216 053e 8aed 2f3e accf 86bd 853c 623c
000003a0: dd7c e23d a482 89bd 5866 ad3c 9ba0 82bd
000003b0: b387 a9bd b387 b83d 69c5 f23b 120c 273e
000003c0: 2f23 2b3e 375b 7bbd 6cb8 1f3e 554a 4cbe
000003d0: b9c3 dbbd 48c1 113e c5b0 3f3e 1290 dd3d
000003e0: d99d 8f3d 9359 f63d dab5 07be 60a0 103d
000003f0: 1264 9d3c 323c e23d 3657 92bc 8fd1 72bd

encoder.encoder.1.bias f4 [30]
-0.06725056 0.1400875 -0.056920536 0.0050892746 0.09797297 0.14115533 -0.08751844 -0.15650246
0.09976777 0.17617683 0.18618405 -0.04261195 0.01053517 -0.1154904 -0.08483727 -0.13272744
0.051667266 0.052597344 0.08985117 0.017776458 0.11916453 0.12233923 0.04068644 0.063454874
0.13150363 -0.0016483484 0.16243449 -0.15265876 -0.17780511 -0.17499891
00000000: a9ba 89bd 1973 0f3e 8225 69bd eec3 a63b
00000010: 0da6 c83d 068b 103e de3c b3bd 2e42 20be
00000020: 0b53 cc3d b367 343e 08a7 3e3e de89 2ebd
00000030: b59b 2c3c 3b86 ecbd 2abf adbd b4e9 07be
00000040: 0ea1 533d 5070 573d e403 b83d ef9f 913c
00000050: 880c f43d fd8c fa3d d3a6 263d a1f4 813d
00000060: e3a8 063e 650d d8ba 3a55 263e 9452 1cbe
00000070: 8b12 36be ea32 33be

encoder.encoder.3.weight f4 [20, 30]
0.09798807 0.0339044 0.14181335 -0.005136908 -0.1727801 -0.10000684 -0.15310708 0.13821049
-0.17682618 -0.101147436 -0.0068497625 0.025517045 -0.070938155 0.0773493 -0.0042249737 0.17398754
0.17764737 -0.13334481 0.13845088 0.1853404 0.038341306 0.08123443 -0.07377242 0.10570972
0.15831846 -0.042716682 -0.0075491825 -0.025173899 0.15674044 0.0023898392 0.032954145 -0.086476095
0.033484023 -0.15843104 0.076770216 -0.084846206 0.064961955 -0.12720327 0.13212311 0.0262635
-0.18315516 -0.050380595 0.08841395 -0.033547908 -0.17708842 -0.096266285 0.1753715 0.16803937
0.1328395 0.10206717 0.07510747 -0.11490035 -0.13485976 -0.051994003 -0.0034110167 -0.06408994
0.073982045 0.10599241 0.0442833 0.099976875 0.16600403 -0.0130286 0.19262645 -0.14365122
0.0069932695 -0.19119844 0.025755614 0.03134124 -0.116439015 -0.14712447 -0.0024839614 -0.0055415807
-0.08881984 0.16602626 0.18837628 0.06864733 0.0006670053 -0.09963429 0.16521826 -0.14692508
0.029147282 0.021970695 -0.015501258 0.069852605 -0.19123048 -0.06996851 -0.0020997773 -0.09073506
-0.09288962 -0.06387585 0.056658737 -0.1571813 0.062685244 -0.1155527 0.06364337 -0.20213087
-0.13376434 0.034694705 -0.011082216 0.1699974 -0.005792847 0.041449096 0.056508113 -0.07816743
-0.010324387 0.032492857 -0.1909103 0.089602895 -0.08623403 0.08920037 0.019060276 0.058227103
0.16304041 0.04287533 -0.12654175 0.06671603 -0.03139065 0.16076091 -0.019411374 0.15020303
0.09137876 -0.0058193984 -0.011577453 -0.06904573 -0.1767211 0.14398167 -0.17010656 -0.06840607
-0.019018885 0.016080763 0.027964845 0.012363423 -0.109377235 0.007313096 -0.11380458 0.1696369
0.06944179 0.1350856 0.15669997 -0.042224333 -0.16984019 -0.041429114 -0.07754248 0.14527775
-0.14966181 0.048694782 -0.11895629 0.13946125 -0.032210603 0.1846831 -0.11091674 0.11022504
-0.07167453 0.04883703 0.11282219 -0.06148025 0.16749398 0.032181367 0.08392983 0.089580774
-0.09208816 0.17633064 -0.061384317 0.016505793 0.057577383 -0.11330544 0.051301222 0.024778146
0.13375208 -0.09406893 -0.14120473 -0.15868898 0.045102526 -0.12910955 0.0670386 -0.01401107
-0.020297382 -0.10235537 -0.16271277 0.06484478 0.004996615 -0.0173049 0.097082354 -0.17428125
0.114391685 0.13943788 0.02843856 0.07495129 0.1310109 0.06623668 0.13509801 -0.06928293
0.06225184 -0.051819213 0.06479705 0.099380106 0.13037468 0.1528703 -0.0060980725 -0.0123227425
0.17455052 0.03985294 0.025035279 0.028604062 0.080120705 0.06693945 0.01323274 -0.15137252
-0.18795127 -0.023457495 -0.04647064 0.13813145 0.03721185 0.12455625 0.020292709 0.060117453
0.12918209 -0.009413656 0.11836811 -0.04645127 -0.033468436 0.0782439 -0.023116738 -0.05852237
0.01383681 -0.08418899 0.0012308354 -0.023539212 -0.05259133 -0.026816526 -0.18218268 0.15667251
-0.09604909 0.11671578 -0.18130481 -0.20833734 -0.10475556 0.02715737 0.052177146 0.18422696
0.08327059 -0.025180658 0.1374394 0.10525511 -0.17538366 0.04491407 0.081921615 0.07804626
-0.06208333 -0.08866508 -0.040964603 -0.085591674 0.1449623 0.15086935 -0.07285963 -0.19156942
00000000: f8ad c83d 57df 0a3d 8537 113e 8253 a8bb
00000010: 44ed 30be 63d0 ccbd 1ac8 1cbe 0d87 0d3e
00000020: ec11 35be 6326 cfbd f973 e0bb 1f09 d13c
00000030: 0648 91bd 4f69 9e3d a671 8abb ca29 323e
00000040: 31e9 353e 8b8b 08be 11c6 0d3e e0c9 3d3e
00000050: c60b 1d3d 3d5e a63d ff15 97bd 567e d83d
00000060: 3c1e 223e b0f7 2ebd 225f f7bb 7e39 cebc
00000070: 9180 203e d99e 1c3b edfa 063d 611a b1bd
00000080: 8b26 093d bf3b 22be b439 9d3d d9c3 adbd
00000090: c60a 853d 9341 02be 484b 073e 8d26 d73c
000000a0: 078d 3bbe e25b 4ebd 5f12 b53d 8869 09bd
000000b0: ab56 35be 4227 c5bd 9694 333e 8312 2c3e
000000c0: 1407 083e 9808 d13d f2d1 993d e050 ebbd
000000d0: ad18 0abe aaf7 54bd 5d8b 5fbb 9641 83bd
000000e0: e683 973d 8c12 d93d 6862 353d adc0 cc3d
000000f0: f6fc 293e e975 55bc de3f 453e 4e19 13be
00000100: cc27 e53b 86c9 43be 70fd d23c ac5f 003d
00000110: 9477 eebd cca7 16be f5c9 22bb 2696 b5bb
00000120: 2de7 b5bd ca02 2a3e b6e5 403e f996 8c3d
00000130: f8d9 2e3a 100d ccbd fa2e 293e 8773 16be
00000140: 48c6 ee3c e3fb b33c fdf8 7dbc e20e 8f3d
00000150: ecd1 43be a64b 8fbd 6b9c 09bb 4ed3 b9bd
00000160: ea3c bebd 57d1 82bd fe12 683d 22f4 20be
00000170: 1f61 803d e5a6 ecbd 7557 823d 65fb 4ebe
00000180: 85f9 08be 091c 0e3d 2f92 35bc cc13 2e3e
00000190: ecd1 bdbb 87c6 293d 0d75 673d 3f16 a0bd
000001a0: 9e27 29bc 3b17 053d fd7d 43be b981 b73d
000001b0: 789b b0bd afae b63d 4c24 9c3c 8b7f 6e3d
000001c0: 11f4 263e 0b9e 2f3d 2994 01be 6aa2 883d
000001d0: 7b93 00bd 829e 243e 9a04 9fbc d3ce 193e
000001e0: ca24 bb3d a7b0 bebb 5caf 3dbc d967 8dbd
000001f0: 60f6 34be ee6f 133e 6a30 2ebe 7b18 8cbd
00000200: 7ecd 9bbc cebb 833c 8816 e53c f48f 4a3c
00000210: 2c01 e0bd b2a2 ef3b 6012 e9bd 4cb5 2d3e
00000220: 7f37 8e3d e153 0a3e f575 203e 6cf3 2cbd
00000230: 96ea 2dbe 93b1 29bd 97ce 9ebd b1c3 143e
00000240: f240 19be 2e74 473d 5b9f f3bd eece 0e3e
00000250: 44ef 03bd 911d 3d3e 5128 e3bd aabd e13d
00000260: 19ca 92bd 5609 483d 520f e73d b7d2 7bbd
00000270: 8b83 2b3e 9cd0 033d 67e3 ab3d 2076 b73d
00000280: b898 bcbd 0590 343e 1f6e 7bbd 2837 873c
00000290: 43d6 6b3d af0c e8bd 3b21 523d 8afb ca3c
000002a0: 4ef6 083e 36a7 c0bd f997 10be 5d7f 22be
000002b0: 6dbd 383d 4b35 04be 894b 893d b08e 65bc
000002c0: b246 a6bc b19f d1bd 2d9e 26be 57cd 843d
000002d0: a5ba a33b 01c3 8dbc 1dd3 c63d c976 32be
000002e0: 3046 ea3d cec8 0e3e fcf7 e83c 1080 993d
000002f0: b927 063e 19a7 873d 2257 0a3e 35e4 8dbd
00000300: c9fb 7e3d 6240 54bd 51b4 843d cc87 cb3d
00000310: f180 053e 088a 1c3e 57d2 c7bb 54e5 49bc
00000320: 5fbd 323e d63c 233d c916 cd3c 1153 ea3c
00000330: 5316 a43d 8d17 893d 22ce 583c 6601 1bbe
00000340: 4c76 40be ef29 c0bc ff57 3ebd 5572 0d3e
00000350: 746b 183d 5917 ff3d e53c a63c b83d 763d
00000360: 4f48 043e bc3b 1abc fb6a f23d b043 3ebd
00000370: 3316 09bd 563e a03d 505f bdbc 27b5 6fbd
00000380: cab3 623c 476b acbd fc53 a13a 4ed5 c0bc
00000390: 026a 57bd 55ae dbbc 198e 3abe c26e 203e
000003a0: 63b5 c4bd af08 ef3d f8a7 39be 6256 55be
000003b0: 158a d6bd 2279 de3c b4b7 553d fea5 3c3e
000003c0: c589 aa3d ab47 cebc eabc 0c3e fe8f d73d
000003d0: c697 33be d1f7 373d 85c6 a73d b8d6 9f3d
000003e0: 174b 7ebd 0a96 b5bd 80ca 27bd b04a afbd
000003f0: ff70 143e 7f7d 1a3e 6e37 95bd c62a 44be

encoder.encoder.3.bias f4 [20]
-0.03483814 -0.13779834 -0.10436285 0.09413374 -0.099907756 -0.13770756 0.19103846 -0.030290086
-0.02256108 -0.12905233 0.10610916 0.17709333 0.08777391 -0.18549827 -0.008397978 0.030769555
0.020354513 0.035209637 -0.10278643 0.014733982
00000000: 70b2 0ebd 021b 0dbe 31bc d5bd 31c9 c03d
00000010: 709c ccbd 3603 0dbe 969f 433e ea22 f8bc
00000020: 04d2 b8bc 4b26 04be c24f d93d f457 353e
00000030: cfc2 b33d 42f3 3dbe ac97 09bc 6f10 fc3c
00000040: 82be a63c fb37 103d b181 d2bd cd66 713c

model.0.weight f4 [30, 20]
0.15991183 -0.10725364 -0.22721566 0.13945588 0.02551259 0.1614326 0.05054802 -0.09507869
0.05715602 -0.10916173 0.1340644 -0.02560722 0.00072059385 -0.1284623 0.19114663 0.24783592
-0.060650975 0.19444142 -0.016198177 0.18156007 0.019607333 -0.23427889 0.111931354 -0.06067311
0.15796918 0.055772 0.076887265 0.11497575 0.15294093 -0.15607981 -0.1795401 -0.14307141
0.1798592 0.03748429 -0.2141678 -0.028050426 0.030622158 0.10781037 0.0032887636 -0.18416823
-0.1652576 -0.05127786 -0.21261135 0.13835584 0.011888607 -0.16819553 -0.07021025 -0.12863238
-0.16640522 -0.023195917 -0.03229014 0.06779381 0.2349151 -0.116813086 0.06432582 -0.073312126
-0.076869585 0.17414248 -0.07369377 -0.04540508 -0.16629063 -0.031880025 0.17649825 -0.10698252
-0.19536313 -0.03732265 0.07142491 0.17164046 0.13906148 0.16813888 -0.12440545 0.06540246
-0.121951215 -0.16872789 -0.1011259 -0.12717323 0.16805163 0.022797031 0.111812815 -0.17463127
-0.09485707 -0.14069763 -0.10717442 -0.10719504 -0.07655483 0.09950509 0.04083001 -0.056953177
0.18098417 -0.15385939 -0.19946165 0.073006704 -0.09978806 -0.009916597 -0.15640394 0.106445454
-0.090405926 -0.19942957 -0.056223318 0.099443905 -0.054052006 0.18794838 -0.16113125 0.019127183
-0.10119872 -0.019834662 0.03806298 -0.13553144 0.12824382 -0.19417217 -0.02816463 0.0074248444
0.010182345 0.21056275 0.10686685 0.10484548 0.012458648 0.058275003 -0.0060104127 -0.00096428796
0.15912528 0.040627144 0.08360981 0.0756568 -0.003878444 -0.17701334 0.16286384 0.12882978
0.071702 0.03237275 0.19084431 0.14818428 0.14815475 0.2224756 0.17485522 -0.22396399
0.18274803 0.1415648 0.17315201 -0.21508783 -0.0031851064 0.017311132 -0.06142489 -0.1528144
0.11735586 -0.19734582 0.18802801 0.20165543 0.077350706 0.18169042 -0.11828173 -0.22371942
0.037047777 0.060785662 0.11017526 0.17419355 -0.019308357 0.048127614 0.16614461 -0.11535265
0.020140674 0.101118855 0.21739599 0.18154815 0.17146271 0.0017115759 0.072724566 -0.2365568
-0.12571095 0.03741716 0.107455164 -0.23535433 -0.13932577 0.009587101 -0.121081695 0.10856842
-0.13432454 -0.14162907 0.18661922 -0.20769347 0.18059188 -0.22476214 0.087769814 0.14986312
0.1847962 0.12331997 0.1306408 0.2011187 -0.1828278 0.23480073 -0.0017012765 0.015151207
0.10604925 -0.15946233 0.16606222 -0.14969715 0.25592974 0.22783439 0.17779802 -0.084762976
0.17030136 0.22625612 0.12228927 0.00014918683 -0.16032581 0.115377426 -0.13250214 0.1644393
0.16442457 -0.08344754 -0.18389727 0.16412671 0.13909997 -0.028605409 0.13751733 -0.031722676
-0.05895042 0.029063404 0.21203253 0.22991829 -0.21566485 0.16935503 0.030132974 0.14257808
0.21892366 0.1999797 0.14020789 -0.09669266 0.073112756 -0.15656789 -0.17484736 0.100204095
0.2468799 -0.19660588 -0.20773263 -0.035222284 0.11430695 -0.022594351 0.16399576 0.19208567
-0.13236275 0.07950968 0.018793559 0.030430999 -0.14553714 -0.15213674 0.19335891 0.07027157
0.10293076 -0.08119054 -0.006837888 0.16498166 -0.056426298 -0.08139959 -0.085034326 0.045294527
00000000: edbf 233e cca7 dbbd 39ab 68be 86cd 0e3e
00000010: c7ff d03c 964e 253e 710b 4f3d 9eb8 c2bd
00000020: 6e1c 6a3d 2f90 dfbd 2e48 093e 3cc6 d1bc
00000030: 3ce6 3c3a 9f8b 03be f1bb 433e b3c8 7d3e
00000040: 286d 78bd a71b 473e 0ab2 84bc e2ea 393e
00000050: 8f9f a03c cee6 6fbe 443c e53d 5e84 78bd
00000060: acc2 213e 2e71 643d 1277 9d3d 6878 eb3d
00000070: 8c9c 1c3e 63d3 1fbe 5cd9 37be 5081 12be
00000080: 032d 383e 2089 193d ce4e 5bbe 02ca e5bc
00000090: 52db fa3c afcb dc3d 4c88 573b 9996 3cbe
000000a0: 4a39 29be bc08 52bd cab6 59be 27ad 0d3e
000000b0: 6fc8 423c 733b 2cbe 64ca 8fbd 35b8 03be
000000c0: 2166 2abe 5d05 bebc aa42 04bd 7bd7 8a3d
000000d0: 958d 703e b33b efbd 41bd 833d ab24 96bd
000000e0: cd6d 9dbd 6852 323e c2ec 96bd adfa 39bd
000000f0: 1748 2abe a194 02bd f5bb 343e a719 dbbd
00000100: 460d 48be a3df 18bd 3947 923d 84c2 2f3e
00000110: 2266 0e3e 992c 2c3e 49c8 febd baf1 853d
00000120: 8fc1 f9bd 01c7 2cbe 191b cfbd b339 02be
00000130: ba15 2c3e d7c0 ba3c 1efe e43d 8ad2 32be
00000140: 6c44 c2bd 0a13 10be 437e dbbd 1389 dbbd
00000150: c7c8 9cbd 53c9 cb3d 5e3d 273d bc47 69bd
00000160: ea53 393e 518d 1dbe ad3f 4cbe 8a84 953d
00000170: af5d ccbd 3979 22bc 5b28 20be 1300 da3d
00000180: be26 b9bd 4437 4cbe 6c4a 66bd 3fa9 cb3d
00000190: a365 5dbd 8a75 403e 97ff 24be 9cb0 9c3c
000001a0: 4641 cfbd 4d7c a2bc ede7 1b3d c1c8 0abe
000001b0: 5952 033e 12d5 46be 83b9 e6bc 1c4c f33b
000001c0: dad3 263c c39d 573e 02dd da3d 3ab9 d63d
000001d0: 5b1f 4c3c c5b1 6e3d fff2 c4bb 45c8 7cba
000001e0: bdf1 223e a668 263d 9f3b ab3d f4f1 9a3d
000001f0: 7e2d 7ebb fc42 35be c7c5 263e f4eb 033e
00000200: 80d8 923d 4a99 043d b16c 433e 9fbd 173e
00000210: e1b5 173e a5d0 633e 3f0d 333e d156 65be
00000220: 4d22 3b3e 5df6 103e c34e 313e fc3f 5cbe
00000230: 38bd 50bb 13d0 8d3c aa98 7bbd 617b 1cbe
00000240: 4558 f03d 0615 4abe 6a8a 403e c37e 4e3e
00000250: 0c6a 9e3d 0e0d 3a3e b13d f2bd b416 65be
00000260: 69bf 173d 63fa 783d 91a3 e13d cb5f 323e
00000270: 8f2c 9ebc 7621 453d d021 2a3e 033e ecbd
00000280: 0efe a43c 6717 cf3d 0e9d 5e3e c2e7 393e
00000290: ec93 2f3e f556 e03a 9ef0 943d f23b 72be
000002a0: 5fba 00be bc42 193d 7411 dc3d ba00 71be
000002b0: 6aab 0ebe 3713 1d3c aef9 f7bd 1f59 de3d
000002c0: 5f8c 09be 3607 11be 1c19 3f3e 99ad 54be
000002d0: 14ed 383e 0c28 66be a9c0 b33d b875 193e
000002e0: 373b 3d3e 2e8f fc3d b4c6 053e 0ff2 4d3e
000002f0: 3637 3bbe 9a6f 703e 5efd deba c53c 783c
00000300: 5930 d93d 184a 23be 370c 2a3e 364a 19be
00000310: 3909 833e 6b4d 693e af10 363e 3698 adbd
00000320: 7b63 2e3e afaf 673e cc72 fa3d 096f 1c39
00000330: 732c 24be 004b ec3d a4ae 07be c762 283e
00000340: ea5e 283e 8be6 aabd 914f 3cbe d510 283e
00000350: 3970 0e3e e455 eabc 58d1 0c3e a3ef 01bd
00000360: ff75 71bd 6016 ee3c 0e1f 593e b36f 6b3e
00000370: 3fd7 5cbe 686b 2d3e 6dd9 f63c fdff 113e
00000380: 862d 603e 7ac7 4c3e a892 0f3e cd06 c6bd
00000390: 24bc 953d 5553 20be 300b 33be ce37 cd3d
000003a0: 16ce 7c3e 0d53 49be ddb7 54be 3e45 10bd
000003b0: c319 ea3d ca17 b9bc 81ee 273e 1bb2 443e
000003c0: 1a8a 07be f9d5 a23d f3f4 993c 6e4a f93c
000003d0: b007 15be bcc9 1bbe e1ff 453e 8aea 8f3d
000003e0: 5dcd d23d 3a47 a6bd 5d10 e0bb f4f0 283e
000003f0: 431f 67bd d4b4 a6bd 7a26 aebd c186 393d

model.0.bias f4 [30]
-0.030846633 -0.07375547 -0.10188687 -0.09580458 -0.16044372 -0.069587976 0.14110227 0.019825531
0.040936135 -0.010617497 0.1788196 -0.0070235417 0.18358254 -0.12658224 0.017992206 0.15388553
-0.08166612 0.14148895 0.027848437 -0.07084686 -0.17850482 0.16927661 0.07044695 0.21250622
0.103720196 0.052602794 -0.044589654 0.10801167 -0.09086632 -0.11578467
00000000: 14b2 fcbc 1c0d 97bd 10aa d0bd 3135 c4bd
00000010: 5c4b 24be 2484 8ebd 1d7d 103e 2769 a23c
00000020: a6ac 273d 03f5 2dbc 7c1c 373e bd25 e6bb
00000030: 10fd 3b3e c69e 01be 6464 933c 2b94 1d3e
00000040: 9140 a7bd 7be2 103e 6822 e43c 2918 91bd
00000050: f8c9 36be d956 2d3e 7e46 903d 3b9b 593e
00000060: 416b d43d 0776 573d a4a3 36bd 3935 dd3d
00000070: 1f18 babd 8320 edbd

model.2.weight f4 [30, 30]
-0.07849567 -0.030402863 -0.088857755 0.11056148 -0.10241402 0.11438652 0.12201204 0.15296303
-0.04059862 -0.10638185 -0.11332216 0.020685099 0.013083998 0.072189905 -0.15838806 -0.1312594
-0.09767478 -0.07243695 -0.09615513 0.11150071 0.078245014 -0.16673514 0.06431244 -0.01056436
-0.10474157 0.057869058 0.13654254 -0.08522927 -0.15457942 -0.051152457 -0.042074144 -0.15824996
0.059295595 -0.023300175 -0.21015702 -0.11996633 0.1557888 -0.14661878 -0.17014673 0.1840554
-0.16997689 -0.17686188 -0.12150342 0.042123698 0.09871089 0.09490091 0.13154681 0.14773335
0.013281555 -0.13549718 -0.17062576 0.155164 -0.12564409 -0.09304375 0.05344776 -0.0064125955
-0.120374076 -0.04780291 -0.0070245727 0.0006669384 0.18319674 0.12908514 -0.08090168 0.20017637
0.022762073 -0.06830837 0.07294615 0.020799378 -0.004845717 0.10049421 -0.053552877 -0.1407115
-0.08495107 -0.09186013 -0.056802593 -0.012324226 0.15756868 0.043735538 0.053589366 0.100556165
-0.1899346 0.15517944 0.12624925 -0.058147993 0.05031557 -0.119406655 -0.09594 -0.0045551457
-0.109549895 -0.08430281 -0.12082038 0.117965356 -0.14517102 0.17558917 -0.075811625 0.004132436
-0.17124611 0.16707906 -0.1323772 0.141864 -0.14040469 -0.18606272 -0.18849786 -0.01679524
-0.124618925 0.08735082 -0.078061126 -0.026729073 -0.008526826 0.112743765 -0.08700798 0.03461283
-0.061538123 -0.0117786685 0.18639597 -0.13993643 -0.15288556 0.15513836 0.01497268 0.13909411
0.1320055 0.0445522 0.1870231 -0.003464808 0.15743321 -0.062506996 0.029196592 0.029588295
-0.02969976 -0.14582334 0.08073555 0.10572505 -0.11507099 0.036873255 -0.16380443 -0.12573297
0.002753003 -0.045835897 0.08264579 -0.1454254 0.12615888 -0.1165269 0.19006932 0.06251108
0.03660828 0.022591285 -0.093175516 -0.038585734 0.09288563 0.0815559 0.03977314 -0.16138822
-0.1273774 -0.061015073 -0.10489125 -0.058150962 0.15466486 -0.03552891 -0.05402166 -0.16657136
-0.16770838 0.092430696 0.11761041 -0.18265434 -0.111558296 0.08501385 -0.12935059 0.22076164
-0.06082221 0.1457209 0.096290626 0.12099589 -0.11096424 -0.069302715 -0.14976276 0.052413456
-0.059921358 0.13010691 -0.0845382 0.118810736 0.07326819 0.0064391387 0.039194923 0.054030888
-0.006515924 -0.14869036 -0.063935235 0.026939912 0.15328954 0.03492807 -0.16401182 -0.153357
0.01096112 0.14432025 0.04958494 0.1516198 -0.1301667 -0.18227115 0.17461926 -0.12233485
-0.15280655 0.08740725 -0.07236239 0.05710128 0.1302238 0.061637327 0.06821199 0.14811556
0.052185383 0.17046396 0.05768217 -0.10110658 0.032388087 0.10419782 -0.0073338244 0.14991207
-0.14512713 0.0011023766 -0.047979012 -0.14953744 -0.04566653 0.14459756 0.07993096 0.14354199
0.112672016 0.14592233 -0.15485415 -0.07689511 -0.0023439592 0.18418026 -0.087630495 0.106219515
-0.09447665 0.1880335 -0.004801159 0.10307673 -0.090722136 -0.06418564 -0.048339672 0.11214224
0.006413684 0.08006457 0.079406075 0.15377003 -0.020546658 0.009993871 0.0769768 0.04569239
0.122606754 -0.015368793 -0.10536315 -0.007972164 0.17089103 0.14363913 -0.11586043 0.12715031
00000000: 56c2 a0bd 6d0f f9bc 0efb b5bd 0f6e e23d
00000010: 71be d1bd 7b43 ea3d 73e1 f93d 57a2 1c3e
00000020: bd4a 26bd bade d9bd 7315 e8bd cc73 a93c
00000030: 445e 563c 4dd8 933d 7b30 22be dd68 06be
00000040: b709 c8bd d359 94bd fbec c4bd 7c5a e43d
00000050: ec3e a03d 9ebc 2abe 3eb6 833d 2316 2dbc
00000060: c082 d6bd 1b08 6d3d cfd1 0b3e af8c aebd
00000070: 114a 1ebe 3d85 51bd f055 2cbd 470c 22be
00000080: f0df 723d 02e0 bebc 6733 57be e8b0 f5bd
00000090: 1987 1f3e 3c23 16be f23a 2ebe 0579 3c3e
000000a0: 6c0e 2ebe 481b 35be c9d6 f8bd e689 2c3d
000000b0: ef28 ca3d 695b c23d 35b4 063e 6947 173e
000000c0: e19a 593c c6bf 0abe 85b8 2ebe 50e3 1e3e
000000d0: d8a8 00be b98d bebd 0aec 5a3d c020 d2bb
000000e0: af86 f6bd fccc 43bd 632e e6bb 7ad5 2e3a
000000f0: ed97 3b3e e52e 043e c8af a5bd 09fb 4c3e
00000100: 8777 ba3c 42e5 8bbd cb64 953d 7563 aa3c
00000110: d2c8 9ebb e9cf cd3d 435a 5bbd ad16 10be
00000120: d4fa adbd 2a21 bcbd d6a9 68bd 8deb 49bc
00000130: af59 213e 0924 333d 8680 5b3d 64f0 cd3d
00000140: 377e 42be 5ce7 1e3e 7c47 013e 972c 6ebd
00000150: b317 4e3d 7a8b f4bd 317c c4bd 5543 95bb
00000160: b25b e0bd f4a6 acbd ad70 f7bd d297 f13d
00000170: b6a7 14be a6cd 333e 2043 9bbd 6369 873b
00000180: 245b 2fbe c616 2b3e e48d 07be cc44 113e
00000190: 3fc6 0fbe 3a87 3ebe 9505 41be 2c96 89bc
000001a0: 3538 ffbd fde4 b23d 83de 9fbd eef6 dabc
000001b0: 1ab4 0bbc 34e6 e63d 3d31 b2bd 2fc6 0d3d
000001c0: 660f 7cbd 51fb 40bc 96de 3e3e 7f4b 0fbe
000001d0: 088e 1cbe 97dc 1e3e f94f 753c b06e 0e3e
000001e0: 732c 073e 5e7c 363d fc82 3f3e d511 63bb
000001f0: 2c36 213e ab03 80bd b12d ef3c 2763 f23c
00000200: e94c f3bc b752 15be ae58 a53d 6086 d83d
00000210: 57aa ebbd 6908 173d 59bc 27be 25c0 00be
00000220: ba6b 343b 6cbe 3bbd 3242 a93d 65ea 14be
00000230: cb2f 013e a8a5 eebd 88a1 423e cf05 803d
00000240: 90f2 153d 5c11 b93c ced2 bebd 130c 1ebd
00000250: d23a be3d c806 a73d 29e9 223d f442 25be
00000260: 396f 02be f1ea 79bd 39d1 d6bd b42f 6ebd
00000270: 7760 1e3e c386 11bd d145 5dbd af91 2abe
00000280: bfbb 2bbe 4e4c bd3d badd f03d bd09 3bbe
00000290: ad78 e4bd be1b ae3d 7b74 04be 570f 623e
000002a0: b620 79bd dc37 153e 0534 c53d b1cc f73d
000002b0: 3841 e3bd 95ee 8dbd 695b 19be 7eaf 563d
000002c0: 1970 75bd bf3a 053e 5d22 adbd 0b53 f33d
000002d0: a20d 963d 69ff d23b db8a 203d 7e4f 5d3d
000002e0: 8883 d5bb 4942 18be 7af0 82bd 17b1 dc3c
000002f0: eff7 1c3e bc10 0f3d b7f2 27be 9e09 1dbe
00000300: 4596 333c b0c8 133e 9419 4b3d 3942 1b3e
00000310: 6b4a 05be 4aa5 3abe 64cf 323e b28a fabd
00000320: 5279 1cbe 9302 b33d bc32 94bd 08e3 693d
00000330: 6359 053e 6c77 7c3d bab2 8b3d 9bab 173e
00000340: 57c0 553d 1b8e 2e3e 2444 6c3d f710 cfbd
00000350: 5fa9 043d ab65 d53d 9450 f0bb 8d82 193e
00000360: 359c 14be 9f7d 903a a485 44bd 5820 19be
00000370: d40c 3bbd 6211 143e d8b2 a33d acfc 123e
00000380: 96c0 e63d aa6c 153e 1692 1ebe 2f7b 9dbd
00000390: 1c9d 19bb c099 3c3e 9e77 b3bd 9e89 d93d
000003a0: f97c c1bd db8b 403e 0a53 9dbb e519 d33d
000003b0: 87cc b9bd c373 83bd d2ff 45bd d5aa e53d
000003c0: e229 d23b e5f8 a33d a79f a23d e475 1d3e
000003d0: 7751 a8bc 55bd 233c 03a6 9d3d f227 3b3d
000003e0: 4019 fb3d 64cd 7bbc a3c8 d7bd ae9d 02bc
000003f0: 0ffe 2e3e 2316 133e 3c48 edbd b133 023e

model.2.bias f4 [30]
0.051798213 -0.059723686 -0.08734187 -0.06403662 -0.19187213 -0.043325067 -0.13458858 -0.18414581
0.15876141 -0.031322952 -0.14087562 0.0771472 -0.20208181 0.027251827 0.12367743 -0.1474623
0.03663525 -0.16662268 -0.08216559 0.040843267 -0.12949093 0.01985422 -0.10945855 0.039355934
-0.056792438 -0.089875445 0.16962932 0.02061233 -0.095388964 0.14913727
00000000: 5d2a 543d d3a0 74bd 4be0 b2bd a225 83bd
00000010: 217a 44be a075 31bd 97d1 09be b890 3cbe
00000020: 5a92 223e 7f4c 00bd b341 10be 5aff 9d3d
00000030: 89ee 4ebe 393f df3c 984a fd3d 5b00 17be
00000040: d80e 163d 239f 2abe 6f46 a8bd 454b 273d
00000050: 4599 04be 51a5 a23c ce2b e0bd b033 213d
00000060: 309f 68bd 9e10 b8bd 4fb3 2d3e 30db a83c
00000070: 4a5b c3bd 71b7 183e

model.4.weight f4 [10, 30]
0.19349684 0.14100085 -0.119826935 -0.14876132 -0.13822454 0.01352701 0.02227489 -0.05190748
-0.074741386 -0.0807604 -0.06620637 -0.14968938 0.15637685 0.14321691 -0.0038523667 -0.19989899
-0.094185926 0.02213181 -0.11303043 0.1161838 -0.18057594 -0.0042715822 0.024729695 -0.0495585
0.019287683 -0.024674386 0.10584262 0.14735053 0.08779049 0.1337967 -0.115945056 -0.1609707
0.08423017 -0.09206877 0.047441263 0.07426477 -0.005516205 -0.11248412 -0.16428982 0.16880594
0.12905277 0.0026702015 0.013803107 -0.16161147 -0.10925984 -0.012618768 -0.054471172 -0.13395737
0.026808608 0.102641806 0.07962847 -0.16648391 -0.095213406 -0.12986858 -0.18116423 0.17315477
0.19166265 0.112335116 -0.17984653 -0.13495715 0.06160813 -0.1370063 -0.1729584 -0.07633719
0.05877192 0.08815916 -0.12045006 0.16118033 0.05141645 0.08659103 -0.039276984 0.12115641
0.082534425 -0.18204784 0.15631427 -0.18990043 -0.093439355 0.17363426 0.00016274894 0.1389091
0.056417894 0.0667341 0.022235606 0.033749346 0.057081066 -0.068603046 -0.047130495 -0.147592
0.020133954 0.08165328 0.10814015 -0.09380733 -0.1201739 0.013079059 0.14287728 0.040738545
0.14491248 0.18327105 0.12452905 0.1113267 -0.11572897 0.016273383 0.050621405 0.07560179
0.07034584 0.018263848 0.15103793 0.09062648 0.0696255 -0.21529074 -0.011243468 0.04639017
0.06525614 -0.035066098 0.124182954 -0.096156046 -0.17957723 -0.00586514 -0.13865808 -0.20844376
0.0097916825 -0.01006806 -0.19884257 0.1525497 -0.037035137 0.1810073 0.053452086 -0.17166865
-0.03106271 -0.11715285 -0.080907926 -0.010245714 -0.093927346 -0.18507662 -0.05166418 -0.07901919
-0.11771253 0.03552767 -0.15077992 0.07695805 -0.029225783 -0.024630897 -0.04716298 -0.1309626
0.19571014 0.06402226 -0.044791095 0.12517875 -0.12316204 0.19883123 0.074491546 0.020239962
0.15155303 0.05277123 0.0017227206 -0.07757444 0.1492197 0.16175708 0.15558597 -0.2146015
0.0336341 -0.11483897 -0.10357871 -0.11278767 0.09574925 0.0942164 0.024384184 -0.08614975
-0.19338453 -0.076480016 -0.16580907 -0.01886961 -0.1721293 -0.18062115 -0.09010696 -0.13437918
0.065814964 -0.15566735 -0.07451366 -0.101119585 -0.18946768 -0.066846475 0.033145018 0.03279002
-0.15770286 -0.1830525 0.11172523 0.08902812 -0.12945105 -0.1326734 0.11088779 0.11580785
-0.13319056 -0.16934156 -0.12317483 0.22247325 0.013342898 -0.16486779 0.101000674 -0.038306557
-0.05075629 -0.013572583 0.1661776 -0.005142127 -0.08939592 0.054230902 -0.19733888 0.13733955
-0.15824144 0.05721387 -0.052315656 0.1863121 0.2031494 -0.066286065 -0.11289593 -0.009276581
-0.14751281 -0.019158622 -0.16471429 0.023715105 0.03344927 -0.14480431 -0.12659128 -0.06415051
0.11469559 -0.1278005 -0.0038894124 -0.07987163 -0.021606399 -0.15141319 0.13374527 0.1395372
-0.10127706 -0.15289792 -0.12152335 -0.029224627 -0.10901455 -0.027475262 -0.11504046 0.07479028
0.045222346 0.06713629 -0.057940092 -0.05917192 -0.10250164 -0.17227261 -0.18589087 0.17301108
0.0831915 0.12671211 0.10279721 0.19556487 0.15591113 0.057333317 -0.009657443 -0.14587387
00000000: 0924 463e 8762 103e d367 f5bd e354 18be
00000010: bc8a 0dbe 64a0 5d3c d579 b63c f09c 54bd
00000020: 0312 99bd b565 a5bd 3597 87bd 2c48 19be
00000030: 4121 203e 74a7 123e fd77 7cbb 52b2 4cbe
00000040: 8de4 c0bd c54d b53c 807c e7bd c6f1 ed3d
00000050: e6e8 38be a1f8 8bbb ee95 ca3c dbfd 4abd
00000060: 3401 9e3c f021 cabc 04c4 d83d 0fe3 163e
00000070: 80cb b33d 0102 093e 9a74 edbd 81d5 24be
00000080: de80 ac3d 8d8e bcbd c551 423d 2118 983d
00000090: 48c1 b4bb 135e e6bd 973b 28be 77db 2c3e
000000a0: 6926 043e 8cfe 2e3b 6d26 623c 7a7d 25be
000000b0: 9fc3 dfbd f3be 4ebc 2a1d 5fbd 1f2c 09be
000000c0: ba9d db3c de35 d23d 4014 a33d c27a 2abe
000000d0: 3fff c2bd 45fc 04be 1e83 39be 7c4f 313e
000000e0: 3743 443e f40f e63d b029 38be 3532 0abe
000000f0: ce58 7c3d 614b 0cbe 021c 31be ac56 9cbd
00000100: d3ba 703d ca8c b43d 85ae f6bd 750c 253e
00000110: 0e9a 523d a356 b13d e7e0 20bd da20 f83d
00000120: cf07 a93d c06a 3abe d910 203e 4275 42be
00000130: 225d bfbd 2ecd 313e 96a7 2a39 303e 0e3e
00000140: 7316 673d e3ab 883d 7227 b63c c13c 0a3d
00000150: d6cd 693d c17f 8cbd e80b 41bd 5b22 17be
00000160: f6ef a43c d639 a73d 9578 dd3d 0f1e c0bd
00000170: bc1d f6bd 8d49 563c 6c4e 123e 76dd 263d
00000180: f063 143e 68ab 3b3e 1609 ff3d 41ff e33d
00000190: 4f03 edbd c24f 853c 6458 4f3d 1cd5 9a3d
000001a0: 7b11 903d 119e 953c b0a9 1a3e 609a b93d
000001b0: d097 8e3d 2d75 5cbe 8636 38bc 9e03 3e3d
000001c0: 03a5 853d 78a1 0fbd a253 fe3d 76ed c4bd
000001d0: 18e3 37be 5c30 c0bb 62fc 0dbe 4872 55be
000001e0: 4b6d 203c 81f4 24bc 639d 4bbe fd35 1c3e
000001f0: 28b2 17bd fa59 393e 93f0 5a3d e8c9 2fbe
00000200: 3977 febc d5ed efbd 0eb3 a5bd a4dd 27bc
00000210: fb5c c0bd ba84 3dbe d29d 53bd d0d4 a1bd
00000220: 4413 f1bd 7685 113d 0d66 1abe 2f9c 9d3d
00000230: e96a efbc bcc6 c9bc f82d 41bd 0f1b 06be
00000240: 3d68 483e 1a1e 833d de76 37bd dc2e 003e
00000250: 613c fcbd 6a9a 4b3e 068f 983d 47ce a53c
00000260: b830 1b3e a526 583d e9cc e13a 59df 9ebd
00000270: 0dcd 183e a6a3 253e ee51 1f3e 7fc0 5bbe
00000280: e9c3 093d b230 ebbd 1321 d4bd 39fd e6bd
00000290: 2f18 c43d 87f4 c03d 57c1 c73c 486f b0bd
000002a0: 9806 46be 8ea1 9cbd dac9 29be 7194 9abc
000002b0: aa42 30be c0f4 38be ff89 b8bd b29a 09be
000002c0: ffc9 863d 4367 1fbe 9e9a 98bd c917 cfbd
000002d0: d103 42be cee6 88bd 12c3 073d d44e 063d
000002e0: dc7c 21be 1d72 3bbe 33d0 e43d 6054 b63d
000002f0: d18e 04be 89db 07be 2319 e33d ab2c ed3d
00000300: 1b63 08be e067 2dbe 1643 fcbd 07d0 633e
00000310: 2c9c 5a3c 1ad3 28be 71d9 ce3d 56e7 1cbd
00000320: d4e5 4fbd 8a5f 5ebc 762a 2a3e 4a7f a8bb
00000330: 3515 b7bd 3921 5e3d 3413 4abe bda2 0c3e
00000340: 0b0a 22be 1759 6a3d f148 56bd 99c8 3e3e
00000350: 6506 503e fdc0 87bd fb35 e7bd cdfc 17bc
00000360: 990d 17be 8bf2 9cbc ddaa 28be 2e46 c23c
00000370: 1a02 093d 9547 14be 25a1 01be 5861 83bd
00000380: 86e5 ea3d 22de 02be 83e5 7ebb bd93 a3bd
00000390: e7ff b0bc 0f0c 1bbe 85f4 083e d7e2 0e3e
000003a0: 596a cfbd 4691 1cbe 3ce1 f8bd 7c68 efbc
000003b0: 0543 dfbd cd13 e1bc 559a ebbd a52b 993d
000003c0: 113b 393d c07e 893d 9752 6dbd 415e 72bd
000003d0: 61ec d1bd 3b68 30be 2d5a 3ebe d129 313e
000003e0: 4e60 aa3d d2c0 013e 5887 d23d 2842 483e
000003f0: 2ba7 1f3e 57d6 6a3d 403a 1ebc f65f 15be

model.4.bias f4 [10]
0.11764152 0.017103894 -0.20182826 -0.111805856 0.12696016 0.15276141 -0.12171305 0.14794402
-0.042795938 0.07599599
00000000: 0aee f03d 771d 8c3c 11ac 4ebe 78fa e4bd
00000010: d801 023e 7d6d 1c3e b144 f9bd a37e 173e
00000020: cb4a 2fbd c9a3 9b3d

exp_avg f4 [30, 784]
0.0 0.0 0.0 0.0 0.0 0.0 0.0 0.0
0.0 0.0 0.0 0.0 0.0 0.0 0.0 0.0
0.0 0.0 0.0 0.0 0.0 0.0 0.0 0.0
0.0 0.0 0.0 0.0 0.0 0.0 0.0 0.0
0.0 0.0 0.0 0.0 0.0 0.0 0.0 0.0
0.0 0.0 0.0 0.0 0.0 0.0 0.0 0.0
0.0 0.0 0.0 0.0 0.0 0.0 0.0 0.0
0.0 0.0 0.0 0.0 0.0 0.0 0.0 0.0
0.0 0.0 0.0 0.0 -1.47236815e-05 -1.9385774e-05 -1.5420886e-06 -5.70311e-06
-3.5106143e-06 -2.8400475e-06 0.0 0.0 0.0 0.0 0.0 0.0
0.0 0.0 0.0 0.0 0.0 0.0 0.0 0.0
0.0 0.0 0.0 2.3656878e-07 7.0730624e-07 9.5005987e-07 8.9715473e-07 -8.4248995e-06
-4.230368e-05 -5.382466e-05 -2.1354708e-05 -3.219309e-05 -2.2080314e-06 5.8945832e-05 6.3620064e-05 2.8906483e-05
6.88279e-06 0.0 0.0 0.0 0.0 0.0 0.0 0.0
0.0 0.0 0.0 0.0 4.8045396e-05 0.0 -1.9407029e-08 4.4626645e-07
5.8896703e-08 5.566944e-05 0.00012809147 7.123434e-05 2.1044767e-05 0.00025172962 9.148419e-05 -8.4597865e-05
-4.1205625e-05 0.00017271294 0.00029583863 4.317075e-05 1.8343439e-05 8.372614e-06 9.8693e-06 1.2416217e-05
9.8693e-06 3.1199713e-06 0.0 0.0 0.0 0.0 0.0 0.0
7.554309e-05 2.0239364e-05 -4.5638537e-08 5.1969704e-07 1.1628864e-05 0.00032168004 0.00028248702 -1.9982543e-05
0.00013903585 0.0006458436 0.0003828483 3.0103933e-05 6.433572e-05 0.00014516599 0.0002529061 0.0002304174
0.00012608196 0.00010915765 9.1838636e-05 1.4995718e-05 1.495774e-05 1.3052942e-05 0.0 0.0
0.0 0.0 0.0 0.0 3.082158e-05 6.539712e-05 2.00647e-05 2.5301992e-05
7.838439e-05 0.0001673537 5.9698974e-05 0.00014252598 0.00072434783 0.0010345901 0.00073673826 0.00015963969
7.426913e-05 0.0003401055 4.5617035e-06 5.1895808e-05 1.2498773e-06 1.2126251e-05 -2.3290477e-05 -1.1639163e-05
-7.8068445e-07 1.4318312e-06 0.0 0.0 0.0 0.0 0.0 0.0
1.0556964e-06 5.237751e-05 6.5456974e-05 0.00011708204 0.00018502986 -0.00021912793 -5.8181737e-05 -0.000100842924
1.8557465e-05 0.00076393754 0.00052602217 0.00028157822 0.00027593612 0.00033471457 -0.00036941026 -0.00038121938
-0.000298584 -0.00011070447 -9.184184e-05 -5.1874933e-05 -7.590637e-06 -9.686747e-07 0.0 0.0
0.0 0.0 -1.2092774e-07 -1.9650753e-07 6.8460004e-06 1.3048357e-05 4.9787905e-05 0.00025630998
0.00042526037 -2.75228e-05 -0.00017927808 -0.00048731733 -0.00016435313 0.0004592844 0.0002520485 2.300215e-05
-2.2663486e-05 0.00017977657 5.9993617e-05 -0.0001349971 -7.8665566e-05 -7.066018e-05 -0.00011060189 -0.00011989312
-0.00010206801 -4.0329953e-05 0.0 0.0 -2.8720336e-07 -2.191815e-06 -3.204585e-06 -1.2940164e-07
00000000: 0000 0000 0000 0000 0000 0000 0000 0000
00000010: 0000 0000 0000 0000 0000 0000 0000 0000
00000020: 0000 0000 0000 0000 0000 0000 0000 0000
00000030: 0000 0000 0000 0000 0000 0000 0000 0000
00000040: 0000 0000 0000 0000 0000 0000 0000 0000
00000050: 0000 0000 0000 0000 0000 0000 0000 0000
00000060: 0000 0000 0000 0000 0000 0000 0000 0000
00000070: 0000 0000 0000 0000 0000 0000 0000 0000
00000080: 0000 0000 0000 0000 0000 0000 0000 0000
00000090: 0000 0000 0000 0000 0000 0000 0000 0000
000000a0: 0000 0000 0000 0000 0000 0000 0000 0000
000000b0: 0000 0000 0000 0000 0000 0000 0000 0000
000000c0: 0000 0000 0000 0000 0000 0000 0000 0000
000000d0: 0000 0000 0000 0000 0000 0000 0000 0000
000000e0: 0000 0000 0000 0000 0000 0000 0000 0000
000000f0: 0000 0000 0000 0000 0000 0000 0000 0000
00000100: 0000 0000 0000 0000 0000 0000 0000 0000
00000110: bb05 77b7 a29e a2b7 c3f9 ceb5 585d bfb6
00000120: e597 6bb6 a597 3eb6 0000 0000 0000 0000
00000130: 0000 0000 0000 0000 0000 0000 0000 0000
00000140: 0000 0000 0000 0000 0000 0000 0000 0000
00000150: 0000 0000 0000 0000 0000 0000 0000 0000
00000160: 0000 0000 0000 0000 0000 0000 8803 7e34
00000170: b7dd 3d35 9e07 7f35 01d4 7035 ab58 0db7
00000180: 3b6f 31b8 cac1 61b8 e322 b3b7 1107 07b8
00000190: b12d 14b6 9b3c 7738 c36b 8538 337c f237
000001a0: b7f2 e636 0000 0000 0000 0000 0000 0000
000001b0: 0000 0000 0000 0000 0000 0000 0000 0000
000001c0: 0000 0000 0000 0000 0000 0000 0000 0000
000001d0: 5a84 4938 0000 0000 82b4 a6b2 6596 ef34
000001e0: 9cf5 7c33 9b7e 6938 4b50 0639 a563 9538
000001f0: 4b89 b037 94fa 8339 33db bf38 226a b1b8
00000200: 34d4 2cb8 471a 3539 ca1a 9b39 3d12 3538
00000210: 3ce0 9937 1a78 0c37 5294 2537 3f4f 5037
00000220: 5294 2537 b360 5136 0000 0000 0000 0000
00000230: 0000 0000 0000 0000 0000 0000 0000 0000
00000240: e36c 9e38 b4c7 a937 1a04 44b3 4f81 0b35
00000250: 9719 4337 2aa7 a839 c41a 9439 2fa0 a7b7
00000260: 27ca 1139 d54d 293a 07b9 c839 b487 fc37
00000270: faeb 8638 b337 1839 7b98 8439 339c 7139
00000280: de34 0439 91eb e438 7e99 c038 1e96 7b37
00000290: 01f3 7a37 f6fd 5a37 0000 0000 0000 0000
000002a0: 0000 0000 0000 0000 0000 0000 0000 0000
000002b0: 6b46 0138 d025 8938 9d50 a837 9d3f d437
000002c0: 4d62 a438 ab7b 2f39 4965 7a38 0773 1539
000002d0: 29e2 3d3a 159b 873a ab21 413a f464 2739
000002e0: f0c0 9b38 3050 b239 bc10 9936 b3aa 5938
000002f0: 75c1 a735 da71 4b37 eb5f c3b7 d345 43b7
00000300: 3a90 51b5 582d c035 0000 0000 0000 0000
00000310: 0000 0000 0000 0000 0000 0000 0000 0000
00000320: 74b1 8d35 ecaf 5b38 f245 8938 f189 f538
00000330: 9304 4239 b5c5 65b9 2a08 74b8 a27b d3b8
00000340: daab 9b37 fb42 483a c0e4 093a caa0 9339
00000350: 85ab 9039 a17c af39 68ad c1b9 66de c7b9
00000360: 448b 9cb9 032a e8b8 369b c0b8 4994 59b8
00000370: 13b3 feb6 6903 82b5 0000 0000 0000 0000
00000380: 0000 0000 0000 0000 5dd8 01b4 94ff 52b4
00000390: b2b6 e536 44ea 5a37 5bd3 5038 5861 8639
000003a0: 7bf5 de39 c3e0 e6b7 98fc 3bb9 a07e ffb9
000003b0: 3556 2cb9 1ccc f039 6125 8439 bef4 c037
000003c0: 771d beb7 6882 3c39 a8a1 7b38 028e 0db9
000003d0: 41f9 a4b8 652f 94b8 f0f2 e7b8 216f fbb8
000003e0: 580d d6b8 f527 29b8 0000 0000 0000 0000
000003f0: ee30 9ab4 1817 13b6 5a0e 57b6 a7f1 0ab4
