hw8/lightning_logs/version_2/checkpoints/epoch=49-step=100.ckpt (torch, 123671 bytes, 36 tensors)

encoder.encoder.0.weight f4 [10, 784]
0	0xbc6df878	-0.014524572
1	0xbc95d0cc	-0.018288039
2	0x3c4dc6d0	0.012559608
3	0x3c3b8a44	0.011446539
4	0x3c9c633c	0.019090287
5	0xbc3c411c	-0.011490133
6	0xbc985a7c	-0.018597834
7	0xbc957e4e	-0.018248703
8	0xbcb3eaf8	-0.021962628
9	0xbcd6d6ee	-0.026225533
10	0x3c5861f8	0.013206951
11	0x3c6c279c	0.0144137405
12	0x3c1440e4	0.009048674
13	0x3d0a17b1	0.033714
14	0x3cd364bc	0.02580487
15	0x3c8d0cb2	0.017217968
16	0x3bcb4ef0	0.0062044784
17	0xbc24458e	-0.010026349
18	0xbc3f4332	-0.011673735
19	0x3cd62b1c	0.026143603
20	0x3c9fcae6	0.01950593
21	0xbcdfb0fc	-0.027306072
22	0xbcccda75	-0.025006512
23	0xbc6f3a4e	-0.014601303
24	0x3c77a888	0.015115865
25	0xbce02935	-0.027363399
26	0x3ca92688	0.020648256
27	0x3cb5f9d0	0.022213846
28	0xbcb6d3a3	-0.022317713
29	0x3c945d20	0.018110812
30	0x3cbb63c2	0.022874717
31	0xbcee9de8	-0.02912803
32	0xbcd35ede	-0.025802072
33	0x3cdb7be6	0.026792478
34	0xbc2dd39c	-0.010609534
35	0x3ca0dc50	0.019636303
36	0xbd07cf28	-0.033156544
37	0xbb8ddac8	-0.0043290593
38	0x3c5953f4	0.013264645
39	0x3d01e777	0.031714883
40	0x3c3102d4	0.010803897
41	0x3b7ebdb0	0.0038870387
42	0xbd05dca6	-0.03268113
43	0xbc53648e	-0.012902392
44	0xbc9c06ca	-0.019046206
45	0x3cab620c	0.020920776
46	0x39d9f100	0.00041569024
47	0xbc638ffc	-0.013889309
48	0x3cbb815e	0.022888836
49	0xbc62876a	-0.013826231
50	0x3c99e446	0.018785607
51	0xbc90873e	-0.017642614
52	0xb887e400	-6.47977e-05
53	0xba62a740	-0.0008646138
54	0xbccd5540	-0.025065064
55	0x3cb5ef96	0.02220897
56	0x3c9115f2	0.01771066
57	0xbb96c4c0	-0.004601091
58	0xbcb7875e	-0.022403415
59	0x3c63b2f4	0.013897646
60	0xbd10c063	-0.035339724
61	0xbc99fd53	-0.018797552
62	0xbd022b7b	-0.031779747
63	0x3cac28fa	0.021015633
64	0xbcfff67e	-0.031245466
65	0xbc98e1e5	-0.018662402
66	0x3cbcc6be	0.023043986
67	0x3cdf36de	0.027247842
68	0xbbc0ff7c	-0.005889831
69	0x3cb47eeb	0.022033175
70	0x3c559596	0.013036152
71	0x3d0c9b4a	0.034327783
72	0x3ca02cd1	0.01955262
73	0x3c084ab6	0.008318594
74	0x3cff977e	0.031200167
75	0xbd0767fa	-0.033058144
76	0xbd0e2245	-0.03470065
77	0xbd01b250	-0.031664193
78	0x3cb203e0	0.021730363
79	0xbbb51254	-0.0055258665
80	0x3c0c0a44	0.008547369
81	0x3b1e0390	0.002411101
82	0x3c861b50	0.016370445
83	0xbc8d70bc	-0.01726567
84	0xbc98fd5e	-0.018675502
85	0xbc9e51a7	-0.019326044
86	0xbcb3de18	-0.021956488
87	0xbd08dc9f	-0.033413526
88	0xbc3df40a	-0.011593828
89	0x3cc9c306	0.024629127
90	0x3cc68082	0.0242312
91	0xbc868046	-0.016418587
92	0xbcbf9d23	-0.023390358
93	0x3b8fbb8c	0.004386371
94	0xbd1918ad	-0.03737705
95	0xbc8654d8	-0.016397879
96	0xbcf5c2e9	-0.030000167
97	0xbc60168a	-0.013677249
98	0x3b2e4177	0.0026589313
99	0xbd3a7d63	-0.045529734
100	0x3d371470	0.044697225
101	0x3c255d45	0.010093038
102	0x3ba383b5	0.004990066
103	0xbc796ce2	-0.015223714
104	0x3c6e60de	0.014549462
105	0x3c740500	0.01489377
106	0xba601dc0	-0.0008549355
107	0xbd0d484d	-0.03449278
108	0x3ce2c46e	0.027681556
109	0x3cbf7d42	0.023375157
110	0x3ca8a6dc	0.020587377
111	0x3c0a05f8	0.008424275
112	0x3cd1672c	0.025561891
113	0x3c8139d4	0.015774645
114	0xbcedc685	-0.029025326
115	0x3bdfc978	0.006829437
116	0xbc428e10	-0.011874691
117	0xbc85410e	-0.016266372
118	0x3cacedcc	0.021109484
119	0x3a415b2d	0.0007375952
120	0x3c0d6f49	0.0086324895
121	0x3bbfdfab	0.0058555207
122	0x3cbda7f9	0.023151385
123	0xbc5db7f5	-0.013532628
124	0xbd38e42b	-0.045139473
125	0xbce864bc	-0.028368346
126	0x3aca03d6	0.001541252
127	0xbc6dd7dd	-0.014516798
128	0xbc844d2c	-0.01615008
129	0x3cb7c138	0.022431001
130	0xbcbdceb5	-0.023169855
131	0xbccba2d6	-0.02485792
132	0x3c331f5f	0.010932772
133	0xbb4a336a	-0.00308534
134	0xbc300efc	-0.01074576
135	0xbc560914	-0.013063688
136	0xbc406c71	-0.011744604
137	0x3cf2b3bc	0.02962672
138	0x396d1d00	0.00022612885
139	0x3c214664	0.009843443
140	0xbcae9208	-0.021309868
141	0x3cf0236a	0.029313762
142	0xbc49c84e	-0.012315823
143	0xbc0659d8	-0.008200131
144	0xbc15140e	-0.00909902
145	0xbd286e24	-0.041120663
146	0xbc83e684	-0.01610113
147	0xbc9ff1ae	-0.019524422
148	0x3c1001d8	0.008789502
149	0xbd1c188e	-0.038109355
150	0xbb8fedb8	-0.004392352
151	0xbc6cacfc	-0.01444554
152	0xbd33949c	-0.043842897
153	0xbd0b3c66	-0.033993147
154	0x3bc89141	0.0061208312
155	0x3d188c68	0.037243277
156	0x3bbb5b02	0.005717636
157	0x3cf00492	0.029299054
158	0x3b5aa2ee	0.0033361274
159	0xbcdf0c91	-0.027227672
160	0xbb0cf285	-0.0021506858
161	0xbc663392	-0.014050381
162	0x3ba12312	0.004917511
163	0x3ce7bd40	0.028288484
164	0x3d01b34b	0.031665128
165	0x3c9ae222	0.018906657
166	0xbcff89e5	-0.031193683
167	0xbc0397ea	-0.008031825
168	0x3aeca540	0.001805462
169	0x3d051513	0.0324908
170	0x3b357260	0.002768658
171	0x3c6137f4	0.01374625
172	0xbc683c8e	-0.014174594
173	0xbd7e3072	-0.06205792
174	0xbc8ae123	-0.016953057
175	0xbd11e331	-0.035617057
176	0x3c5b038b	0.013367544
177	0xbd134728	-0.03595653
178	0xbb7be963	-0.003843867
179	0xbbaba621	-0.00523831
180	0x3cf547b0	0.02994141
181	0xbcfb6a7d	-0.030690426
182	0xbb9e5409	-0.004831795
183	0x3ca9fe7f	0.020751236
184	0x3d15c12a	0.03656117
185	0xbcb4ab3c	-0.022054307
186	0x3c936586	0.017992746
187	0x3c3e15ce	0.011601878
188	0x3d1bac45	0.038006086
189	0x3cfa4a08	0.030552879
190	0x3d268b09	0.040659938
191	0xbba9c34b	-0.0051807514
192	0xbccd1560	-0.025034606
193	0xbc0f0c28	-0.008730926
194	0xbca77b30	-0.020444483
195	0xbc527e92	-0.0128475595
196	0xbcee8e3e	-0.02912056
197	0x3bd23aa0	0.00641568
198	0xbcb16e48	-0.021659032
199	0x3aa0afa0	0.0012259372
200	0xbcc624e4	-0.024187513
201	0xbd339ce4	-0.043850794
202	0xbd3e51f2	-0.046464868
203	0x3c46e97d	0.012140629
204	0x3cac7314	0.021050967
205	0xbb8b7c08	-0.004256729
206	0x3ca6b5fe	0.020350453
207	0x3b85852a	0.0040747123
208	0x3c97f1b0	0.018547863
209	0x3cbc1dca	0.022963423
210	0xbcbe989c	-0.02326613
211	0xbc6ff126	-0.014644897
212	0x3ce73314	0.028222598
213	0xbce68ec1	-0.028144242
214	0x3ce78182	0.028259996
215	0x3cd40913	0.025883233
216	0x3c7d58a6	0.01546303
217	0x3c9725d5	0.018450657
218	0x3bade2a6	0.0053065596
219	0xbc4b8f66	-0.012424326
220	0xbb8a5064	-0.004221009
221	0x3d1fbe3a	0.038999774
222	0xbcbc3778	-0.022975668
223	0xbcfb19ca	-0.030651946
224	0xbb32a230	-0.0027257316
225	0x3cb0d8d0	0.02158776
226	0x3c7bb87f	0.0153638115
227	0xbd2d36a4	-0.042288437
228	0xbcbf2a96	-0.023335736
229	0x3aac278b	0.0013134343
230	0xbc6cc208	-0.0144505575
231	0xbcc9bbda	-0.024625707
232	0x3d191911	0.03737742
233	0x3c8bb232	0.017052744
234	0xbbafbdee	-0.0053632176
235	0x3cb8ea78	0.02257274
236	0x3d194f97	0.03742942
237	0x3cbec8f7	0.023289187
238	0x3ceb7da3	0.028746432
239	0xbcae4613	-0.021273648
240	0xbcbafe6a	-0.022826392
241	0xbc8eef67	-0.01744814
242	0x3d0ebd36	0.034848414
243	0x3cbf2837	0.023334606
244	0xbc020735	-0.007936289
245	0xbc85c406	-0.016328823
246	0x3d05856a	0.032597937
247	0x3d1b9898	0.03798732
248	0x3cbe0858	0.023197338
249	0xbcdf5512	-0.027262244
250	0xbc815677	-0.0157883
251	0x3b645a10	0.003484372
252	0xbd170110	-0.036866248
253	0xbd3f3154	-0.046677902
254	0xbd5a2137	-0.053254332
255	0x3be3f802	0.006957055

encoder.encoder.0.bias f4 [10]
0	0xbca169bb	-0.019703737
1	0xbc07fe75	-0.008300413
2	0x3cd90335	0.026490787
3	0xbd290759	-0.041266773
4	0x3b209e55	0.0024508436
5	0xbcb300dd	-0.021850998
6	0x3d5cb94a	0.053887643
7	0x3cf5cb91	0.030004295
8	0xbc8ff8f5	-0.017574767
9	0x3d15c79c	0.036567315

encoder.encoder.1.weight f4 [20, 10]
0	0xbe434269	-0.19068302
1	0xbb0790bb	-0.0020685631
2	0xbe4cb5bf	-0.19991206
3	0xbdab86b6	-0.083753034
4	0x3d53d78e	0.05171924
5	0x3e991a00	0.2990265
6	0xbe2dedd9	-0.16985263
7	0xbe659c84	-0.22422987
8	0xbe98c44d	-0.29837266
9	0x3de287ca	0.11061056
10	0xbd87440f	-0.06604778
11	0xbcc88a7d	-0.024480099
12	0x3e65f0ef	0.2245519
13	0x3e0f3877	0.13986383
14	0xbe8a7dc9	-0.2704909
15	0x3e01c752	0.12673691
16	0x3e60c3ea	0.21949735
17	0x3e08184e	0.13290522
18	0xbe8e39d3	-0.2777849
19	0xbcdfb676	-0.027308684
20	0x3e80c57e	0.25150675
21	0x3e807694	0.25090468
22	0xbcd9c14c	-0.026581429
23	0x3e59e7cd	0.21279831
24	0xbe13396e	-0.14377376
25	0x3db2e41f	0.08734917
26	0x3b78bf0f	0.0037955677
27	0x3e3bfec3	0.18358903
28	0x3e23865c	0.15969223
29	0x3d33bb6b	0.043879908
30	0x3deae6c1	0.11469794
31	0xbd590f81	-0.0529933
32	0x3e4dd52f	0.20100854
33	0xbe776fb2	-0.24163702
34	0xbe715414	-0.2356723
35	0x3e8ebd3f	0.27878758
36	0xbd7c1a3d	-0.06154846
37	0x3e5230a1	0.20526363
38	0x3e2eba42	0.17063239
39	0x3a6c73fd	0.0009019969
40	0x3dbdf5e4	0.092754155
41	0xbe089c08	-0.13340771
42	0x3e85d1a3	0.26136503
43	0xbe571c81	-0.21006967
44	0x3d6908b4	0.056893066
45	0xbd90b918	-0.07066554
46	0x3e6cdf08	0.23131955
47	0x3e9deb6d	0.30843678
48	0xbe31fc61	-0.17381431
49	0x3e459e86	0.19298753
50	0xbdb45435	-0.08805124
51	0xbe1fdb6d	-0.15611048
52	0x3e52406c	0.20532387
53	0xbe7f213f	-0.24915026
54	0x3e2e4575	0.17018683
55	0x3bd59537	0.006518032
56	0xbca0345e	-0.01955622
57	0x3e929655	0.2863032
58	0xbdc1f854	-0.09471193
59	0xbe757aa4	-0.23972565
60	0xbdfcbe48	-0.12340981
61	0x3e927333	0.28603515
62	0xbe960a15	-0.29304567
63	0xbbe40028	-0.0069580264
64	0xbca1de31	-0.01975927
65	0x3d992409	0.07477576
66	0x3d14def8	0.036345452
67	0xbe92f8f4	-0.2870556
68	0xbe8d5d97	-0.27610466
69	0xbe8189ee	-0.25300545
70	0x3c831f02	0.016005997
71	0xbe4200a5	-0.18945558
72	0xbd648e4d	-0.05579977
73	0xbcbfce03	-0.023413664
74	0x3ea34978	0.3189199
75	0xbe1de3da	-0.1541895
76	0xbcf57ec1	-0.029967668
77	0x3e9e5661	0.30925277
78	0xbe3098e0	-0.17245817
79	0x3e94f097	0.29089805
80	0x3e12dd9a	0.14342347
81	0xbe16c2c8	-0.1472274
82	0xbe83174d	-0.25603715
83	0x3d20af51	0.039229695
84	0x3e344e71	0.17608048
85	0xbd296f3b	-0.041365843
86	0xbe93e9b6	-0.28889245
87	0x3e8bad18	0.27280498
88	0x3e96af5f	0.29430673
89	0x3e04eead	0.12981673
90	0x3e835f37	0.2565858
91	0x3cc612b8	0.024178848
92	0x3de71b15	0.11284462
93	0x3c211b21	0.009833128
94	0x3e9ab391	0.30215123
95	0x3dd8ca0d	0.10585413
96	0x3e4b537a	0.19856063
97	0xbcb5641b	-0.02214246
98	0xbe6b0ef6	-0.22954926
99	0xbe9e9b1b	-0.3097771
100	0xbe87577b	-0.2643393
101	0x3e4eed06	0.20207605
102	0x3e6e569f	0.23275231
103	0xbe70561a	-0.23470345
104	0x3d281393	0.041034292
105	0xbdd876d2	-0.10569538
106	0xbe3e3d8a	-0.18578163
107	0x3e937e51	0.2880731
108	0xbc76809d	-0.015045312
109	0xbe6fea71	-0.23429276
110	0x3de8a85d	0.11360238
111	0xbe0fab82	-0.14030269
112	0x3ea5fc5e	0.32419103
113	0xbe14ba42	-0.14524177
114	0xbd42d915	-0.047570307
115	0x3e1e3a71	0.15451981
116	0xbe52f358	-0.20600641
117	0xbe6da8b3	-0.23208885
118	0xbdb4cb89	-0.08827884
119	0x3d6a2052	0.05715973
120	0x3cbbea90	0.022938997
121	0xbd310834	-0.043220714
122	0x3e39676e	0.18105862
123	0xbe48c332	-0.19605711
124	0xbde4a2d3	-0.11163869
125	0x3e112e85	0.14177902
126	0x3dea3221	0.114353426
127	0xbdfd029d	-0.12354014
128	0x3e94b6bf	0.29045674
129	0x3e722d6b	0.23650138
130	0xbe6d3aec	-0.23167008
131	0x3e2fe367	0.17176591
132	0xbe1b5283	-0.15168194
133	0xbe5aa39a	-0.21351472
134	0x3e84ce51	0.25938657
135	0xbe9736d4	-0.29534018
136	0x3cf4c1dd	0.029877597
137	0x3e7866ca	0.24257961
138	0xbca03150	-0.019554764
139	0x3dd3a3de	0.103339896
140	0xbe2207ab	-0.15823238
141	0x3d64d83d	0.055870283
142	0x3e2184b3	0.15773277
143	0x3d9c587d	0.07634065
144	0x3dc034e6	0.093850896
145	0xbe7ee05b	-0.24890272
146	0x3da52a93	0.08064761
147	0x3e80a6fd	0.25127402
148	0xbe252575	-0.1612757
149	0xbe151a82	-0.14560893
150	0xbdf68228	-0.12036544
151	0xbe71a7d9	-0.23599185
152	0xbe637fea	-0.22216764
153	0x3d1cddfc	0.03829764
154	0xbe133be8	-0.14378321
155	0xbe8e3048	-0.2777121
156	0xbe8040d9	-0.25049475
157	0xbd6b2c0d	-0.057415057
158	0xbda1a094	-0.07891956
159	0x3e5b6e73	0.21428852
160	0x3e0b38d3	0.13595895
161	0x3c962a61	0.018330755
162	0x3e979301	0.29604343
163	0xbb7aded2	-0.0038279784
164	0x3e99136c	0.2989763
165	0x3e11f888	0.14254963
166	0xbe6840fd	-0.22681041
167	0xbdec9724	-0.11552265
168	0xbe3f29ac	-0.1866824
169	0x3e07c5e6	0.13259086
170	0xbe8459a8	-0.25849652
171	0x3e04af83	0.12957577
172	0xbe22f777	-0.15914713
173	0xbe14883e	-0.14505097
174	0xbdebedd4	-0.115199715
175	0xbe172947	-0.1476184
176	0x3e94e332	0.29079586
177	0xbdf05d77	-0.11736577
178	0x3e248273	0.16065387
179	0xbe96066d	-0.29301777
180	0x3e4e6ef4	0.20159513
181	0x3e0baa01	0.1363907
182	0xbe1a9da9	-0.15099205
183	0x3e32a2b2	0.17444876
184	0xbe238d9b	-0.15971987
185	0x3e1b9ff1	0.15197732
186	0xbe9e94f3	-0.30973014
187	0xbc57be02	-0.01316786
188	0xbdf46e37	-0.11935084
189	0xbe89452d	-0.2681059
190	0x3e049a2b	0.12949435
191	0x3d2d26f3	0.042273473
192	0x3e81f252	0.25380188
193	0xbdaa03be	-0.08301495
194	0xbe98995c	-0.29804504
195	0xbeb0b276	-0.34511155
196	0x3dffa0b3	0.12481823
197	0x3dcbac86	0.099450156
198	0xbea56980	-0.32307053
199	0x3e7c61e3	0.24646716

encoder.encoder.1.bias f4 [20]
0	0x3e6ef626	0.23336086
1	0xbdf4dbbd	-0.11955974
2	0xbe17476d	-0.1477334
3	0xbdf94f5d	-0.121733405
4	0xbceb935d	-0.028756792
5	0xbe7f18db	-0.24911825
6	0xbda4ed0f	-0.08053028
7	0x3e7194a2	0.23591855
8	0x3da88980	0.08229351
9	0xbe8b509b	-0.27209935
10	0xbe8b02c6	-0.27150553
11	0xbde1778a	-0.110091284
12	0xbcc99bcb	-0.02461042
13	0x3e33e984	0.17569548
14	0x3e1456de	0.14486262
15	0xbe889ea4	-0.26683533
16	0xbe916072	-0.28393894
17	0xbe76b28b	-0.24091546
18	0x3e8c0c46	0.27353114
19	0xbe955a36	-0.29170388

encoder.encoder.3.weight f4 [20, 20]
0	0xbdacaecb	-0.084317766
1	0x3d6dcdef	0.05805772
2	0xbdd50d0d	-0.1040288
3	0x3e4e7255	0.20160802
4	0x3dbedf41	0.09319926
5	0x3e05c06c	0.13061684
6	0x3d8eef6c	0.0697926
7	0xbe65a3ba	-0.22425738
8	0xbdf85a84	-0.121266395
9	0xbe2a57a2	-0.16634992
10	0x3bb11f3a	0.005405334
11	0x3e6827e1	0.22671463
12	0x3ddf9292	0.10916628
13	0xbcc9abbc	-0.024618022
14	0x3db0d95a	0.086352065
15	0x3d774406	0.060367607
16	0xbe4623ce	-0.19349596
17	0xbd4f1b9f	-0.05056345
18	0x3c9c02fa	0.019044388
19	0xbc94cc18	-0.018163726
20	0x3e0b8372	0.13624361
21	0xbdf460ff	-0.11932563
22	0x3e2e8bf6	0.17045578
23	0xbdddd61a	-0.10831852
24	0xbe544b92	-0.20731953
25	0xbd84b41a	-0.06479664
26	0x3e30c6c2	0.1726332
27	0xbe01f4c5	-0.12691028
28	0xbe4fd98b	-0.2029783
29	0xbe1fd6cb	-0.15609281
30	0x3e1d7977	0.15378366
31	0xbe1c0368	-0.15235674
32	0xbe467790	-0.19381547
33	0x3dd3c9d1	0.10341228
34	0x3bbdcd3f	0.0057922895
35	0xbe1c12a1	-0.15241481
36	0xbd9a062b	-0.07520708
37	0xbdd295ce	-0.10282479
38	0x3d8787f0	0.06617725
39	0x3e413a08	0.18869793
40	0xbccaf55a	-0.024775196
41	0xbe445c2c	-0.19175786
42	0x3deee39f	0.11664509
43	0xbdb35646	-0.0875669
44	0x3d8cd0ef	0.068757884
45	0x3e81c8a0	0.25348377
46	0x3e4b46fe	0.198513
47	0x3e6be339	0.23035897
48	0xbd2f74db	-0.04283605
49	0xbd7bd985	-0.06148674
50	0x3c7f8841	0.01559645
51	0xbdbede1c	-0.09319708
52	0x39578174	0.00020552223
53	0x3dbea11d	0.09308074
54	0xbe64d67d	-0.22347446
55	0xbe14dea4	-0.14538056
56	0xbe585138	-0.21124732
57	0x3d008353	0.03137524
58	0x3e0ffe16	0.1406177
59	0xbe11f865	-0.14254911
60	0xbe36e700	-0.17861557
61	0x3dfa5d08	0.122247756
62	0x3dc08652	0.094006196
63	0xbdb90d3e	-0.09035729
64	0x3d1cf570	0.038320005
65	0xbe845bd4	-0.2585131
66	0x3dfc0316	0.12305276
67	0xbe104945	-0.1409045
68	0xbe3fd06e	-0.18731853
69	0xbdfa1b2e	-0.12212215
70	0x3d878b3e	0.06618355
71	0x3e603d72	0.2189844
72	0xbdf23a40	-0.118275166
73	0x3e0d191f	0.13779114
74	0xbb24065b	-0.0025028202
75	0xbe862d30	-0.2620635
76	0x3e65111f	0.22369812
77	0xbdf92c3b	-0.121666394
78	0x3e3f58fc	0.18686289
79	0x3cdbfaf9	0.026853072
80	0x3e4808b1	0.19534566
81	0xbe46ccb6	-0.19414029
82	0x3e21c85c	0.15799087
83	0x3d28dcc9	0.041226182
84	0x3dd13688	0.10215479
85	0x3e21c9d5	0.15799649
86	0x3e26090b	0.16214387
87	0xbe5fdde7	-0.21861993
88	0xbdc2d45a	-0.09513159
89	0xbde8fd76	-0.11376469
90	0xbdf11922	-0.11772372
91	0xbdad0268	-0.084477246
92	0xbe0c09db	-0.13675635
93	0xbe34405a	-0.17602673
94	0xbe0f8cad	-0.14018507
95	0xbd91602b	-0.07098421
96	0xbaccac75	-0.0015615361
97	0x3b3e8000	0.0029067993
98	0x3d9b540f	0.07584392
99	0xbe23f8f9	-0.16012944
100	0x3e234aad	0.15946455
101	0xbd5f01d9	-0.05444512
102	0x3e0bf6bd	0.13668342
103	0x3e4d8788	0.20071232
104	0x3d8cfa9c	0.068837374
105	0xbe7660ef	-0.24060415
106	0x3cc9475b	0.024570158
107	0x3e2e9125	0.17047556
108	0x3e64a00e	0.22326681
109	0xbde0a025	-0.10968045
110	0xbc9a9d51	-0.018873842
111	0x3e21595f	0.15756749
112	0xbe552ca8	-0.20817816
113	0x3e55d57a	0.20882216
114	0x3d6af78b	0.05736498
115	0xbd57f1b6	-0.052720748
116	0x3e398f0d	0.18120976
117	0x3d9a2e40	0.07528353
118	0xbdd18cb5	-0.10231916
119	0xbe034eb7	-0.12822996
120	0x3cd5103b	0.026008716
121	0x3e0e0462	0.1386886
122	0x3e0722f6	0.1319693
123	0x3e8816c9	0.26579884
124	0xbd8fdc25	-0.07024411
125	0x388f04ce	6.819666e-05
126	0xbc1e7fef	-0.009674056
127	0xbd8e225c	-0.06940147
128	0x3cd3a7b4	0.025836803
129	0xbbc62bc0	-0.006047696
130	0x3de26fa0	0.11056447
131	0xbddb415b	-0.10705825
132	0x3cfbc008	0.030731216
133	0xbdca555c	-0.09879562
134	0xbd122a15	-0.035684664
135	0xbe22dd07	-0.15904628
136	0x3dffb57f	0.124857895
137	0x3c99fcdc	0.01879733
138	0x3d3f7568	0.046742827
139	0xbe3ca1a6	-0.18421039
140	0x3de79bbb	0.11309
141	0xbdf92986	-0.12166123
142	0x3df968cb	0.12178191
143	0xbdf0a086	-0.117493674
144	0x3dbd558b	0.09244832
145	0x3cba03a1	0.022706809
146	0x3c5784d2	0.013154225
147	0x3d96073f	0.07325601
148	0xbbbc4549	-0.005745564
149	0xbd4b83d2	-0.04968626
150	0xbdbc3c1e	-0.09191154
151	0x3e59e01f	0.21276902
152	0x3de36975	0.11104099
153	0x3e4f5ffb	0.20251457
154	0x3d0f204f	0.03494292
155	0x3e377836	0.1791695
156	0x3c9ab71b	0.01888614
157	0x3e340bfa	0.17582694
158	0x3c151cb7	0.009101084
159	0x3d0cf8a2	0.034416802
160	0x3d295356	0.04133924
161	0xbe321eec	-0.17394608
162	0x3e3a9593	0.1822112
163	0x3dcbd5a9	0.09952862
164	0xbe560e36	-0.20903859
165	0xbe533667	-0.20626222
166	0xbd9cbf4a	-0.07653673
167	0x3da8fdac	0.08251509
168	0x3d3bf0f6	0.045884095
169	0xbd998aa9	-0.074971505
170	0x3df0fc47	0.11766868
171	0xbc6d6f01	-0.014491797
172	0xbcbb8ab3	-0.022893285
173	0x3bc45b09	0.0059922975
174	0xbd9680ef	-0.07348811
175	0x3e0c5970	0.13705993
176	0xbe7771f2	-0.2416456
177	0x3e3ac502	0.18239215
178	0x3de33d30	0.11095655
179	0x3d34666f	0.044043
180	0xbd6245ab	-0.05524222
181	0x3d2a5f74	0.041594937
182	0xbe4a8a51	-0.19779326
183	0x3e1c00b7	0.15234648
184	0xbcc5449d	-0.024080569
185	0x3e04ee07	0.12981425
186	0x3e130f13	0.14361219
187	0x3e3af90b	0.18259065
188	0x3dbd67f1	0.09248341
189	0x3e20ab91	0.15690447
190	0xbd098c33	-0.03358097
191	0x3d5d6e08	0.054060012
192	0x3e5bdf76	0.21471962
193	0xbe1b9ca4	-0.15196472
194	0x3dbd2165	0.09234885
195	0x3d922505	0.07135967
196	0xbe069780	-0.1314373
197	0xbe18b333	-0.14912109
198	0x3e07b29e	0.13251731
199	0xbd7dab92	-0.0619312
200	0x3e1983c7	0.14991675
201	0x3da2ebbe	0.079551205
202	0xbd405115	-0.046952326
203	0xbdd1c7eb	-0.102432095
204	0xbcfe50a6	-0.031044316
205	0x3e134458	0.1438154
206	0x3dbd77e3	0.09251382
207	0xbe585ad1	-0.21128394
208	0x3e52eebf	0.20598887
209	0xbe507c5e	-0.20359942
210	0x3e511d38	0.20421302
211	0xbe0aa04c	-0.13537711
212	0xbe2f714d	-0.17133065
213	0xbd364a83	-0.044504654
214	0x3c363326	0.011120593
215	0xbe08a0d5	-0.13342603
216	0x3d6682a9	0.05627695
217	0xbe37c2e8	-0.17945445
218	0x3d8c7255	0.068577446
219	0xbe4fe217	-0.2030109
220	0x3e5e9656	0.21737036
221	0x3e1ed6f6	0.15511689
222	0xbb9a1afe	-0.0047029248
223	0xbdbfca3a	-0.093647435
224	0x3e2160b4	0.15759546
225	0xbcbcafff	-0.02303314
226	0xbdf018e0	-0.117234945
227	0x3c8dad56	0.017294567
228	0xbe10c873	-0.14138965
229	0x3cc2beac	0.02377256
230	0xbd6e4828	-0.058174282
231	0x3e59bd6a	0.21263662
232	0x3c34dc39	0.011038833
233	0x3e45a424	0.19300896
234	0x3e3c7770	0.18404937
235	0xbd3d07f0	-0.046150148
236	0xbc979c58	-0.018507168
237	0xbdb150b3	-0.0865797
238	0xbe17a004	-0.14807135
239	0xbcc99260	-0.02460593
240	0xbda2729b	-0.079320155
241	0xbe0b5e8e	-0.13610289
242	0x3dda8efd	0.10671804
243	0x3d827f51	0.0637194
244	0x3e3e0b09	0.18558897
245	0xbd582e29	-0.052778397
246	0x3cd8bf82	0.026458506
247	0x3e819d4c	0.2531532
248	0x3e0901a8	0.13379538
249	0xbdaf5189	-0.085604735
250	0x3e4d0ba8	0.20023978
251	0xbe38d6c1	-0.18050672
252	0x3e1297d7	0.14315735
253	0x3dd8acd4	0.10579839
254	0xbad430b7	-0.0016188835
255	0xbc02b733	-0.007978248

encoder.encoder.3.bias f4 [20]
0	0x3d8ff441	0.070290096
1	0x3e306d6f	0.17229246
2	0xbe3fe403	-0.18739323
3	0x3dd9acd8	0.106286705
4	0xbe23240d	-0.15931721
5	0x3da59db4	0.0808672
6	0xbdf53db4	-0.119746596
7	0x3e43f778	0.1913737
8	0x3d723e78	0.059141606
9	0x3d1dfb0e	0.038569503
10	0xbd483ef4	-0.04888816
11	0x3cebe58c	0.02879598
12	0xbd41455f	-0.047185298
13	0x3e50dd49	0.20396914
14	0x3e197c14	0.14988738
15	0xbc0be84d	-0.008539272
16	0xbe4c7c62	-0.19969323
17	0xbb209f33	-0.0024508953
18	0xbdff6f95	-0.124724545
19	0xbd5373a3	-0.05162395

model.0.weight f4 [10, 20]
0	0x3e7ce646	0.24697217
1	0xbd96dc2d	-0.07366214
2	0x3e179b68	0.14805377
3	0xbd5743a5	-0.052554745
4	0x3d56e70c	0.052466437
5	0xbe29ed35	-0.16594394
6	0x3e7c0243	0.24610238
7	0xbe229de3	-0.15880542
8	0xbe66bada	-0.22532216
9	0x3e4bbcfd	0.19896312
10	0xbe6b4a17	-0.22977482
11	0x3e243e52	0.16039398
12	0xbd983fb2	-0.07434024
13	0x3e36f4aa	0.1786677
14	0x3e49151e	0.19636962
15	0xbe42972b	-0.19002979
16	0x3d8cfd32	0.06884231
17	0x3e2a023b	0.16602413
18	0xbc80daaa	-0.015729267
19	0xbe3b9c29	-0.18321289
20	0xbe64b1a0	-0.22333384
21	0xbdb33878	-0.08751005
22	0x3dbc4ed3	0.09194722
23	0xbe82a102	-0.25513464
24	0xbd2876bf	-0.04112887
25	0xbe664e67	-0.22490846
26	0xbe22f106	-0.15912256
27	0x3dea5b76	0.11443226
28	0xbd56939d	-0.05238687
29	0x3e57e8e9	0.21084942
30	0xbe62d696	-0.2215217
31	0x3db882e9	0.09009344
32	0x3d437857	0.047722187
33	0x3e6709dd	0.22562356
34	0x3e3b9d59	0.18321742
35	0x3e11caec	0.14237565
36	0xbe5dc2a0	-0.21656275
37	0x3e073de8	0.13207209
38	0x3e323fa8	0.17407095
39	0x3cfa85d1	0.030581387
40	0xbdc545b6	-0.09632437
41	0xbe2b1de5	-0.16710623
42	0x3d37cc12	0.04487235
43	0xbdf191d6	-0.11795394
44	0xbe071864	-0.13192898
45	0xbe701e73	-0.23449115
46	0xbb106e4e	-0.0022038403
47	0xbd99e23b	-0.07513853
48	0xbd4b2177	-0.04959246
49	0xbe2d2139	-0.16907205
50	0xbe37a5b3	-0.17934303
51	0x3e34dd01	0.17662431
52	0xbb795931	-0.0038047547
53	0x3e7bd739	0.2459382
54	0xbe681c93	-0.2266715
55	0xbc05baff	-0.008162259
56	0xbdea311c	-0.11435148
57	0xbe1986cb	-0.14992826
58	0x3dfc2da6	0.12313394
59	0x3defbe78	0.11706251
60	0x3e1eed22	0.15520146
61	0xbd19eb8e	-0.037578158
62	0x3e0c56c8	0.1370498
63	0x3e3d0832	0.18460158
64	0x3e21264e	0.15737268
65	0x3ca0f672	0.019648764
66	0x3e0d7df1	0.13817574
67	0xbdb7ca5a	-0.089741424
68	0xbe0f650b	-0.14003389
69	0x3c4649b7	0.012102536
70	0x3e65f3d0	0.22456288
71	0xbdecc823	-0.115616105
72	0xbe3dd168	-0.18536913
73	0xbe0a3dd2	-0.13500145
74	0xbcd85a4d	-0.026410246
75	0xbdbe5a51	-0.0929457
76	0x3da7f5a4	0.08201149
77	0xbe74acbb	-0.23894016
78	0xbe34e1d7	-0.17664276
79	0x3df42f9f	0.119231455
80	0x3c5ba174	0.013405193
81	0x3deaafa2	0.114592806
82	0xbd4c3af4	-0.04986091
83	0xbd64fd52	-0.055905648
84	0xbe150880	-0.14554024
85	0xbcb84be8	-0.022497132
86	0xbd4f819d	-0.05066072
87	0x3dc91736	0.0981888
88	0x3dab21e2	0.08356072
89	0xbd5032a3	-0.05082954
90	0xbdb7ed32	-0.08980788
91	0x3e48737e	0.19575307
92	0x3c5c78e6	0.013456559
93	0x3d86f5fe	0.06589888
94	0xbd4d0747	-0.05005577
95	0xbd368a00	-0.0445652
96	0x3d23ec9d	0.040020574
97	0x3e82eabe	0.2556972
98	0xbdcf13de	-0.10111211
99	0xbd9a2c30	-0.07527959
100	0xbe1b292e	-0.15152428
101	0xbe13fb71	-0.14451386
102	0x3d908fde	0.070586905
103	0xbe196fe7	-0.14984094
104	0x3d07d743	0.033164274
105	0xbdee63eb	-0.116401516
106	0x3e1b7f4b	0.15185277
107	0xbd8c51b0	-0.06851518
108	0x3e601c54	0.21885806
109	0xbda27a30	-0.07933462
110	0xbdfb862e	-0.12281452
111	0x3da0200a	0.07818611
112	0x39c06256	0.0003669436
113	0xbdf5f0d6	-0.120088264
114	0xbda71642	-0.08158542
115	0x3e5f006f	0.21777509
116	0xbe21aead	-0.1578929
117	0x3d401f22	0.04690469
118	0x3de0ab43	0.109701656
119	0x3e593f8d	0.21215649
120	0xbd8c291e	-0.0684378
121	0xbd97ed21	-0.074182756
122	0x3db6c7c7	0.08924823
123	0xbd97562e	-0.07389484
124	0x3dda506b	0.1065987
125	0x3d516157	0.05111822
126	0x3e08d89b	0.13363878
127	0x3e48ea9a	0.19620743
128	0x3e48220e	0.19544241
129	0x3cc4f7e8	0.024043992
130	0x3e07f905	0.13278587
131	0xbcb7f892	-0.022457395
132	0xbdf5c444	-0.12000325
133	0x3da6cbf4	0.0814437
134	0xbc881ede	-0.016616281
135	0x3e67efc3	0.22650056
136	0x3b5df911	0.003387038
137	0x3e259f42	0.16174033
138	0xbd533a44	-0.05156924
139	0xbd8a4aa0	-0.06752515
140	0x3c9bd248	0.019021168
141	0x3e1a4862	0.15066674
142	0x3e5ec5f8	0.21755207
143	0x3e433e68	0.19066775
144	0x3e0dc123	0.13843207
145	0x3e1461bf	0.14490412
146	0x3e0c74ad	0.13716383
147	0xbd1b419f	-0.037904378
148	0x3ce8d83a	0.028423417
149	0x3d109a68	0.035303503
150	0xbc2ca0b1	-0.010536359
151	0xbe59c3fa	-0.21266165
152	0xbe13ff2a	-0.14452806
153	0xbe181502	-0.14851764
154	0xbe691b8b	-0.22764413
155	0x3dc8daf9	0.09807391
156	0xbe4bdacc	-0.19907683
157	0xbe323169	-0.17401661
158	0x3df299d7	0.11845749
159	0x3c293dba	0.010329658
160	0xbbfb7e59	-0.007674974
161	0x3de3b8d7	0.1111924
162	0xbdd1bc3c	-0.10240981
163	0xbe32adef	-0.17449163
164	0xbe3604ba	-0.1777524
165	0xbe49061b	-0.19631235
166	0x3d34e614	0.044164732
167	0xbd318d88	-0.043347865
168	0xbe259547	-0.16170226
169	0x3e253d3d	0.16136642
170	0x3e1a4b33	0.15067749
171	0x3e31671a	0.17324486
172	0xbda72b00	-0.081624985
173	0x3c8141eb	0.015778502
174	0xbbd535db	-0.006506664
175	0xbd5cdb5c	-0.053920135
176	0xbcd48fce	-0.025947478
177	0xbe694a74	-0.22782308
178	0xbce5a896	-0.02803449
179	0x3d8e4aff	0.06947898
180	0xbd8ed224	-0.06973675
181	0xbe69b1dc	-0.22821754
182	0x3e2f9669	0.1714722
183	0x3cbf4893	0.023350036
184	0xbe626e26	-0.22112331
185	0x3e8060c8	0.25073838
186	0x3e4e03fc	0.20118707
187	0x3d23e807	0.0400162
188	0xbd0b4f39	-0.0340111
189	0x3dce9a1d	0.100879885
190	0xbd622815	-0.055214006
191	0x3e367f80	0.17822075
192	0x3e845bda	0.25851327
193	0x3c171811	0.0092220465
194	0x3d2b6f34	0.0418541
195	0x3d999939	0.07499928
196	0x3dabf966	0.08397178
197	0xbe2dd1fe	-0.16974637
198	0xbd47bf73	-0.048766565
199	0x3c720ad8	0.014773093

model.0.bias f4 [10]
0	0xbdf15e13	-0.11785521
1	0xbdd1781a	-0.10227986
2	0xbe05c80b	-0.13064592
3	0x3e3ccc4a	0.18437305
4	0x3e7b561b	0.24544565
5	0x3e3d5b01	0.18491746
6	0x3e41c019	0.18920936
7	0xbe117244	-0.14203745
8	0xbe60029c	-0.21875995
9	0x3d98351d	0.074320056

model.2.weight f4 [20, 10]
0	0x3e90e52e	0.2829985
1	0xbc28546d	-0.010274035
2	0x3e4ee125	0.20203073
3	0xbeb2153d	-0.3478183
4	0xbcb0b9fa	-0.021573056
5	0xbd203cfa	-0.03912065
6	0x3e963555	0.29337564
7	0x3d9de11a	0.0770895
8	0xbd216c67	-0.03941002
9	0xbdbc4af0	-0.09193981
10	0x3c0a39d5	0.00843664
11	0x3e200f7e	0.1563091
12	0xbe00ad01	-0.12565996
13	0x3de4f034	0.111786276
14	0xbdec2794	-0.115309864
15	0x3eb8a9bd	0.36067
16	0x3da205ac	0.07911238
17	0x3d95db21	0.07317186
18	0x3e186bd9	0.1488489
19	0xbe82e745	-0.2556707
20	0xbe7523b5	-0.23939402
21	0x3dfeb781	0.12437344
22	0xbe937e90	-0.28807497
23	0xbe1b94ed	-0.1519353
24	0xbea7a168	-0.3274033
25	0xbd8bfe85	-0.06835655
26	0x3df9ae88	0.12191492
27	0xbe6beb5c	-0.23039001
28	0x3e2907a7	0.16506825
29	0x3ea80b77	0.32821247
30	0xbdfdd5dc	-0.12394306
31	0xbe97afe2	-0.29626375
32	0xbce143d3	-0.027498161
33	0x3e677c35	0.22605975
34	0x3e9524aa	0.29129535
35	0x3e73a1ac	0.23792142
36	0x3d47bcf5	0.048764188
37	0xbe0c92bc	-0.1372785
38	0xbea638e2	-0.32465273
39	0xbde5759b	-0.11204072
40	0x3e3efa41	0.18650152
41	0x3e83cd1a	0.25742418
42	0xbea7d777	-0.32781574
43	0x3e84ce99	0.25938872
44	0xbda9b661	-0.08286739
45	0xbe9c89ea	-0.3057397
46	0x3eadb5fd	0.3392791
47	0x3ea69d5d	0.32541934
48	0x3ca67ded	0.020323718
49	0x3e504ee9	0.20342602
50	0x3d714785	0.058906097
51	0x3e892b60	0.26790905
52	0x3e26609d	0.16247793
53	0xbe6e63af	-0.23280214
54	0xbe5b796c	-0.21433038
55	0x3e916ece	0.2840485
56	0x3e8974aa	0.2684682
57	0x3c2eaf7d	0.010661957
58	0xbde17551	-0.110087045
59	0x3c465d8d	0.012107265
60	0xbe261d38	-0.16222084
61	0x3e0e0d03	0.13872151
62	0xbd1c9cdc	-0.03823553
63	0x3df9c363	0.1219547
64	0x3e5aa8bf	0.21353434
65	0xbea19cd1	-0.31564954
66	0xbe13ab4e	-0.14420816
67	0xbe62cb5c	-0.22147888
68	0xbd66c2e8	-0.05633822
69	0x3e637fd2	0.22216728
70	0x3da4769a	0.08030434
71	0x3dabe40b	0.08393105
72	0x3e0c0283	0.13672833
73	0xbe345d1a	-0.1761364
74	0x3e9ddf8c	0.30834615
75	0x3e4c2199	0.19934691
76	0xbe1e99cc	-0.15488356
77	0x3e872460	0.2639494
78	0xbe50ed76	-0.20403084
79	0xbe94e5ae	-0.29081482
80	0x3d1a21ac	0.03762977
81	0xbd6e920a	-0.058244742
82	0x3e13b33d	0.14423843
83	0x3ea0600c	0.31323278
84	0x3e6f38ec	0.23361558
85	0x3e826d6b	0.25474104
86	0x3c65f5fd	0.014035699
87	0xbe9b36e4	-0.30315316
88	0xbe8e53d9	-0.27798346
89	0xbe16e708	-0.14736569
90	0x3d828485	0.06372932
91	0x3caba0e1	0.020950736
92	0xbe8e20ce	-0.27759403
93	0x3d5fd167	0.05464306
94	0x3d780e46	0.060560487
95	0x3eb041d7	0.34425232
96	0x3e9e47c1	0.3091412
97	0x3e88e0f3	0.26734123
98	0x3cec0b5d	0.028814012
99	0x3e50598e	0.20346662
100	0x3e266c77	0.16252314
101	0x3e0521f7	0.13001238
102	0xbce1b39a	-0.027551461
103	0x3e5585b7	0.2085179
104	0xbdc16d53	-0.0944468
105	0x3e413786	0.18868837
106	0x3e221a6d	0.15830393
107	0xbb4b1217	-0.0030986124
108	0xbe728465	-0.23683317
109	0x3d90aa30	0.07063711
110	0xbd7aed53	-0.061261486
111	0x3e92ddd8	0.28684878
112	0x3e878ffe	0.26477045
113	0xbd6fee7f	-0.058577057
114	0xbe0ba9c5	-0.1363898
115	0x3ced347c	0.02895569
116	0x3cab3956	0.020901363
117	0x3e5c2fea	0.21502653
118	0x3de056fd	0.10954092
119	0x3eac18ca	0.33612663
120	0xbd494d8d	-0.049146224
121	0xbe269fea	-0.1627194
122	0x3c9e353b	0.019312492
123	0x3e7a2ad9	0.24430408
124	0x3e1a2e43	0.1505671
125	0x3e6325da	0.22182408
126	0xbe81b841	-0.25335887
127	0xbe92cb0c	-0.28670537
128	0xbe280832	-0.16409376
129	0xbd9071d1	-0.07052959
130	0x3e80ae8d	0.25133172
131	0xbe427c22	-0.18992665
132	0xbe138c82	-0.14409068
133	0xbde29f5f	-0.11065554
134	0x3e3ed884	0.18637282
135	0x3dacce5c	0.084377974
136	0xbe954395	-0.29153123
137	0xbe7bb447	-0.24580489
138	0x3de27239	0.110569425
139	0x3e867bdf	0.2626638
140	0x3d1acd70	0.037793577
141	0x3c78435d	0.015152779
142	0x3cd07206	0.025444996
143	0xbe117246	-0.14203748
144	0xbe5aa7ef	-0.21353124
145	0xbe435466	-0.19075164
146	0xbdedd85e	-0.116135344
147	0x3e228aec	0.15873307
148	0x3eb265e9	0.34843376
149	0xbc8ae03f	-0.016952632
150	0xbe890e90	-0.26768923
151	0xbe405eb7	-0.18786131
152	0xbc4b6053	-0.012413102
153	0x3d72eeef	0.059309896
154	0xbe850494	-0.25980055
155	0xbe3fa84d	-0.18716545
156	0x3dd933a0	0.1060555
157	0x3ea03ba3	0.312955
158	0x3e5e02dc	0.21680778
159	0x3e74ed12	0.2391856
160	0x3d4d87d2	0.050178356
161	0xbd382903	-0.044960987
162	0xbe876a24	-0.26448166
163	0x3d12dc28	0.03585449
164	0xbe88fe63	-0.26756582
165	0xbe8d90fe	-0.27649683
166	0xbd35f542	-0.04442335
167	0x3e902c38	0.28158736
168	0x3cba2449	0.02272238
169	0xbe010e4a	-0.12603107
170	0x3e8d0517	0.27542946
171	0x3d60028e	0.054689936
172	0x3e1a4523	0.15065436
173	0x3d3cf545	0.046132345
174	0x3e81452f	0.25248095
175	0xbe200447	-0.15626632
176	0x3cefc0cb	0.029266736
177	0xbdb53070	-0.08847129
178	0x3df84a16	0.12123506
179	0xbe7a2d34	-0.24431306
180	0xbd5ce979	-0.053933594
181	0xbe516aa7	-0.20450841
182	0x3cf03667	0.029322816
183	0xbe57a1f4	-0.21057874
184	0x3cc521c3	0.02406395
185	0xbd6935a6	-0.05693593
186	0xbe8ce638	-0.27519393
187	0xbe072e0f	-0.13201164
188	0xbe787575	-0.24263556
189	0x3e8da7bd	0.27667037
190	0xbdbf8408	-0.09351355
191	0xbdeedebc	-0.11663577
192	0xbe35a391	-0.17738177
193	0xbe42fb47	-0.19041167
194	0xbe411a00	-0.18857574
195	0xbe59725a	-0.21235028
196	0xbe0c4b81	-0.13700677
197	0x3df2a2f9	0.11847491
198	0xbe74fd3b	-0.23924725
199	0xbe91c2a6	-0.28468817

model.2.bias f4 [20]
0	0x3decd3a4	0.11563805
1	0xbd4370b3	-0.0477149
2	0xbd817d43	-0.0632272
3	0x3e808b1e	0.25106138
4	0x3e75f035	0.24017413
5	0x3e8e5022	0.2779551
6	0x3e943b61	0.28951553
7	0xbd91d59a	-0.071208194
8	0x3e964c05	0.29354873
9	0x3e6598d6	0.22421584
10	0x3e116425	0.14198358
11	0x3d8ab8c1	0.0677352
12	0x3d5afffe	0.05346679
13	0xbe249c4b	-0.16075246
14	0xbde81812	-0.11332716
15	0xbe1e284a	-0.15445057
16	0xbce8a8d1	-0.02840081
17	0x3d54ec68	0.051983267
18	0x3d237c02	0.039913185
19	0x3ea0b411	0.3138738

model.4.weight f4 [10, 20]
0	0x3d54f59b	0.05199204
1	0xbd453379	-0.04814479
2	0x3cf704ea	0.03015371
3	0xbd6a4f09	-0.05720428
4	0x3dd7355c	0.10508224
5	0xbd974768	-0.073866665
6	0x3d2ff412	0.042957373
7	0x3e65fff7	0.22460924
8	0x3e370346	0.17872342
9	0xba67a860	-0.00088370405
10	0xbc970d62	-0.018438999
11	0xbe899e69	-0.2687867
12	0xbe1b82aa	-0.15186563
13	0x3d6f1d26	0.058377407
14	0xbe32e21d	-0.17469068
15	0xbd1bf57d	-0.038075913
16	0x3d1a364d	0.03764944
17	0x3dacf78d	0.08445654
18	0xbe6f5c6a	-0.23375097
19	0x3dee9332	0.11649169
20	0x3e5a32ec	0.21308488
21	0xbe1b6233	-0.15174179
22	0xbe12a174	-0.14319402
23	0xbe408389	-0.18800177
24	0x3d985c65	0.07439498
25	0x3e324257	0.17408119
26	0xbe423f5d	-0.18969484
27	0xbe606a8f	-0.21915649
28	0x3d285ec7	0.04110601
29	0xbd9344d4	-0.07190862
30	0x3df0ddfb	0.117610894
31	0x3de0e949	0.109819956
32	0x3e042874	0.12906057
33	0xbe02f59a	-0.12789002
34	0x3d37a33a	0.0448334
35	0x3e18438d	0.14869519
36	0xbe022860	-0.12710714
37	0xbd2ad55e	-0.04170739
38	0x3d87a18f	0.06622612
39	0xbe376440	-0.17909336
40	0xbe70eff2	-0.23529032
41	0xbd8ffd20	-0.07030702
42	0x3e4f7d19	0.20262565
43	0xbdd62194	-0.10455623
44	0x3e178edf	0.14800595
45	0x3dff2bb7	0.1245951
46	0x3b0ff00f	0.0021963154
47	0xbd86de7e	-0.06585406
48	0x3e42c248	0.19019425
49	0x3e7ae8ca	0.24502864
50	0x3dbcea6a	0.092243984
51	0xbd9db4bf	-0.0770049
52	0x3e0a488f	0.13504241
53	0x3dc6c0b7	0.09704726
54	0xbe65e275	-0.22449668
55	0xbe584f7f	-0.21124075
56	0x3d8aa3ef	0.06769549
57	0xbd90960c	-0.07059869
58	0x3db5d097	0.08877676
59	0x3c640dea	0.013919333
60	0xbdbce575	-0.09223453
61	0xbdbe1e9a	-0.092831805
62	0xbd4981ae	-0.049195938
63	0x3de119a9	0.109912224
64	0x3b3ecb98	0.002911305
65	0xbcf7093f	-0.030155776
66	0x3dfc51b4	0.12320271
67	0xbe6a32ba	-0.22870913
68	0xbdb8986c	-0.09013447
69	0x3d69debd	0.057097185
70	0x3e18f636	0.14937672
71	0xbbb3b802	-0.005484582
72	0x3cff51be	0.031166907
73	0x3e4c826a	0.19971624
74	0x3e14ab08	0.14518368
75	0x3e0a02e1	0.1347766
76	0x3e031730	0.12801814
77	0x3e226559	0.15858974
78	0xbdff944d	-0.12479458
79	0xbe4dcbb9	-0.20097245
80	0xbd9ba2bc	-0.075993985
81	0x3e32ba41	0.17453863
82	0xbd92fd39	-0.07177205
83	0x3e39868d	0.18117733
84	0x3d5ae339	0.053439353
85	0x3e55da30	0.20884013
86	0xbe5fd5a7	-0.21858846
87	0x3e44267a	0.19155303
88	0x3daeb1c3	0.08529999
89	0x3e00b91f	0.12570618
90	0x3d4f0d39	0.05054972
91	0xbd38a939	-0.04508326
92	0xbda39aec	-0.079885334
93	0xbe3520ed	-0.17688341
94	0xbe1b14f7	-0.15144716
95	0x3e3dda76	0.18540367
96	0x3d8dc30d	0.069219686
97	0x3dd97af8	0.106191576
98	0x3e224100	0.15845108
99	0xbd9f0dcf	-0.07766306
100	0x3e3646a7	0.17800389
101	0x3dd81b53	0.10552087
102	0xbd44580f	-0.04793554
103	0xbe1859e1	-0.14878036
104	0x3d59730b	0.05308823
105	0xbc11d3f6	-0.008900633
106	0xbe7b7ed0	-0.24560094
107	0xbe29fb3f	-0.16599749
108	0xbde58e25	-0.112087525
109	0x3de26dac	0.110560745
110	0x3e444e21	0.19170429
111	0xbe4348a5	-0.1907068
112	0xbe303cb3	-0.17210655
113	0x3e85dcfd	0.26145163
114	0xbe5d9d99	-0.2164215
115	0xbda6d23d	-0.081455685
116	0x3de5adf4	0.112148196
117	0xbe05584d	-0.13021965
118	0x3dfc37a7	0.12315302
119	0x3e81226a	0.25221568
120	0xbda975fe	-0.08274458
121	0x3dbfc115	0.09362999
122	0x3c6a7d7e	0.014312146
123	0x3e4b77b1	0.19869877
124	0xbe2e218e	-0.17004988
125	0xbe16278a	-0.1466352
126	0x3e55576d	0.20834132
127	0x3d47718c	0.04869227
128	0x3e3fcdc8	0.18730843
129	0xbe229e40	-0.1588068
130	0xbe14d0b8	-0.14532745
131	0x3e09ed09	0.13469328
132	0x3dc3d48f	0.09562027
133	0x3e665f6a	0.22497335
134	0xbe81b674	-0.25334513
135	0x3e3e0a0d	0.18558522
136	0xbe2582cb	-0.16163175
137	0xbe3bfff1	-0.18359353
138	0x3dd044b0	0.10169351
139	0xbe1f02c1	-0.15528394
140	0xbd178c3f	-0.036998983
141	0xbe5f6f48	-0.21819794
142	0xbd39d71a	-0.045371152
143	0xbd2182d1	-0.039431397
144	0xbc940de5	-0.018073032
145	0x3cf9f3f5	0.030511836
146	0x3e2fc5b2	0.17165259
147	0x3db63a0d	0.08897791
148	0xbe671cf0	-0.22569633
149	0xbe24a421	-0.16078235
150	0x3e0fd0d4	0.14044505
151	0x3e4bcf66	0.19903335
152	0xbe622a77	-0.22086512
153	0xbe5e8816	-0.217316
154	0x3b1daf56	0.0024060807
155	0xbe538f61	-0.20660163
156	0x3e1eab32	0.15494993
157	0xbe0930ff	-0.13397597
158	0x3dc919d2	0.09819378
159	0x3e1768ba	0.14786044
160	0xbc1eaf2a	-0.009685317
161	0x3d883b30	0.06651914
162	0x3dbcf82a	0.09227021
163	0xbd9bbab6	-0.07603972
164	0x3e5ecd08	0.217579
165	0xbd9c8ade	-0.07643674
166	0x3e5f2a11	0.21793391
167	0x3d506417	0.050876703
168	0xbda9482e	-0.0826572
169	0x3e4818f0	0.19540763
170	0xbd0a15c3	-0.03371216
171	0xbd965d95	-0.07342068
172	0x3d9cdd02	0.076593414
173	0xbcf357de	-0.029704984
174	0xbe40f3b5	-0.18842967
175	0x3e88e819	0.26739576
176	0x3e25102f	0.16119455
177	0xbe0f114c	-0.13971442
178	0x3e0d6e8d	0.13811703
179	0x3e117132	0.14203337
180	0xbd3adf52	-0.04562313
181	0x3e50d50f	0.20393775
182	0xbde2809f	-0.11059689
183	0xbe192910	-0.1495707
184	0x3b78606d	0.003789927
185	0x3d92a74f	0.07160818
186	0x3e835d72	0.2565723
187	0x3e790f16	0.24322161
188	0x3dd0b3f1	0.10190571
189	0x3dcdcdd6	0.10049026
190	0xbcab5721	-0.02091557
191	0x3c0c4c2c	0.008563083
192	0xbe3fa37e	-0.18714711
193	0xbe0f1783	-0.13973813
194	0xbdd278bf	-0.10276937
195	0x3ddb1c26	0.10698728
196	0xbd5c9a6d	-0.05385821
197	0xbd9bb6a1	-0.07603193
198	0xbe1766fb	-0.14785378
199	0xbe1976f5	-0.14986785

model.4.bias f4 [10]
0	0x3dad5757	0.084639244
1	0x3d18c8d5	0.037300903
2	0x3e2052fd	0.15656658
3	0xbe12400c	-0.14282244
4	0xbdbf0d64	-0.09328726
5	0x3e8098f7	0.25116703
6	0x3df185fc	0.117931336
7	0xbe5ec32f	-0.21754144
8	0x3e28cd4c	0.16484565
9	0xbe331d8d	-0.17491741

exp_avg f4 [10, 784]
0	0x00000000	0.0
1	0x00000000	0.0
2	0x00000000	0.0
3	0x00000000	0.0
4	0x00000000	0.0
5	0x00000000	0.0
6	0x00000000	0.0
7	0x00000000	0.0
8	0x00000000	0.0
9	0x00000000	0.0
10	0x00000000	0.0
11	0x00000000	0.0
12	0x00000000	0.0
13	0x00000000	0.0
14	0x00000000	0.0
15	0x00000000	0.0
16	0x00000000	0.0
17	0x00000000	0.0
18	0x00000000	0.0
19	0x00000000	0.0
20	0x00000000	0.0
21	0x00000000	0.0
22	0x00000000	0.0
23	0x00000000	0.0
24	0x00000000	0.0
25	0x00000000	0.0
26	0x00000000	0.0
27	0x00000000	0.0
28	0x00000000	0.0
29	0x00000000	0.0
30	0x00000000	0.0
31	0x00000000	0.0
32	0x00000000	0.0
33	0x00000000	0.0
34	0x00000000	0.0
35	0x00000000	0.0
36	0x00000000	0.0
37	0x00000000	0.0
38	0x00000000	0.0
39	0x00000000	0.0
40	0x00000000	0.0
41	0x00000000	0.0
42	0x00000000	0.0
43	0x00000000	0.0
44	0x00000000	0.0
45	0x00000000	0.0
46	0x00000000	0.0
47	0x00000000	0.0
48	0x00000000	0.0
49	0x00000000	0.0
50	0x00000000	0.0
51	0x00000000	0.0
52	0x00000000	0.0
53	0x00000000	0.0
54	0x00000000	0.0
55	0x00000000	0.0
56	0x00000000	0.0
57	0x00000000	0.0
58	0x00000000	0.0
59	0x00000000	0.0
60	0x00000000	0.0
61	0x00000000	0.0
62	0x00000000	0.0
63	0x00000000	0.0
64	0x00000000	0.0
65	0x00000000	0.0
66	0x00000000	0.0
67	0x00000000	0.0
68	0x3490a04e	2.6938727e-07
69	0x359f9c5c	1.189193e-06
70	0x357850dd	9.250487e-07
71	0xb8bd62fe	-9.030661e-05
72	0xbad2abcd	-0.0016072929
73	0xbaaa6e38	-0.0013002818
74	0x00000000	0.0
75	0x00000000	0.0
76	0x00000000	0.0
77	0x00000000	0.0
78	0x00000000	0.0
79	0x00000000	0.0
80	0x00000000	0.0
81	0x00000000	0.0
82	0x00000000	0.0
83	0x00000000	0.0
84	0x00000000	0.0
85	0x00000000	0.0
86	0x00000000	0.0
87	0x00000000	0.0
88	0x00000000	0.0
89	0x00000000	0.0
90	0x00000000	0.0
91	0x33f92dcc	1.16032965e-07
92	0x34ba080c	3.4651055e-07
93	0x34f8e6bd	4.6361484e-07
94	0xb61276a8	-2.1824762e-06
95	0x380d7a6e	3.373104e-05
96	0x39ab7f91	0.00032710706
97	0x3a047cc9	0.0005053995
98	0x39dbf280	0.00041951612
99	0xb8938d73	-7.035853e-05
100	0xbb53cceb	-0.0032318186
101	0xbba251ea	-0.0049536126
102	0xbb3e8fa5	-0.0029077318
103	0xba8e955e	-0.0010878255
104	0xb94da689	-0.00019612363
105	0x00000000	0.0
106	0x00000000	0.0
107	0x00000000	0.0
108	0x00000000	0.0
109	0x00000000	0.0
110	0x00000000	0.0
111	0x00000000	0.0
112	0x00000000	0.0
113	0x00000000	0.0
114	0x00000000	0.0
115	0x00000000	0.0
116	0x3a0fbd19	0.0005483195
117	0x00000000	0.0
118	0xb166fb49	-3.3612244e-09
119	0x34742e86	2.2741196e-07
120	0x38f11083	0.00011494851
121	0x3a03657b	0.0005012375
122	0x399a5379	0.0002943536
123	0xb70c56b0	-8.364834e-06
124	0x3ab17239	0.0013538069
125	0x3aedbf1c	0.001813862
126	0x3ab16174	0.0013533072
127	0x3a33a29c	0.0006852539
128	0xbb522d65	-0.0032070514
129	0xbb8edbad	-0.0043596835
130	0xbba2d2c0	-0.004968971
131	0xba85492b	-0.00101689
132	0xb9f80c64	-0.00047311478
133	0xb918b106	-0.00014561796
134	0xb916febc	-0.0001440001
135	0xb93df624	-0.00018116139
136	0xb916febc	-0.0001440001
137	0xb83eef86	-4.5522604e-05
138	0x00000000	0.0
139	0x00000000	0.0
140	0x00000000	0.0
141	0x00000000	0.0
142	0x00000000	0.0
143	0x00000000	0.0
144	0x3a620112	0.00086213753
145	0x3972467f	0.0002310518
146	0xb207cbfc	-7.904415e-09
147	0x37b3d737	2.143868e-05
148	0x3a87295d	0.001031201
149	0x3b30a729	0.0026955104
150	0x3b716641	0.003683463
151	0x3b660624	0.0035098875
152	0x3b7d2882	0.003862888
153	0x3b60c183	0.003429503
154	0x3b2537e4	0.0025210315
155	0xba82ff16	-0.0009994234
156	0xbb6180a6	-0.0034408956
157	0xbb8ceeb4	-0.0043009166
158	0xbb5cc48d	-0.003368649
159	0xbad005da	-0.0015870885
160	0xba97c2d9	-0.0011578455
161	0xba9388b0	-0.0011255946
162	0xba657f3d	-0.0008754617
163	0xb983dbe8	-0.0002515011
164	0xb9841f23	-0.000252002
165	0xb947b403	-0.00019045178
166	0x00000000	0.0
167	0x00000000	0.0
168	0x00000000	0.0
169	0x00000000	0.0
170	0x00000000	0.0
171	0x00000000	0.0
172	0x39b86b5d	0.00035175207
173	0x3a3c5509	0.0007184302
174	0x390b2e0d	0.00013273228
175	0x38b73e22	8.737693e-05
176	0x3abd143c	0.0014425586
177	0x3b4d8be3	0.0031363897
178	0x3b44d465	0.0030033824
179	0x3b253162	0.0025206436
180	0x398a797f	0.00026411933
181	0xba5ff8b1	-0.0008543833
182	0xba526b38	-0.0008026841
183	0xbb9240ca	-0.00446329
184	0xbba70058	-0.0050964765
185	0xbb6bf1cd	-0.0036002279
186	0xbb02a9ba	-0.001993759
187	0xb8c6bb39	-9.476249e-05
188	0xb9e1e217	-0.00043083794
189	0xba3a20c8	-0.00071002217
190	0xba0bb566	-0.00053294597
191	0xb9975c99	-0.00028869955
192	0xb98b6fbc	-0.00026595395
193	0xb8078dae	-3.2318458e-05
194	0x00000000	0.0
195	0x00000000	0.0
196	0x00000000	0.0
197	0x00000000	0.0
198	0x00000000	0.0
199	0x00000000	0.0
200	0x375ad72b	1.304391e-05
201	0x3a130bef	0.0005609383
202	0x3a23b313	0.00062446407
203	0x3a21be7e	0.0006170048
204	0x3af033d4	0.0018325993
205	0x3adbd581	0.0016772003
206	0x3a903272	0.0011001362
207	0xb9e3a3b8	-0.00043418794
208	0xbb700192	-0.003662203
209	0xbb576725	-0.0032867875
210	0xbad2b62d	-0.0016076021
211	0xbb0bdda5	-0.0021341827
212	0xbaebf7f6	-0.0018002975
213	0xbb6fdf9a	-0.0036601783
214	0x3969ae1c	0.00022285472
215	0xba89c325	-0.0010510428
216	0xba07ffb5	-0.00051879446
217	0x3996448c	0.000286613
218	0xb95f6b5a	-0.00021306929
219	0xb9340b54	-0.00017170358
220	0xb77873b7	-1.4808894e-05
221	0x36af4db4	5.2244523e-06
222	0x00000000	0.0
223	0x00000000	0.0
224	0x00000000	0.0
225	0x00000000	0.0
226	0xb4fec6e1	-4.745589e-07
227	0xb54f0195	-7.711581e-07
228	0x38cc1ee3	9.733231e-05
229	0x39874d3b	0.00025806748
230	0x3a2c6c4d	0.00065774174
231	0x39abfb1f	0.0003280276
232	0x3acef25b	0.001578878
233	0x39d57205	0.00040711477
234	0xb91bd1df	-0.00014860135
235	0xbabbea95	-0.0014336879
236	0xbba07c6d	-0.004897645
237	0xbb6d032e	-0.0036165225
238	0xbb12094b	-0.002228337
239	0xbab540c1	-0.0013828502
240	0xba8b6189	-0.0010633926
241	0xb99e3908	-0.000301786
242	0x3a8d6320	0.0010786988
243	0xb9f169be	-0.00046045886
244	0x38e1401b	0.000107407766
245	0x39e59fe6	0.00043797417
246	0xb93dab01	-0.00018088148
247	0xb990f838	-0.00027650758
248	0xb98b9552	-0.00026623398
249	0xb8d56bbb	-0.00010176698
250	0x00000000	0.0
251	0x00000000	0.0
252	0xb5974615	-1.1270773e-06
253	0xb7104ea3	-8.601378e-06
254	0xb752fcb2	-1.2575811e-05
255	0x380089a4	3.0645766e-05

exp_avg_sq f4 [10, 784]
0	0x00000000	0.0
1	0x00000000	0.0
2	0x00000000	0.0
3	0x00000000	0.0
4	0x00000000	0.0
5	0x00000000	0.0
6	0x00000000	0.0
7	0x00000000	0.0
8	0x00000000	0.0
9	0x00000000	0.0
10	0x00000000	0.0
11	0x00000000	0.0
12	0x00000000	0.0
13	0x00000000	0.0
14	0x00000000	0.0
15	0x00000000	0.0
16	0x00000000	0.0
17	0x00000000	0.0
18	0x00000000	0.0
19	0x00000000	0.0
20	0x00000000	0.0
21	0x00000000	0.0
22	0x00000000	0.0
23	0x00000000	0.0
24	0x00000000	0.0
25	0x00000000	0.0
26	0x00000000	0.0
27	0x00000000	0.0
28	0x00000000	0.0
29	0x00000000	0.0
30	0x00000000	0.0
31	0x00000000	0.0
32	0x00000000	0.0
33	0x00000000	0.0
34	0x00000000	0.0
35	0x00000000	0.0
36	0x00000000	0.0
37	0x00000000	0.0
38	0x00000000	0.0
39	0x00000000	0.0
40	0x00000000	0.0
41	0x00000000	0.0
42	0x00000000	0.0
43	0x00000000	0.0
44	0x00000000	0.0
45	0x00000000	0.0
46	0x00000000	0.0
47	0x00000000	0.0
48	0x00000000	0.0
49	0x00000000	0.0
50	0x00000000	0.0
51	0x00000000	0.0
52	0x00000000	0.0
53	0x00000000	0.0
54	0x00000000	0.0
55	0x00000000	0.0
56	0x00000000	0.0
57	0x00000000	0.0
58	0x00000000	0.0
59	0x00000000	0.0
60	0x00000000	0.0
61	0x00000000	0.0
62	0x00000000	0.0
63	0x00000000	0.0
64	0x00000000	0.0
65	0x00000000	0.0
66	0x00000000	0.0
67	0x00000000	0.0
68	0x346d02c2	2.2073348e-07
69	0x3664f882	3.4119298e-06
70	0x3601af28	1.9324452e-06
71	0x328d88cc	1.6476768e-08
72	0x369085b8	4.3071013e-06
73	0x363d2b41	2.8188372e-06
74	0x00000000	0.0
75	0x00000000	0.0
76	0x00000000	0.0
77	0x00000000	0.0
78	0x00000000	0.0
79	0x00000000	0.0
80	0x00000000	0.0
81	0x00000000	0.0
82	0x00000000	0.0
83	0x00000000	0.0
84	0x00000000	0.0
85	0x00000000	0.0
86	0x00000000	0.0
87	0x00000000	0.0
88	0x00000000	0.0
89	0x00000000	0.0
90	0x00000000	0.0
91	0x341e6f71	1.4755439e-07
92	0x35ab9a72	1.2785442e-06
93	0x360b45f0	2.0753323e-06
94	0x3622d73a	2.426516e-06
95	0x3668910d	3.4655125e-06
96	0x3789c4cd	1.6423315e-05
97	0x378c361e	1.67145e-05
98	0x375e38dd	1.3245471e-05
99	0x3657af2c	3.213946e-06
100	0x370eedc7	8.519221e-06
101	0x3786c9b3	1.6067968e-05
102	0x377a7393	1.492807e-05
103	0x36bbcb16	5.5966766e-06
104	0x35689c4a	8.6654165e-07
105	0x00000000	0.0
106	0x00000000	0.0
107	0x00000000	0.0
108	0x00000000	0.0
109	0x00000000	0.0
110	0x00000000	0.0
111	0x00000000	0.0
112	0x00000000	0.0
113	0x00000000	0.0
114	0x00000000	0.0
115	0x00000000	0.0
116	0x362163d0	2.4048968e-06
117	0x00000000	0.0
118	0x338da98b	6.596664e-08
119	0x35a33596	1.2160042e-06
120	0x3626272a	2.4758724e-06
121	0x36d1f552	6.2572444e-06
122	0x373b4411	1.11619165e-05
123	0x37ef3c97	2.8519235e-05
124	0x38674a13	5.514368e-05
125	0x388d8a69	6.749185e-05
126	0x387c0ea9	6.0095135e-05
127	0x38563883	5.1074207e-05
128	0x385c3647	5.2502637e-05
129	0x38119564	3.4709825e-05
130	0x382f90bc	4.1858046e-05
131	0x36f55b35	7.312187e-06
132	0x36977e30	4.514841e-06
133	0x3603a47f	1.961627e-06
134	0x368c0294	4.1726253e-06
135	0x36dd98f5	6.60412e-06
136	0x368c0294	4.1726253e-06
137	0x34dfe049	4.1700176e-07
138	0x00000000	0.0
139	0x00000000	0.0
140	0x00000000	0.0
141	0x00000000	0.0
142	0x00000000	0.0
143	0x00000000	0.0
144	0x36c77ebd	5.9454164e-06
145	0x34ed0fe2	4.4156246e-07
146	0x34c3db5c	3.6481185e-07
147	0x35c61b60	1.4760117e-06
148	0x3762c930	1.3517492e-05
149	0x387dece5	6.0540526e-05
150	0x38d66c4d	0.00010224488
151	0x39045a6d	0.00012622187
152	0x392fe5df	0.00016774934
153	0x392ffad4	0.00016782741
154	0x39185621	0.00014527935
155	0x3922aab0	0.0001551311
156	0x392a5dd4	0.00016247417
157	0x38fe89ec	0.00012137354
158	0x387d0d16	6.0332088e-05
159	0x38167548	3.5872014e-05
160	0x380b4e5e	3.3213168e-05
161	0x37dbe6d9	2.6214331e-05
162	0x379037f2	1.719219e-05
163	0x37408ff5	1.1477609e-05
164	0x3740b92d	1.1487206e-05
165	0x36f4e87c	7.2988314e-06
166	0x00000000	0.0
167	0x00000000	0.0
168	0x00000000	0.0
169	0x00000000	0.0
170	0x00000000	0.0
171	0x00000000	0.0
172	0x3584d5bf	9.896975e-07
173	0x36a26e15	4.8407915e-06
174	0x36c863c8	5.9720805e-06
175	0x377b8d95	1.49937305e-05
176	0x384490a2	4.686474e-05
177	0x38cb6674	9.698878e-05
178	0x390e007a	0.00013542353
179	0x3967b778	0.00022098224
180	0x3974e454	0.00023354712
181	0x397b710a	0.00023979336
182	0x399a885f	0.00029474773
183	0x39a4bfe9	0.00031423502
184	0x39a49544	0.0003139173
185	0x39819552	0.0002471605
186	0x39153713	0.00014230264
187	0x3885fd18	6.3890766e-05
188	0x382a72af	4.0637966e-05
189	0x3820e9ec	3.836483e-05
190	0x37b89746	2.2004951e-05
191	0x37363d82	1.0862366e-05
192	0x3722793b	9.684179e-06
193	0x34ce49e9	3.8424267e-07
194	0x00000000	0.0
195	0x00000000	0.0
196	0x00000000	0.0
197	0x00000000	0.0
198	0x00000000	0.0
199	0x00000000	0.0
200	0x333c245d	4.3805233e-08
201	0x3696888e	4.4862454e-06
202	0x37862da4	1.5995298e-05
203	0x3799cb11	1.8333581e-05
204	0x388da5a9	6.7542605e-05
205	0x38f9fc66	0.00011920258
206	0x39419b43	0.00018463754
207	0x3960cac7	0.00021437845
208	0x3990a687	0.00027589893
209	0x39b1b2b4	0.00033893215
210	0x39e9b3c6	0.00044575165
211	0x39e17e70	0.00043009548
212	0x39bf1a15	0.00036449792
213	0x39796c79	0.000237869
214	0x393c24ac	0.00017942738
215	0x39110a9e	0.00013832233
216	0x38693c2f	5.560758e-05
217	0x37ccdd24	2.4421672e-05
218	0x370db92b	8.447368e-06
219	0x364f380d	3.087803e-06
220	0x35c9c376	1.5032554e-06
221	0x337fc023	5.954656e-08
222	0x00000000	0.0
223	0x00000000	0.0
224	0x00000000	0.0
225	0x00000000	0.0
226	0x30a9949a	1.2338603e-09
227	0x315fe635	3.2581629e-09
228	0x36514b42	3.1187233e-06
229	0x36f9a5f6	7.4400987e-06
230	0x370ce9d4	8.399093e-06
231	0x37f072b1	2.8663637e-05
232	0x38a0d629	7.669285e-05
233	0x39456e54	0.00018828484
234	0x3983b48f	0.00025120794
235	0x39578715	0.0002055432
236	0x3984c59f	0.0002532424
237	0x396e4352	0.00022722528
238	0x39882af1	0.00025971935
239	0x399094ef	0.00027576784
240	0x39802f5c	0.00024449348
241	0x397f45c4	0.00024344685
242	0x39293287	0.00016135919
243	0x3923700f	0.00015586636
244	0x38af4312	8.357143e-05
245	0x380d8629	3.3741966e-05
246	0x36d3fda5	6.317818e-06
247	0x36d94c6e	6.4760015e-06
248	0x3655d42a	3.186297e-06
249	0x3506982e	5.014034e-07
250	0x00000000	0.0
251	0x00000000	0.0
252	0x31ef228f	6.9597443e-09
253	0x34d99dd2	4.053423e-07
254	0x356897f5	8.664786e-07
255	0x36046000	1.9725412e-06

exp_avg f4 [10]
0	0xb7b56336	-2.162308e-05
1	0x37e241cc	2.6971938e-05
2	0xb4932149	-2.7405102e-07
3	0x37b6d7f1	2.1796646e-05
4	0x37448b0d	1.1714886e-05
5	0x3689ca71	4.1064854e-06
6	0xb7e72509	-2.7554592e-05
7	0xb77575dc	-1.4630579e-05
8	0x37ece63e	2.8240607e-05
9	0x3762f595	1.3527829e-05

exp_avg_sq f4 [10]
0	0x323fcda0	1.1164417e-08
1	0x32f39c4a	2.8359995e-08
2	0x3387ed6a	6.329613e-08
3	0x3230ec52	1.0298281e-08
4	0x3375aa5c	5.719845e-08
5	0x32dcb90e	2.5695524e-08
6	0x3305eabb	3.117996e-08
7	0x32ce6c78	2.4030882e-08
8	0x330971df	3.2001363e-08
9	0x331950eb	3.5696683e-08
