hw8/lightning_logs/version_8/checkpoints/epoch=49-step=350.ckpt (torch, 398487 bytes, 36 tensors)

encoder.encoder.0.weight f4 [32, 784]
00000000: 1cc9 213c b869 d3bb 0e11 893c 330d 04bd
00000010: aa6c e93c 4ab5 d1bc 8a64 d13c ea80 8e3c
00000020: 16ad fc3c cd7c 0dbd 4467 8e3c 304c 49bb
00000030: 0e92 afbc 609b a33a f066 e0bb b0d5 c03c
00000040: 9aec dbbc c07d 053a 4870 e8bc 0870 6b3c
00000050: ec55 b5bc 85ba 0abd b2b4 57bc 6802 8d3b
00000060: ca8e b2bc 4819 d7bc 3817 a33c 3510 febc
00000070: 4014 943c 28c8 543c d32f f4bc a679 d63c
00000080: 5243 10bc 1ad7 99bc 2e70 9abc ccdc f5bc
00000090: 20ba 41bb dcb0 e3bc 2a26 06bd 0e26 c03c
000000a0: 8031 fa39 d019 84bc a61a e13c dcc1 febc
000000b0: acf3 01bd 75a4 f4bc 1226 0cbd d09a c73b
000000c0: 0866 d53c 2ea6 d43c e0b7 993a 35cb d6bc
000000d0: 8a04 25bc 0097 2f39 a044 833c f7aa 0e3d
000000e0: 58c4 b0bc 10d5 b6bc bc45 95bc 0889 6a3c
000000f0: bc22 1dbc 2cd3 82bc a00c 88bc b856 e6bc
00000100: 62d3 ef3c 0341 8fbc 2010 ef3a 072e 003d
00000110: 8508 303c 6c87 a9bd ba06 cebd ccdd 913d
00000120: 1a48 813d 0180 6b3d c88b c83c a007 363b
00000130: 2862 f83b b009 d33c 2202 c73c b889 36bc
00000140: 6e9b 6abc 1c27 dfbb 91c2 013d 3a93 c1bc
00000150: 8892 b1bb 406c 153a 606e e93b fea1 e5bc
00000160: c342 c7bc 9865 76bc dcc9 6cbc a7c3 0a3d
00000170: b829 813d 96fe 773d c92f f13c 184a 8fba
00000180: a87a 17be 2bf2 d6bd ad16 12be 610c 63bd
00000190: f274 833d 2b78 7c3d e7f5 c83c cadf bdbd
000001a0: 5ac4 80be 00f6 78bb 8816 a13c eef6 e63c
000001b0: 1408 d2bb 3c3a d4bc 00c2 00bd 90d0 81bc
000001c0: 308a 35bb 1ac1 11bd 31b4 013d 5bcf 093d
000001d0: f927 30be 7067 7d3b 4fc0 133e 64bc 333d
000001e0: bec4 96bd 921d 42be 24fa 56be 6b6d 58be
000001f0: af59 63be f735 77bd 6555 2bbe d68a ecbd
00000200: 5032 29bc 9c04 17be 377f 4fbe f64e 71be
00000210: 9f27 7abe 8ab7 59bd 94ea 06bd 29fb 82bc
00000220: 3667 0d3d 6adb 553b b24e 38bc f461 08bd
00000230: 7c00 493c 561a a23c 908b 4d3c 824b b33c
00000240: 3586 44be 4364 11be 1be1 c13d c885 04be
00000250: 0070 3dbe e241 5ebe 0d89 4abe 248f 7fbe
00000260: f009 d9bd 12b8 4ebd 638b 80bd 9f23 c5bd
00000270: da40 11be 0c3e 92bd 7d94 e1bd dec3 5dbe
00000280: c5f8 08be d6c6 53bd cbf7 79bd 62a5 393c
00000290: d541 d53c f812 af3c 5ce6 57bc 1436 7f3c
000002a0: e86f bfbc 2831 01bd 206b baba 006a 21ba
000002b0: 8116 43be 4be1 15be 6d12 2abe bfb9 0dbe
000002c0: d50c bebd a6ba 7abc f5da 7ebd 3aae 26be
000002d0: c27f 02bd 5b4b d63c e99a 163d 1e24 293d
000002e0: 6c39 0c3c 2831 ecbd a6d9 1bbe 183e 9cbd
000002f0: 41b2 03be 1e89 babd 6ff1 71bc 3018 d0bc
00000300: 5a9f d43b d4b9 25b9 e054 743c 6090 483b
00000310: 46f0 55bc 2459 373c 4a2e a8bc 684e 87bb
00000320: cf5e 61bd 06dd 24be ea59 2bbe 940a f1bd
00000330: a10d d6bd c005 dcbd 93e7 b93c a1d9 263c
00000340: 87c2 483d 5ec3 9b3d 13d6 cb3d e3a7 bb3d
00000350: 9b2e 433e c69e 78bd 0442 dcbd 90ab 603a
00000360: beb7 a23c bb6d 1c3d 7272 2fbc e1c9 49bd
00000370: 9efb 9abc 9b05 1dbc eec5 803c b07c 163b
00000380: 738d f7bc ae5a c8bc 9cba 1cbd c817 a8bc
00000390: 5687 2cbe 2bd0 b9bd e1d6 86bb b3ef 0ebd
000003a0: 68fc ffbd 69ad cb3c 54cf 183e c082 203e
000003b0: db8b cf3d 2029 ed3d 0185 8dbc 6c72 1dbc
000003c0: 1eb0 4dbd e193 65bc a61c 2e3d 8f6e 8b3d
000003d0: c3d7 853d 4ad0 1e3d 1ca8 9c3c ebb7 d9bd
000003e0: 7a1e d8bc 4c63 333d d0ff 8dbc ceac 61bc
000003f0: 634a 43bc b54c 8ebd 9f46 96bd 6e10 08be
0.009874608 -0.0064518116 0.016731765 -0.03223915 0.028494198 -0.02559914 0.025560636 0.017395455
0.030844253 -0.034542847 0.017383225 -0.0030715577 -0.021431949 0.0012482218 -0.0068482086 0.023539394
-0.026846219 0.00050922856 -0.028373852 0.014369972 -0.022135697 -0.033869285 -0.01316564 0.0043032654
-0.021796603 -0.026257172 0.019908533 -0.031013587 0.018076062 0.012987174 -0.02980796 0.026181053
-0.008805113 -0.018779326 -0.01885232 -0.03001251 -0.0029560402 -0.027794294 -0.03275124 0.023455646
0.00047720596 -0.01612559 0.027478527 -0.031098299 -0.031726524 -0.029863575 -0.034215994 0.006091453
0.026049629 0.025958147 0.0011727773 -0.026219944 -0.010071883 0.00016745552 0.016023934 0.034831014
-0.021577999 -0.022318393 -0.018221729 0.014314897 -0.009590801 -0.015969835 -0.016607583 -0.028117523
0.0292756 -0.017487055 0.0018239059 0.031293895 0.010744219 -0.08277783 -0.10059877 0.071223825
0.063125804 0.05749512 0.024480715 0.002777554 0.0075800605 0.025761455 0.02429301 -0.011141233
-0.014319284 -0.006810082 0.031679694 -0.023629773 -0.005419079 0.00057000294 0.0071237534 -0.028031345
-0.024323827 -0.01503887 -0.014452424 0.033877995 0.06306785 0.060545526 0.029441731 -0.0010932116
-0.14792883 -0.104954086 -0.14266463 -0.055431727 0.0641879 0.06163804 0.024531318 -0.092712
-0.25149804 -0.0037988424 0.019664064 0.028193917 -0.0064096544 -0.025906675 -0.031435013 -0.01584652
-0.0027700774 -0.035584547 0.031665985 0.033645015 -0.17202748 0.003866639 0.14428829 0.043880835
-0.07361744 -0.18956593 -0.20993859 -0.2113549 -0.2220218 -0.0603542 -0.16731794 -0.11549918
-0.010326937 -0.14747852 -0.20263372 -0.23565277 -0.24429177 -0.053153552 -0.032938555 -0.015988903
0.034522258 0.0032632002 -0.011249231 -0.03329654 0.012268182 0.019787949 0.012545481 0.02188659
-0.19191821 -0.14198403 0.094667636 -0.12941658 -0.18499756 -0.2170482 -0.19778843 -0.24956948
-0.105975986 -0.050468512 -0.06276586 -0.09625935 -0.14184895 -0.07140741 -0.1101465 -0.21656749
-0.13376148 -0.051703297 -0.06102733 0.011330934 0.026032368 0.02137135 -0.013177481 0.015576858
-0.02336879 -0.03154102 -0.00142226 -0.0006157458 -0.19051553 -0.14636724 -0.16608591 -0.13840388
-0.09279791 -0.0153032895 -0.062220532 -0.162774 -0.03186012 0.02615898 0.036768828 0.04129421
0.008558612 -0.11532813 -0.15219745 -0.07629031 -0.12860967 -0.09108184 -0.014767035 -0.025402158
0.0064887227 -0.00015804853 0.014912814 0.0030603632 -0.013057774 0.011190686 -0.020529885 -0.00412922
-0.055022057 -0.16099939 -0.16733518 -0.11769596 -0.10451818 -0.10743284 0.022693431 0.010183723
0.04901364 0.07605623 0.09952941 0.09162881 0.19060747 -0.060698293 -0.10754779 0.00085704867
0.019863006 0.038190585 -0.010708438 -0.049264792 -0.018918809 -0.009583856 0.01571938 0.0022962503
-0.030218815 -0.024457302 -0.038263902 -0.020519152 -0.16848502 -0.09072908 -0.004114971 -0.034896564
-0.124993145 0.024862962 0.1492284 0.15674877 0.10134097 0.115801096 -0.017275335 -0.0096098
-0.050216787 -0.014012308 0.04250779 0.06808197 0.06535294 0.03877286 0.01912313 -0.10630783
-0.02638172 0.04379587 -0.017333895 -0.01377411 -0.011919591 -0.069482245 -0.07337689 -0.13287517

encoder.encoder.0.bias f4 [32]
00000000: a640 99bb 2194 ddbc 2f01 ed3c 8513 1e3e
00000010: c90a 1b3e 59e0 a4bc 4fc6 523d aa5b 973d
00000020: 7cc8 ae3c aab5 9d3d 5156 4fbb 9552 bd3d
00000030: 6d47 57be c5c5 473b 5ca4 083e fa46 363e
00000040: 6c06 dfbd aa8e 4dbd 4055 cabc f31e a5bd
00000050: 79cf d6bc 3a14 bf3d 05f0 6c3e fdbe eabc
00000060: 14cc cabd 600f e93b 792d 19be 5459 0dbe
00000070: bcfb 73bd 752b 38bc f0cb e03c 8f2e 703a
-0.004676896 -0.027048172 0.028931228 0.15437134 0.15140833 -0.020126509 0.051458653 0.073905304
0.021335833 0.07700665 -0.0031637142 0.09244267 -0.2102334 0.003048287 0.13343948 0.17800513
-0.10889897 -0.050184883 -0.024698853 -0.08062544 -0.026221978 0.0933003 0.23138435 -0.028655523
-0.09902206 0.0071124285 -0.14958753 -0.13803607 -0.059566244 -0.01124083 0.027440995 0.0009162211

encoder.encoder.1.weight f4 [64, 32]
00000000: 6950 1fbe 4982 bebd a5e5 84ba ff1d 11be
00000010: ce22 1bbe 7bac 97bd 77cc 92bd 9494 aebd
00000020: a31f 153e b049 323e ade8 113e 03cb 24bb
00000030: b518 33bd 1252 873e b467 fdba 87a1 743c
00000040: d240 a53e a7c1 c1bd 0c62 3f3e 8223 80bd
00000050: 9e40 373e fba2 4dbe 5bd0 5fbc 3a94 d03d
00000060: 3740 68bd 43ca 96be e78c 003e 20c7 903e
00000070: dcba 0a3d e000 cb3d c489 3bbe 6895 db3d
00000080: e60d 88be 1c2f 523d 5813 0abc 0844 9b3d
00000090: aee0 653c 2bf3 3b3e ce6a 30bd 219f 9bbd
000000a0: 5c1f b23d 7984 10bd 584a 433e ad5f 773d
000000b0: 478a ad3d 6a25 ba3e 51db 48be 882d 98be
000000c0: cc74 6e3e f14d ad3e d937 5cbc 25f9 713e
000000d0: 5537 06be c15d 0dbd 375b 2cbe 77c6 50bd
000000e0: b566 35bc 2734 70be 3ae3 e63b 70f8 c6bd
000000f0: 1653 00be 231b 353e c7c4 60bc 967e c63d
00000100: b2ca 2d3d fcba b43b 1c83 47bc 75bb 5fbe
00000110: e3bd 95be 1759 2c3e fce6 35bd 5731 493d
00000120: c3e9 e93d 3459 ac3a 3789 b73d 6fa4 1abc
00000130: 9904 843e 6432 ff3c 5673 23bc 0e1e acbd
00000140: 1e38 2d3d 9829 863d 950d 2f3d 6462 e13d
00000150: be2f ce3d 051e 143d f174 3bbe eb23 0bbd
00000160: c498 763e 75af 8bbe 010d 6f3d 4ffb 54bd
00000170: 13c5 2fbe 087c c9bc ff72 723d 3006 8dbc
00000180: 17ef 823d 4a03 023e bbac 7f3d 8482 7b3d
00000190: 589e 1ebe 380e 16be 37d4 e03d 4deb 373d
000001a0: 87af 7ebd 40fe 86be 82f4 5c3d 76fb bd3b
000001b0: b6be 013d bc23 80bd 2ff7 82be d3c8 a5be
000001c0: b47b e13c a1a0 9dbc ce17 e8bc 1b2f 5abd
000001d0: 8839 89be 7377 b8bd 3cd3 a6bd 42a4 373d
000001e0: 984a 15bd d19a 843d 0791 a93e af7a 253c
000001f0: 494d 073e 569f 813c 6401 1f3e 75e7 92bd
00000200: dcd7 1a3e 04f8 4d3e d15d 0c3e 951d 693c
00000210: 2d68 ba3d 4380 923d d894 d2bc 6dcb 2fbe
00000220: 0a4c 1e3e b744 25be 55cb 5fba b5cd 21be
00000230: a01e 1e3d a5a7 ec3d 9464 2cbe 3158 54be
00000240: 464e 023e ccc7 4cbd 68d4 45bd 640b 09bd
00000250: f1ce f6bd ef5b b9bd 110e ebbd 2805 07be
00000260: 8a11 fb3d 01da e2bd 33f0 933d a909 993d
00000270: 8dc2 8a3d cc81 0dbe 17b9 6fbd f4d3 99bd
00000280: 0ed4 9cbc 1802 6e3e eb8d ee3d b8ae 593d
00000290: bfa0 51bd 622a 333d 249d 7f3c d3c5 80bd
000002a0: 2fb3 c23c c9a6 65be 0905 c03c 9e67 1dbd
000002b0: 8421 143c fbcb 893b 354a d73c e82c 2fbe
000002c0: 382e fdbc bc1a 873e c21e 0cbe 818d 993c
000002d0: 3b1f 64bd 1c2d f8bd 2458 8f3d 16a2 223e
000002e0: c447 37bd ad60 c9bc 7aac e63d af2e 3e3e
000002f0: 7b63 aa3d b975 063e 4d9c 243d cff9 8d3c
00000300: 7846 763e 6597 d5bc 431b 323e bbed 573d
00000310: 0b30 da3d 6aa7 c73c d150 51bd ab8a 80bd
00000320: 1aac 463c 36b1 1e3d 15bb aabc 6e3f 4abd
00000330: 099e 483e 1883 e5bd 6bdb 0ebe 3023 75bd
00000340: ab6b 83bc b72d f93d 4da5 423e ff9d 913d
00000350: aa6d 243e 7c71 173e 53b6 43be be4f 113e
00000360: dfd1 8a3b b909 133d f62b af3d 2def c63c
00000370: 7e7b 08be 3ad9 2abe 74a9 c53d 34bf 5cbe
00000380: 8e96 f9bd 3cdd 143e c260 16be 41b1 3ebe
00000390: 7f91 03bd 590e c33c c2a9 7abd a112 cdbc
000003a0: 8ec6 3bbe 78cb be3d 0575 a53c bde4 a2bc
000003b0: b4bb 313e c620 24be 7dd3 4b3d 7a34 0b3e
000003c0: 8ada 56bd e58c 3b3e 9e79 bbbd 4292 c53c
000003d0: 1985 88bd f574 3a3e 8e41 0bbe bded 203e
000003e0: 3bb0 5b3e 6f01 0f3d 9626 423e 530f cebc
000003f0: cac3 f33d 3da6 9fbe c9c1 34be 07ba 14be
-0.15558018 -0.09302194 -0.001013924 -0.14171599 -0.15149996 -0.07405945 -0.07167905 -0.08524433
0.1456285 0.17410922 0.14248915 -0.0025145418 -0.043724734 0.26429802 -0.0019333274 0.014931089
0.32276016 -0.094607644 0.18689746 -0.062567726 0.17895743 -0.20081703 -0.013660516 0.10184522
-0.056701865 -0.29451188 0.1255375 0.2827692 0.03386961 0.09912276 -0.18314272 0.10721856
-0.26573104 0.05131446 -0.0084274635 0.07581335 0.014030619 0.1835448 -0.043070607 -0.07598711
0.086973876 -0.035282586 0.19071329 0.060393978 0.0847364 0.3635667 -0.19614913 -0.29722238
0.23286742 0.33848527 -0.0134410495 0.23630197 -0.13107045 -0.03451324 -0.1683167 -0.05097052
-0.011071851 -0.23457395 0.0070461305 -0.097153544 -0.12531695 0.17686133 -0.01371879 0.09692113
0.042429633 0.0055154543 -0.012177255 -0.21848853 -0.29246435 0.1683086 -0.044409737 0.04911932
0.1142154 0.0013149143 0.089617185 -0.009438618 0.25784758 0.031151958 -0.009976229 -0.0840417
0.042289846 0.06550902 0.042737562 0.11005095 0.100677 0.03616144 -0.18306328 -0.0339698
0.24081713 -0.272823 0.05836201 -0.05199748 -0.17165022 -0.024595276 0.0591917 -0.017214864
0.06393259 0.12696567 0.062420588 0.061403766 -0.15490091 -0.14653862 0.10977977 0.044902135
-0.062179115 -0.26365852 0.05394412 0.0057977987 0.031676017 -0.06256816 -0.2557921 -0.3237978
0.027524807 -0.019241633 -0.028331663 -0.05326758 -0.26801705 -0.09007158 -0.081457585 0.044834383
-0.03644809 0.064748414 0.3311846 0.010100051 0.13213076 0.015823048 0.15527874 -0.07173053
0.15121406 0.20114142 0.13707663 0.014228244 0.09101901 0.0715337 -0.02570574 -0.17167445
0.15458694 -0.16139494 -0.0008537074 -0.15801127 0.038603425 0.11555413 -0.16835243 -0.20736767
0.12725171 -0.04999523 -0.04829827 -0.03345813 -0.1205119 -0.09050738 -0.11477292 -0.1318556
0.12259205 -0.11076737 0.07223549 0.07472546 0.06775389 -0.13819045 -0.058526125 -0.0751113
-0.019144084 0.23242986 0.116481625 0.05314514 -0.05117869 0.04374159 0.01560143 -0.06287732
0.023767082 -0.22426905 0.023439901 -0.038428895 0.009041194 0.0042052246 0.026280502 -0.17106974
-0.030905828 0.26387584 -0.13683608 0.018744232 -0.055693846 -0.12117979 0.06999233 0.15882143
-0.044746175 -0.024582231 0.11263366 0.18572496 0.08319756 0.13130845 0.040188123 0.017331032
0.24050319 -0.026073167 0.17393212 0.05271695 0.10653695 0.024371821 -0.051102463 -0.06276449
0.012125993 0.03874322 -0.02084116 -0.049376898 0.19591536 -0.11206645 -0.13950889 -0.05984801
-0.016042551 0.121669225 0.1900837 0.071102135 0.16057459 0.14789385 -0.1911252 0.14190575
0.0042364444 0.035897944 0.08553307 0.02428397 -0.13328359 -0.16684428 0.09651461 -0.21557313
-0.12186919 0.14537519 -0.14685348 -0.18622304 -0.032121178 0.023810552 -0.06119705 -0.025033297
-0.18337461 0.09316152 0.0201974 -0.019884462 0.1735676 -0.16028127 0.049762238 0.13594237
-0.05245451 0.18315466 -0.09154056 0.024117593 -0.06666011 0.18208678 -0.13599226 0.1571569
0.21453945 0.034913477 0.18960032 -0.025153792 0.11902578 -0.31181517 -0.17652048 -0.14524089

encoder.encoder.1.bias f4 [64]
00000000: 48fa 0cbe 29bf 72bd e130 56be 99f2 0cbe
00000010: c6eb 42be 0981 123d 8478 33be 1f61 85be
00000020: c611 093c 1726 90be 690c 41bc 9c1e b5bd
00000030: 624a 7bbe 43df 243e 2153 76be 3cbc 64be
00000040: 96fd 1f3d 6b19 bb3d 3a57 9dbe e1da debd
00000050: a538 123d 4a0e 66be 9ceb 5fbe c854 db3c
00000060: 4be0 4abc 8c05 10be 23b8 47be e041 66be
00000070: f749 32be 6fc1 4bbe b4eb b53d 8e42 f1bd
00000080: 5eb6 823b 4dc9 80be d120 1b3d de5c 3ebe
00000090: 30e0 423d b6fa 3cbd 0fa3 90bc 1ceb 04be
000000a0: 29d4 a03d 873e 68be 076e 6bbe 3084 ac3c
000000b0: 0b11 51bd c34b 81be 50a6 e0bd d506 70be
000000c0: 1a91 b83d b61f 80be d718 6cbe 83d2 0fbe
000000d0: 9fea 92be 3cdd 90bd c748 88bd 9bb9 be3d
000000e0: 7245 18be 6ea0 38be 364b e2bd 7ff0 e6bd
000000f0: 2b77 7fbe febc 81bd b071 a3bd 86c8 5ebe
-0.1376735 -0.059264336 -0.20917083 -0.13764419 -0.19035253 0.03576759 -0.17526442 -0.2605066
0.008366054 -0.2815406 -0.011782744 -0.08843729 -0.24540094 0.16100793 -0.24055149 -0.2233743
0.039060198 0.091357075 -0.3073061 -0.108815916 0.03569855 -0.22466388 -0.21867222 0.026773825
-0.012382577 -0.14064616 -0.19503836 -0.22486067 -0.17411028 -0.19898008 0.088828474 -0.117802724
0.003989025 -0.2515358 0.037873093 -0.18590114 0.047577083 -0.046137534 -0.017655877 -0.12980312
0.07852966 -0.22680102 -0.22991191 0.021059126 -0.051041644 -0.25253114 -0.109692216 -0.23440106
0.09012051 -0.25024194 -0.2305635 -0.14045148 -0.28694627 -0.07073447 -0.06654506 0.09312745
-0.14870241 -0.18029949 -0.110495016 -0.1127634 -0.24947803 -0.063348755 -0.079806685 -0.21756181

encoder.encoder.3.weight f4 [20, 64]
00000000: 7a26 89bd 71a8 34bd e0fb d9bb aa0a 7abd
00000010: f048 00bd 73f8 8e3c 551d cebc d2d1 2dbd
00000020: d8bc 543d a35e e8bd 161e 493e c575 523e
00000030: 37c1 0dbd ee71 853e d58c 54bd acb3 063d
00000040: d218 9d3c 4a48 2f3d 2122 1a3e 087d 94bd
00000050: b133 efbd eb91 493e 8bf9 c43c c04d 56be
00000060: 6499 aebd 4324 183e cf39 04bc ae33 a139
00000070: 3fdc 31bd 3d5f 83be e3a2 193c 6918 c9bb
00000080: e579 283d 3feb f5bd 9d1f 83bd 8333 ffbd
00000090: 61ee 65be dc59 8ebd 5752 3e3d 9371 1f3e
000000a0: e881 c8bb ad51 803d 7dca 9a3d fb84 a03d
000000b0: f3b3 43be 63a6 b83c 65d0 f8bc d0c4 05be
000000c0: bae1 b33d a4a2 103c 5df2 0abe 3e55 c53d
000000d0: a582 a4bd fa4f d7bb b815 163e 0f22 433d
000000e0: 970a d33c 507a e43d df0e 87bd 0804 08be
000000f0: 0624 43bd ddb7 4bbe 0b91 c5bd 6323 77bd
00000100: 7a20 21be 42e0 99bd cb1a 9fbd dc6c d4bd
00000110: 8657 98bd 486c 183d 2dba d5bc e843 9ebd
00000120: 363a f53c 4c30 5d3e 7715 35be 21ad 1e3d
00000130: 3a0c c6bc ba2e 5bbe abae acbd 120c 9d3d
00000140: 8465 383d 36d9 d73d 6eb5 cfbd 7ede b4bc
00000150: 89d3 333e 8fe7 26be e92d 04bd 01a5 2f3e
00000160: 9d29 07be 4a8d 57be ff75 b5ba f9f7 e33d
00000170: 3c0a 34be 1552 4f3d 721c 2ebe 8c74 b83d
00000180: 67cc 563e ea00 55be a56b fbbd 8b4a 863d
00000190: 3a18 17be d5f5 92be 9e45 943e e1fe 13bd
000001a0: ce88 b1bc d3a5 9d3d 4637 f03d ce1d 123e
000001b0: ddf5 2b3d 5cb3 e43c fcf9 e73d d1e4 8ebd
000001c0: 110e 71be dbf3 15bc f583 e3bd 93cf 50be
000001d0: 3f0e d8bc 3112 a4bd e573 c83d 6c4b 03bc
000001e0: 6b90 893c ebef b7bd b38d 833b 34b1 023e
000001f0: dfe0 77bc 130c bdbd e9d5 07be a68c 623d
00000200: 5014 20be c901 6f3e f850 073e 547d 5cbd
00000210: 0104 953d 4576 043e e873 37bb f098 69be
00000220: 763b b1bd 41a8 4d3d 0b86 aa3d 14eb 933d
00000230: 50b4 35bd 2853 81bd 5f8a b73d 0e89 e43d
00000240: c808 383e d4db 9b3d ba4d 9a3d 1077 39bd
00000250: cd24 123e 46e9 4e3d 0c89 5b3d dc6e c7bd
00000260: 30d9 52bc 7e96 26bc f8ef f13c cd78 a4bc
00000270: b048 4f3d c9ca 4b3e 3981 e0bd 7dfd 393e
00000280: d47f 81bd d6ad 8ebe 88b3 36be c6dd a93d
00000290: 2c32 44bc af32 4e3d a09d 9f3e eaab 873c
000002a0: 4f07 bfbd 945b 273e ced4 593e 0f7c ccbc
000002b0: 35ef 853d f18d 85bd 2373 273d 89f9 b13d
000002c0: 926f 9bbb 2ec8 36be ccd0 92bd a551 06be
000002d0: 4af5 e73d ef8a 6f3b fef4 243c ad98 e53c
000002e0: e2aa 0e3c 6a48 2e3e 2da4 303d d053 853b
000002f0: e917 abbd 896c 63be 1a01 23bb b852 adbb
00000300: 21a1 92bc 994a 353d 894c a9bd 0ea7 8f3c
00000310: 0f9d 4f3d ae8a 6abd dd3e 06bd fc24 093e
00000320: 452a 11bd 0331 3d3e 9d13 283c a1ff 923d
00000330: c09a 4e3d 40c4 143e 1a56 dcbd 8efc 0bbd
00000340: dbd1 7abd 8068 27bd 275b e33c 5d1b 90bd
00000350: cbb7 ad3c 77ab 303e a235 3fbd 8d80 62be
00000360: 6c45 98bd 4e99 5bbd 4e03 ac3d 2ad3 70bd
00000370: 1b3a aebc 02bc d33c b3ce 3cbd 111a da3c
00000380: a12e 64be fbba 88bd 4085 aa3d 2243 46bd
00000390: 6415 3fbe 0eaa 21bc e46a 56bd 1ac1 0dbd
000003a0: 0319 6bbd 16fb fb3c 206d 60be c286 8a3d
000003b0: 5216 8a3d c376 3a3d a7f1 66bc b560 5cbd
000003c0: dab9 093e 04ff d4bd 1ca7 98bc e4df 4b3e
000003d0: 2c16 66be 6c7a 3d3d 7664 38bd 46c8 953c
000003e0: 2e8a d8bc f1da 343e 6395 aabd 8af4 28bd
000003f0: 9b7f c43c bf32 bbbd 8d87 1d3e 5cb1 563e
-0.06696792 -0.04410595 -0.0066523403 -0.061045326 -0.03131956 0.017452454 -0.025160471 -0.04243643
0.051937908 -0.113461755 0.19640383 0.20552738 -0.034608092 0.26063484 -0.05189212 0.032886192
0.019176874 0.04279355 0.15052082 -0.0725041 -0.11679781 0.1968457 0.024044773 -0.20928097
-0.08525351 0.14857583 -0.008070423 0.00030746817 -0.043422934 -0.256586 0.009377214 -0.006136943
0.041131873 -0.1200776 -0.06402514 -0.12460997 -0.22454216 -0.06950733 0.046465244 0.15570669
-0.0061190017 0.062655784 0.07558153 0.07837864 -0.19111614 0.022540277 -0.030372808 -0.1306336
0.08783288 0.008827839 -0.13569017 0.09635399 -0.08032731 -0.0065708132 0.14656723 0.047639903
0.025761886 0.11156142 -0.06594633 -0.13282788 -0.047641777 -0.19894357 -0.096468054 -0.06033648
-0.15735045 -0.07513477 -0.07768782 -0.10372326 -0.07438569 0.03721264 -0.026089752 -0.07727796
0.029934984 0.21600455 -0.1768397 0.038739327 -0.024175752 -0.21404544 -0.08431753 0.07668318
0.045018688 0.105394766 -0.10142027 -0.022078749 0.17561163 -0.1629927 -0.032270346 0.17152788
-0.13199468 -0.21049991 -0.001384437 0.111312814 -0.17582029 0.05061539 -0.17003039 0.090066046
0.20976411 -0.2080113 -0.12276391 0.06557187 -0.14755335 -0.2870318 0.28959364 -0.036131743
-0.021671679 0.07697644 0.117292926 0.14269182 0.04198252 0.027917556 0.113269776 -0.06977237
-0.23540522 -0.009152378 -0.11109153 -0.20391683 -0.02637398 -0.08011282 0.0978773 -0.008013587
0.016792497 -0.089813076 0.0040146946 0.1276291 -0.015129297 -0.092308186 -0.13265194 0.055309914
-0.15632749 0.23340525 0.13214481 -0.05383046 0.07276154 0.12935741 -0.002799267 -0.22812247
-0.086539194 0.050209288 0.08326348 0.07222572 -0.044361413 -0.06314689 0.08961939 0.111589536
0.179721 0.07610288 0.075343564 -0.045279562 0.14271851 0.050515436 0.053597495 -0.097379416
-0.012869164 -0.010167716 0.029533371 -0.020077134 0.05060643 0.19901575 -0.10962147 0.18163104
-0.063232094 -0.27867 -0.17841923 0.08294253 -0.0119748525 0.050341304 0.31174946 0.016561467
-0.09327566 0.16343528 0.21272585 -0.0249615 0.06539766 -0.06521214 0.040881287 0.08690173
-0.004743525 -0.178498 -0.07168731 -0.13117082 0.11326082 0.0036551317 0.010068176 0.028026903
0.008707734 0.17019811 0.04312532 0.004068829 -0.0835417 -0.22209372 -0.0024872483 -0.005289402
-0.017899098 0.044260595 -0.08266551 0.017535713 0.050686892 -0.05726116 -0.032774795 0.13393015
-0.035440702 0.18475728 0.010258582 0.071776636 0.05044055 0.14527988 -0.1075861 -0.0341764
-0.06123529 -0.040871143 0.027753426 -0.07036469 0.021205803 0.17252909 -0.046682008 -0.2211935
-0.07435116 -0.053613 0.08399068 -0.05879513 -0.021267941 0.025846485 -0.04609556 0.026623758
-0.22283413 -0.06676289 0.08326197 -0.048403867 -0.18660504 -0.009867204 -0.052348033 -0.034607984
-0.0573969 0.030759376 -0.21916628 0.06763984 0.067425385 0.045523416 -0.0140957 -0.053803165
0.13449803 -0.10400203 -0.018634371 0.19909626 -0.22469395 0.04625933 -0.045017682 0.018283974
-0.026433077 0.17661645 -0.083292745 -0.041248836 0.023986628 -0.091405384 0.1538374 0.20966095

encoder.encoder.3.bias f4 [20]
00000000: 0585 e3bd da51 18be 7f28 80be 6801 78bd
00000010: f4fe 62be 2de4 20be b32a 48bd e02e 2bbd
00000020: 6be5 09be 27c1 123d abd1 d5bd fff9 8ebe
00000030: e78c 273b 3fb8 073e 439b 00bc 2b35 c63d
00000040: e49c d7bd 49fe 0fbe 81e3 dcbd 0e07 aa3c
-0.11109356 -0.14874974 -0.25030896 -0.060548216 -0.2216757 -0.15712042 -0.048868846 -0.04179275
-0.13466422 0.035828736 -0.104403816 -0.27925107 0.0025566162 0.13253878 -0.007849517 0.0967811
-0.105279714 -0.14061846 -0.107855804 0.020755317

model.0.weight f4 [32, 20]
00000000: 8116 843e e795 033e b1d1 6c3d d627 483e
00000010: 7206 8a3d bfbc 0cbd ab22 0b3e e08e 3d3e
00000020: 2524 393e a1fd 103e f6a1 163e d044 883e
00000030: 5278 1fbb 0837 a63b 0b2c f9bd ab86 1cbe
00000040: 7187 d0bc 9977 78be b35a 123e de4a 16bd
00000050: 7b4f 843d f040 f5bd adc4 c73b d459 f7bd
00000060: e073 6d3e faa0 903b 64f5 e63d 5d44 373e
00000070: 1e2a 823e ff28 83bd 404e 753e 3d49 c2bc
00000080: c8cd c4be 3476 8b3d 0645 033e a929 5c3c
00000090: 1785 513e 8087 dd3d cbef 833d 4f36 4b3e
000000a0: 7a27 7e3e 6454 233e 5336 8abd 95a9 7abe
000000b0: 56f4 a6bc 4db3 8abd 58b7 5e3e b0f3 6bbd
000000c0: 445c ad3e 2a4a 8e3e b66a fb3d fdb8 1f3e
000000d0: a746 b8bd 2c56 90bc 3635 7e3e c6dc 57bd
000000e0: 4f35 a73e 1b89 b3bd 1827 bc3e 7b53 463d
000000f0: ccc5 54bd 6f13 8f3e d19f f33c a46b 5abe
00000100: f24c 6c3d 5d34 4abd 14fe 2c3e ee3d 6dbd
00000110: f1a2 2d3d 737c b63c 4c72 163d 8616 1d3e
00000120: 300e df3d 6142 0e3d 6298 023e 3520 36be
00000130: a949 d4bc 2940 5fbd 5a03 433e f15a 5bbc
00000140: a77b b6bd 7316 c63d f90e 423e 8df1 733d
00000150: 81a3 c5bb ebac 21bd 2412 6cbe bf64 a1bd
00000160: 5d21 f63e 12e0 793e fd9c c53d 98b3 303e
00000170: bfc4 21be 25e6 c0bd 3967 aa3d eac3 8abe
00000180: 514e 213e 3990 123d 136c de3e 11ec b43d
00000190: 2521 033d c01e 183e 9141 ff3d 0c31 d4be
000001a0: e08b 303e 41c5 86bd c856 123e 5ab8 8cbd
000001b0: 5451 b83e fb7d 473e 2bd6 083e fabe 303e
000001c0: f4f3 8a3e 48c6 b83c d729 413e 2db7 84be
000001d0: a5d4 703d 7c29 9f3c a1ad ed3e 9275 943c
000001e0: 47ed 0b3e 01fa 30bd 7faf b23d 4ec5 2cbd
000001f0: 3079 883d 51d2 93be e2c4 d73d 8d86 f03c
00000200: ff1e 343e 9d19 af3c 8f29 573d 7419 bc3c
00000210: a318 d13c 8a34 c3bd 9733 f9bd b2b5 3bbe
00000220: fce0 c23d 93d8 453d 9a5a 743e 5988 16be
00000230: 7e88 e1bd 81dc 3e39 c539 45bd 8fb8 28be
00000240: bab0 8a3c df4f d3bc c730 53bc d9dd 933d
00000250: 5ddb edbd c42c 1fbe edca 713d f5e9 67be
00000260: 0e55 58be 5921 2c3e 615e 41be 81c3 033e
00000270: c829 393e 6206 b13d 2644 4cbe 4ad4 9ebd
00000280: 9463 233e ceb1 a53d 7785 2dbd 27e3 f53d
00000290: c8c6 c03e da23 6ebe c05e 31be 4038 6fbd
000002a0: 8220 02bd 79bc 343e a9f7 49be a393 483e
000002b0: 5b8a c43c f2c4 85bd 8765 d03d e402 00be
000002c0: 8155 993c 0aba cbbe 902f 863e 1ea7 4dbe
000002d0: 5979 6f3d e16f 213b 06d1 77bd c81f 0a3e
000002e0: 5951 b73d 9a19 8c3b f923 fdbd a4b3 cc3d
000002f0: e8d1 823e 30e5 193e 7e26 ccbd 09b1 9bbd
00000300: 22a8 a1bd c170 143e d056 2f3d 4597 093e
00000310: 5738 083c 156e 9bbe ae2b 963e c177 9cbc
00000320: 919c 38bd 8c2a 9d3c b3e4 3a3e f453 2abd
00000330: dadb 9ebd 590b fabd 748e 0a3e 2b8f 8c3e
00000340: 8371 443e 8090 213e 778a 43be 4e51 183e
00000350: f500 05be de58 523e ce13 7b3e 9229 b23d
00000360: ba86 a2bd 0bc2 5ebe 2bd6 913e 5afb 23be
00000370: a697 043e 605a 663e 8f18 d63e d6c6 4a3e
00000380: 2a50 823e 9e11 78bd 5b18 d43e a412 833d
00000390: 1523 a13e 0847 cd3d bb40 dd3d 7a28 bc3d
000003a0: d775 7e3d 9c61 26be d9bd 893d e63b 063e
000003b0: 5834 a83d a3f5 d9bc e155 ca3e 95af 823e
000003c0: 1eb8 47be b933 823e 4021 7a3d 54d9 1cbd
000003d0: 96d2 c7bd a6aa 603d 84fa 443e 1f6c a8bd
000003e0: 87cb 0dbd 4a0f 09bc 42c1 553d 446f 853b
000003f0: cb24 32be 9b72 eebd 6084 363e 7427 f33d
0.2579842 0.12850152 0.057817165 0.19546446 0.067395106 -0.03435969 0.13587444 0.18511534
0.18080194 0.14159252 0.1471022 0.26615 -0.002433319 0.005072478 -0.12166604 -0.15285747
-0.025455208 -0.24264373 0.14292412 -0.036692493 0.06460472 -0.119752765 0.0060964436 -0.1207768
0.23188734 0.004413721 0.11277273 0.17897172 0.25422758 -0.06404304 0.23955631 -0.023716563
-0.3843825 0.06809655 0.12819299 0.013437667 0.20460926 0.1081686 0.06442221 0.19844936
0.24819747 0.15950161 -0.06748643 -0.24478753 -0.02038018 -0.0677248 0.21749628 -0.057605445
0.33859456 0.27790958 0.12276213 0.15597911 -0.08997851 -0.017619215 0.24824986 -0.05270078
0.3265786 -0.08766385 0.36748576 0.048419457 -0.051946446 0.27944514 0.029739292 -0.21330124
0.05769057 -0.049366344 0.16893798 -0.05792039 0.04239172 0.022276139 0.036730096 0.15340623
0.10891378 0.034731273 0.12753442 -0.17785724 -0.02591403 -0.054504547 0.19044247 -0.013388381
-0.089103036 0.096722506 0.18951024 0.059556533 -0.006031454 -0.039471548 -0.23053795 -0.07880544
0.4807233 0.24401882 0.09649084 0.1725601 -0.15797709 -0.094188966 0.083204694 -0.27102596
0.15752532 0.035782073 0.4344183 0.088340886 0.03201403 0.1485548 0.12463678 -0.4144367
0.17240858 -0.06580592 0.14290917 -0.068711 0.35999548 0.19481651 0.13362949 0.17260352
0.27139246 0.022555485 0.18863617 -0.25921002 0.058796544 0.019428961 0.4642153 0.018122468
0.13664733 -0.043207172 0.087248795 -0.042180352 0.0666374 -0.28871396 0.10535599 0.029361034
0.17589949 0.021374518 0.052529868 0.022961356 0.025524443 -0.095315054 -0.12168043 -0.1833103
0.095155686 0.048302244 0.23862687 -0.1470045 -0.11012362 0.00018201956 -0.048150796 -0.16476654
0.016929973 -0.025794921 -0.012890047 0.072200485 -0.11614106 -0.1554442 0.059031416 -0.22647841
-0.21126196 0.16809596 -0.18883659 0.12867548 0.18082345 0.086437955 -0.19947872 -0.07755335
0.15955955 0.08090554 -0.04236361 0.120062165 0.37651658 -0.23255864 -0.173213 -0.058403254
-0.031769283 0.17650022 -0.19723381 0.19587569 0.023991754 -0.06531705 0.10175615 -0.12501103
0.01871753 -0.39790374 0.26208162 -0.20083281 0.058465336 0.0024633335 -0.060502075 0.13488686
0.08951063 0.004275513 -0.12360377 0.09995201 0.2555077 0.15028834 -0.09968279 -0.07602126
-0.07893397 0.14496137 0.0428074 0.13436611 0.008314214 -0.30357423 0.293302 -0.019100072
-0.04507119 0.019185327 0.18251304 -0.04158397 -0.07756777 -0.12209196 0.13530904 0.27452978
0.19183926 0.15777779 -0.19095789 0.14874765 -0.12988646 0.20541713 0.24519274 0.08699335
-0.07935853 -0.21753709 0.2848371 -0.16013852 0.12948474 0.22495413 0.41815612 0.19802412
0.25451785 -0.060563676 0.41424832 0.0640004 0.31472078 0.10023314 0.10803362 0.09187408
0.0621241 -0.16248173 0.06725664 0.13108787 0.08213109 -0.026606387 0.39518645 0.25524583
-0.19503829 0.25430086 0.061066866 -0.038293198 -0.09756963 0.054850243 0.19236189 -0.082237475
-0.034617927 -0.008365462 0.052186258 0.004072102 -0.17396848 -0.11642953 0.17823935 0.118727595

model.0.bias f4 [32]
00000000: d8d9 8ebe fbc6 093d 514a 263e 1bb0 4dbe
00000010: 58f3 56bd 5820 31be bcf3 74be e33d 403e
00000020: a1d0 92be 0a94 b63d 38e7 d4bd a436 19be
00000030: 1050 09bc c232 cfbe 7a55 36be 7aa4 06be
00000040: 2701 a0bd 099e 0c3d 5b18 55be 4649 87be
00000050: 055e 26bd 2af0 12be f902 83be 35a5 9fbe
00000060: ec95 813e 28a1 333e 4ef5 df3d 2485 41be
00000070: c37a 95be 1478 3abd 725f 78be 2a00 983e
-0.27900577 0.03363703 0.16239287 -0.2008671 -0.052478164 -0.17297494 -0.23921102 0.18773608
-0.28674796 0.08914955 -0.10395664 -0.1496225 -0.008380905 -0.40468413 -0.17806044 -0.1314868
-0.0781272 0.0343304 -0.20810072 -0.2642309 -0.040617008 -0.14349428 -0.25588205 -0.3118073
0.25309694 0.17541945 0.1093546 -0.18898445 -0.29195222 -0.04552467 -0.2425516 0.29687625

model.2.weight f4 [64, 32]
00000000: 2ea7 bf3d afe3 e43d ab4c 33be 7ee4 a73d
00000010: 4a1f 8ebd 1387 e43e 97f6 3d3e 2198 f8bb
00000020: f7a6 2b3d 58ff 1ebc 03ce d93d ed3d a73d
00000030: d307 9ebe fde3 c23d 8b83 923e 8a15 e6bc
00000040: 05fe 9f3e 03a1 39be 1aa2 fe3b 3f2f 53bd
00000050: ed3a ea3e d434 3abe 5b95 e93d 88e6 7c3d
00000060: 0bf0 23be 83e0 eebe 99a8 6fbe c4c6 34bd
00000070: e997 933e 4b58 57be 2191 84be 9624 6fbe
00000080: 4893 86bd b8e3 503d f4a8 323e 2776 8a3e
00000090: c61f 953d d936 353e b99a 243e e3a4 14be
000000a0: d876 8fbd f852 9fbe 24e7 84bd e785 343e
000000b0: 2d74 c13d 314d d53b 21a0 b53d 4903 7fbd
000000c0: 7afb 1a3d e68f 3a3d 9c51 ebbc 9433 d23d
000000d0: 0111 363e 85b6 013c 1d71 963d 10c1 c83e
000000e0: fe1c 66be f79e 84bd f617 ba3d c187 033e
000000f0: ef75 4f3e 339b 343e db0e fdbd 64fe 2abe
00000100: 45b1 b93d 4542 2ebd 51bc 0d3e 7705 5b3e
00000110: b3f0 893e 8dc5 4d3c 6fe6 28bc d424 b0be
00000120: 2fc0 81be 7149 c93d b661 21be bbd0 dd3d
00000130: 4426 4abd 28c7 b33d 1687 8d3d 2eda 143d
00000140: 8183 733b 4d75 32be d270 09be 4cee 1c3e
00000150: df0e 343e 5723 0ebd c995 febd f070 833e
00000160: d4ae 05be d804 0abe 31a5 f8bd 38c1 323e
00000170: 203f 0c3e 6527 b3be a878 28be ace8 a7bc
00000180: 1e3d 6cbe f644 8c3e 5cc4 f1bc 285b 2ebe
00000190: 6805 f23d a83d 873d f5e0 69bd a8db abbd
000001a0: 8b66 20be 8aaa 09be 38c8 643d 85e5 4d3e
000001b0: 7106 853d 1232 053d 8910 1abc 978d 933d
000001c0: 1522 c23c 9712 783d a0d9 17bd cd12 1ebe
000001d0: dcdc a5bc 9601 20bd e408 813b ae01 843e
000001e0: 699b 1f3b 3f90 f6bd ba34 b73e 5b80 573e
000001f0: 984b ab3e 7337 aa3a c734 873b 8e23 73be
00000200: fc78 a6bc ad0b db3e 2416 bc3d b68f 3a3e
00000210: aacf 4f3e 6af9 433e 5a9b f33d ce77 babd
00000220: 89d1 92be 04b9 13be b595 38be 560f 063e
00000230: 7944 01be 8e86 c0bd de0f 7b3d 4f0f 093b
00000240: 5640 b83d e5ac 4abe 9419 dfbd 123d f4bc
00000250: fa67 c73c 7d8a 9d3b 6dc2 d63d d266 e53d
00000260: 2a51 51bd 0c46 0c3d 0310 2f3c a637 d1bd
00000270: f42c a13d 45f0 eabd adfe 5dbd 1297 1bbe
00000280: a33a 67bd a71d 9c3d fece 96bd e4ac 1abd
00000290: 88e5 0f3e fddd e2bc 8a83 7b3d 83bc 51bd
000002a0: f516 4cbc 796c bebd 3c78 6bbd 67fc 833e
000002b0: 249f 283d e6ea 2b3e f1f6 bbbc 11bc 62bd
000002c0: dcf9 c13e 5605 2b3e 0169 9e3b 3121 51bc
000002d0: b035 b6bd d714 b03e f5d1 e5bd 4801 933c
000002e0: e300 61bd 2078 b6bd 4695 8bbb b5bf 853d
000002f0: bec4 213e c100 09be 87cd 113e 4f1e c1be
00000300: 69cd 68be 3002 623d 4dc2 bebc 5e30 643d
00000310: 8f78 ff3d 1f14 1b3e 3fac 7cbd 4857 ebbc
00000320: c24e c9be 1c7f 1bbf 087a 473d d643 dabc
00000330: 7116 07be 23c7 123e 46ff 05bd 76d7 83be
00000340: dc00 9a3d 0d41 77be a1a7 f1be 1731 c9bb
00000350: 0103 75bd 759d b73d d02e 0c3e 34be 0b3e
00000360: cb17 213e e12d b2bd bde2 1d3e 113d 443d
00000370: e5f8 f33d 5a70 5dbe afca 2fbd 9210 42bf
00000380: 7dfc 16bc 0b09 503e 941c 873e 0027 5b3e
00000390: 03ae d73e 0eb2 893d 329f f23d be28 3fbe
000003a0: 6821 9cbd 9db3 8fbd 899f 6a3d d206 c13e
000003b0: b819 933c d383 b63e f2dd 113e e40a 403e
000003c0: 9ced 6ebe 89f8 39be 8437 d7bd 89a7 723e
000003d0: c56e 663e 7e7f a13e a971 283e dde0 123e
000003e0: dd50 0cbe ab48 a8be 0e34 953d 57e3 193e
000003f0: 8ad6 db3e 60e0 7b3d 22b9 4f3e 1721 a3bd
0.09358059 0.1117624 -0.17509715 0.08197878 -0.06939562 0.44634303 0.18551098 -0.0075864946
0.041907277 -0.009704433 0.10634997 0.08166108 -0.30865344 0.095161416 0.28615984 -0.028086443
0.3124849 -0.18127827 0.007770789 -0.05155873 0.45748082 -0.18184215 0.114054404 0.06174329
-0.16009538 -0.46655664 -0.23404159 -0.04413487 0.28826836 -0.21029775 -0.25891975 -0.233538
-0.065710604 0.05099842 0.17447263 0.27043268 0.07281451 0.17696704 0.16074647 -0.14516024
-0.070050895 -0.31117988 -0.06489399 0.17629205 0.09445987 0.006509446 0.08868433 -0.062258992
0.037837483 0.04554739 -0.028725438 0.10263744 0.17779924 0.007917051 0.073457934 0.39209795
-0.22471997 -0.06475633 0.090866014 0.12844755 0.20259832 0.17637329 -0.12356349 -0.16698605
0.090670146 -0.04254367 0.13841368 0.21388803 0.2694145 0.012559307 -0.010308846 -0.34403098
-0.25341937 0.09828461 -0.1575993 0.10830828 -0.0493529 0.087782204 0.06910531 0.036340885
0.003715724 -0.17427559 -0.13421944 0.15325278 0.17583798 -0.03470167 -0.12430913 0.25672102
-0.13054973 -0.1347841 -0.12140883 0.1745652 0.13695955 -0.34990993 -0.16452277 -0.020496689
-0.2307019 0.27396363 -0.029512577 -0.17026961 0.118174374 0.06603557 -0.0570993 -0.083915055
-0.15664117 -0.13443962 0.055855006 0.20107086 0.06495369 0.032518454 -0.009403356 0.072047405
0.023697892 0.060564604 -0.037072778 -0.1543686 -0.020246916 -0.039064012 0.0039378274 0.25782531
0.0024354106 -0.120392315 0.35782415 0.21045057 0.3345611 0.0012986496 0.0041261646 -0.23744032
-0.020321362 0.42782345 0.091839105 0.18218884 0.20294061 0.19138113 0.11894865 -0.09104882
-0.28675488 -0.14426047 -0.18025859 0.13091788 -0.12623776 -0.09400664 0.06129443 0.0020913666
0.08996646 -0.19792517 -0.108935505 -0.029814277 0.024341572 0.004807769 0.104863025 0.11201252
-0.051102795 0.03424649 0.01068497 -0.10215692 0.07869902 -0.11471609 -0.054197956 -0.15194348
-0.056452405 0.07622843 -0.073636994 -0.037762538 0.14052403 -0.027693743 0.061404742 -0.05120517
-0.012456645 -0.09298033 -0.05748771 0.25778505 0.041167393 0.16788825 -0.0229449 -0.055355135
0.3788594 0.16701254 0.004834295 -0.012764261 -0.08896959 0.343909 -0.11221687 0.017944947
-0.054932486 -0.08909631 -0.004259738 0.06530706 0.15797707 -0.13379194 0.14238559 -0.37718436
-0.22734608 0.055177867 -0.02328601 0.05571019 0.124741666 0.15144394 -0.061687704 -0.028728142
-0.393179 -0.6074083 0.048700362 -0.026643675 -0.13192154 0.14333777 -0.03271415 -0.2575032
0.07519695 -0.24145909 -0.47198203 -0.006139885 -0.059817318 0.089655794 0.13689733 0.13646775
0.15731733 -0.08700157 0.15418525 0.0479098 0.11912707 -0.2162489 -0.042917904 -0.75806534
-0.009215471 0.2031595 0.2638899 0.21401596 0.42124948 0.06723414 0.1184677 -0.18667886
-0.07623559 -0.070166804 0.05728105 0.37700516 0.0179566 0.3564745 0.14244822 0.18754154
-0.23332828 -0.18161215 -0.10508636 0.23696722 0.22503193 0.3154258 0.16449608 0.14343591
-0.13702722 -0.3286794 0.07285319 0.1502813 0.42937118 0.061493278 0.20285466 -0.07965296

model.2.bias f4 [64]
00000000: e32c fabe 988e 9ebe 2470 07be 12ee 8dbe
00000010: 9ef0 86be caa2 0ebd 8aa9 adbe 9f48 d7be
00000020: fd90 e43c 15f4 c3be 78e5 403e 55f4 13bd
00000030: 7afa d33d 5eba cfbd 55b4 cbbe 1bba 24be
00000040: da31 66be 1cd5 d9be fb68 81bd 038a 9dbe
00000050: bc7e 8bbe 0bf2 3dbd e753 ebbd 6d86 42be
00000060: 73b2 15bd 222e 70be 46e4 b2be 72ab 1bbd
00000070: 948d 593d e1b8 943c 410e 85bd f824 74bc
00000080: 681d 7dbe ea8b 68be 3351 6cbe 64bd 47be
00000090: 4af6 fabd d666 68bb 0848 e3bd 56f9 e6bd
000000a0: 803d 3fbe b51f 8e3b fdd6 08bf 1a1b b73d
000000b0: 6870 2abe bacc 01bf 09c7 a4be cc4d 213d
000000c0: 6bd7 a3be 2c13 29be ef5c 3ebe fa94 89be
000000d0: 15bd 56be f20b 253e 8324 80be 9b1a 41bd
000000e0: c6fa b73d ecd6 41be cab5 a3bd 6afa f5bc
000000f0: 046d d1be da3c 9abe ba86 71be 0019 063b
-0.4886237 -0.30968165 -0.13226372 -0.27720696 -0.2635545 -0.034823216 -0.3391841 -0.42047593
0.027901167 -0.38272157 0.18837535 -0.036121685 0.10350509 -0.101429686 -0.3978602 -0.16086619
-0.22479954 -0.42545402 -0.063188516 -0.30769357 -0.27245128 -0.04637341 -0.114906125 -0.18996592
-0.036547136 -0.23455098 -0.34939784 -0.0380053 0.053113535 0.018154563 -0.06496859 -0.014901392
-0.24718249 -0.22709623 -0.2307785 -0.1950584 -0.12254007 -0.0035461686 -0.11097723 -0.11278026
-0.18675804 0.004337276 -0.53453046 0.08940716 -0.16644442 -0.5070301 -0.32183102 0.039380834
-0.32000288 -0.1651122 -0.18590139 -0.26871473 -0.20970567 0.16117838 -0.25027856 -0.047144514
0.08983378 -0.18929642 -0.07993658 -0.030026633 -0.40903485 -0.3012455 -0.2358655 0.0020461679

model.4.weight f4 [10, 64]
00000000: d3dd efbd 9e6f 2abc 0fe4 0dbe 1fea d6bd
00000010: 7c78 18bd e867 033e b048 9fbe 94a2 5ebe
00000020: b909 ccb9 7e00 063e 9429 1abd 766d 1f3c
00000030: 8444 a2bd 39a9 7ebd 0a08 fe3c cd2b 123b
00000040: 2c85 ae3d 8117 9ebb 03d7 ca3d 0101 c2bd
00000050: 323f 88be dab6 83bd ab56 5d3e 542f 623e
00000060: e2ed ccbc 18c8 133c 9916 a8bd 9cbc 993d
00000070: 3eb0 0abc 5786 153e 65b5 18bd a4d2 81bd
00000080: 61a0 17be 3057 b7ba a2f5 c43c 864b 503d
00000090: b326 4dbd a591 a5bd f71d 0dbe e46c aabd
000000a0: dccd e7bd ba60 6e3d 3d33 9ebe 2c7c 1a3e
000000b0: 8482 22bd 849a aebe 1be7 d6bd 3b90 ce3d
000000c0: 4aae 6abd 07f9 b43d b598 71bc 196b 0fbe
000000d0: 8b06 03be a048 5cbd 6ff8 213d 7908 83ba
000000e0: 366c 0e3d 3c54 bdbd d435 353c f551 b0bd
000000f0: 7946 d23d 5461 f1bb 9802 2abc ce9d c1bd
00000100: c43a efbd 4f42 cbbd 5599 093e d37e b13c
00000110: 9c9e 32bd bf60 8c3d e011 003e f7af c53d
00000120: 6ffe 663c ba3d 1bbc 197b 9cbd 04ab 243e
00000130: 6886 1b3d e746 03bd 0cfc dabd 7622 a73c
00000140: b8a9 d0bd 49cd 6a3e 107b 1abd a919 86bb
00000150: 93df d4bc 43a9 7fbd 34e9 b03d d9f9 3c3d
00000160: 5e60 8c3d 1de0 f8bd 1b3f cebc 9c26 67bd
00000170: df17 a83d 8dfa 353d 6a8b a5bd 0869 e5bd
00000180: 6c1c 81bb dccc e73d 2f8e 1a3e c70b 943d
00000190: c1c1 2a3d e47f 063e bcbc 3b3e d0e4 12ba
000001a0: ca26 8f3d 107d 213e 5801 bc3d 46de c5bd
000001b0: e0c3 033a ec17 74bc c6f9 333d 6ff0 1cbe
000001c0: 665b ddbc 8ac0 28be 65d7 6b3e 5a87 f9bc
000001d0: 7a2f dd3d c357 45bd e754 f7bc a65a 40be
000001e0: a531 a73c 7896 a5bd 370f c83c ebb3 9c3c
000001f0: a89b 0d3e f501 d53d 5678 413d 3508 b6bd
00000200: 7b36 6a3e 8a5f b3bc f619 34be 49ff 15be
00000210: 81cd bf3d 8aaa fc3d 345f 6cbc 0984 2b3e
00000220: 0d87 103d 2de5 d9bd a8cb 8d3e 4be3 0a3e
00000230: 2d01 54bd 64e8 f33d d1ee 143e df0c 953d
00000240: d908 653e 8424 3cbe 62de b0bd 2283 813c
00000250: 9ea6 733d 7dca d33c abe2 003d fa46 153d
00000260: f561 693c d2d5 ad3d 8cd7 193e f834 df3d
00000270: 8016 ec3d 1329 c3bd 0a1d 1f3e abde c2bd
00000280: 4ea4 d7bd 23db c8bd 1231 16be 9fe8 813d
00000290: 8360 16be 323b 2e3c 37f6 293c ff99 c23d
000002a0: 74f8 77bd ff65 3c3d 334f 1c3e f761 913c
000002b0: 85f7 febc 1841 8cbe 4db5 053c c4df 893e
000002c0: bda4 cbbd 3819 01be 282a 223d 0660 9e3c
000002d0: 2c1c 2d3e db54 25be b361 acbd bb03 86bd
000002e0: f116 953c 8feb 63bc dabc 9cbd 6316 8e3e
000002f0: 7896 16bb 6cb3 aebe 0937 113c f421 5d3d
00000300: c586 53be e32c c1bd 0bcf ac3d 2a4d 50be
00000310: b818 c1bd 6c4a 3d3c a81b adbd bc90 3abe
00000320: 4ab1 8dbc 9073 96be c465 5d3c b4b4 92be
00000330: 4357 e4bb 3b3d e63c fbfc 40be 2df2 6ebc
00000340: 22c2 b5bd b4b8 4b3e 6664 bc3d 45f7 39bd
00000350: 6fc1 4abd ff6c 57bd 89b1 a3bd 1eac b3bd
00000360: 9041 763d e4ec 38bd af76 acbe 1d5e 23bd
00000370: 0ed6 1a3e 2434 243e 60ef 8d3a 03e9 c9bd
00000380: 6037 8b3e 4fc8 d1bc 3753 1f3e d0b4 ed3d
00000390: cd83 4bbd 6a53 363e 516d 343e 00d1 5e3d
000003a0: 8f84 4cbc 2c1d e7bd 3365 ffbd d098 2abe
000003b0: cd30 b03d c269 00bd 27d5 e6bc eed9 8ebc
000003c0: 8794 8bbd d182 d8bd 6ed6 3d3c 0c73 e9bd
000003d0: dcff 603d d2fe 843d a3ed 3b3d 6686 3bbc
000003e0: 5152 643e 65a9 01bd d22f 7f3d 3d90 c63a
000003f0: 235b 973d dfd5 edbc 5453 58bd 9b45 79bc
-0.117122315 -0.010402588 -0.13856529 -0.10493874 -0.037224278 0.12832606 -0.31110144 -0.21741706
-0.00038917156 0.13086125 -0.03763731 0.009730687 -0.079232246 -0.062173102 0.031009693 0.002230394
0.08521494 -0.004824579 0.099042915 -0.09472848 -0.26610714 -0.064313605 0.21615092 0.22088367
-0.025015775 0.009019874 -0.08207435 0.075066775 -0.008464871 0.14602028 -0.037282366 -0.06339005
-0.14807273 -0.0013987776 0.024042908 0.050853275 -0.050085735 -0.0808442 -0.13780962 -0.083215505
-0.113185614 0.058197714 -0.30898467 0.1508643 -0.03967525 -0.3410226 -0.104932986 0.100861035
-0.05729512 0.08836561 -0.014745881 -0.14005698 -0.12795465 -0.053780198 0.039543565 -0.0009997032
0.034771167 -0.09244582 0.011060197 -0.08609382 0.10267348 -0.0073663387 -0.010376595 -0.09453927
-0.116811305 -0.09924757 0.13437398 0.02166692 -0.043608293 0.0685439 0.12506819 0.09652703
0.014098748 -0.009475166 -0.076406665 0.16080862 0.037969977 -0.03205004 -0.106926054 0.020402174
-0.10188621 0.22929873 -0.037715018 -0.0040924144 -0.025985515 -0.06241728 0.0863823 0.04613671
0.06854318 -0.12152121 -0.025176575 -0.056433305 0.08207678 0.044428397 -0.08083232 -0.11201674
-0.0039401557 0.11318371 0.15093301 0.07228809 0.041688684 0.13134724 0.18333715 -0.0005603554
0.0698982 0.15770364 0.09179944 -0.09661536 0.0005026441 -0.014898282 0.043939374 -0.15326093
-0.027021121 -0.16479698 0.23031385 -0.030460048 0.10800071 -0.0481794 -0.030191852 -0.1878458
0.020409415 -0.0808534 0.024421318 0.01912876 0.1382891 0.10400764 0.047233902 -0.08888284
0.22872345 -0.021896143 -0.17588028 -0.14648165 0.09365369 0.12337215 -0.014426995 0.16749586
0.035285044 -0.10639415 0.2769444 0.13563268 -0.051758934 0.11909559 0.14544226 0.072778456
0.22366656 -0.18373305 -0.08636166 0.0158096 0.05948507 0.02585339 0.031466167 0.03644464
0.014244546 0.084880486 0.15023631 0.10898775 0.11527729 -0.09529319 0.15538421 -0.09515127
-0.105293855 -0.09807422 -0.14667156 0.06343197 -0.14685254 0.01063423 0.010373644 0.09502029
-0.060539678 0.04599571 0.15264587 0.017746909 -0.031123886 -0.27393413 0.008160901 0.26928532
-0.09943531 -0.12607276 0.039590985 0.019332897 0.16905278 -0.16145651 -0.08417072 -0.0654368
0.018199416 -0.013911142 -0.07653208 0.27751455 -0.002297787 -0.34121263 0.008863219 0.05398746
-0.20656879 -0.094323896 0.08437928 -0.20341936 -0.09428543 0.011553388 -0.08452541 -0.18219274
-0.017296452 -0.29385042 0.013513032 -0.2865349 -0.00696841 0.028105369 -0.18846504 -0.014584106
-0.088749185 0.19894677 0.09198837 -0.04540183 -0.04950088 -0.05259418 -0.079928465 -0.08773063
0.06012112 -0.04514779 -0.33684298 -0.039884675 0.15120718 0.16035515 0.0010828786 -0.098588966
0.27190685 -0.02560821 0.15559088 0.11606753 -0.049686242 0.17805257 0.17619826 0.054398537
-0.012482776 -0.11284861 -0.12470474 -0.16659856 0.08603058 -0.03135086 -0.02817781 -0.017437901
-0.06815439 -0.10571826 0.011586769 -0.113988966 0.054931507 0.064939156 0.045880925 -0.011445617
0.22297026 -0.031655688 0.062301464 0.0015149188 0.0739043 -0.029032646 -0.052813843 -0.015214349

model.4.bias f4 [10]
00000000: 0012 d8bd 14d4 c73e 87c7 20be 5ba0 fabd
00000010: 4d54 49be b146 263e 4a95 24be ed2f 473f
00000020: 2cc8 05bf f094 8cbe
-0.10550308 0.3902899 -0.15701114 -0.12237617 -0.19661064 0.16237904 -0.16072574 0.77807504
-0.52258563 -0.2745738

exp_avg f4 [32, 784]
00000000: 0000 0000 0000 0000 0000 0000 0000 0000
00000010: 0000 0000 0000 0000 0000 0000 0000 0000
00000020: 0000 0000 0000 0000 0000 0000 0000 0000
00000030: 0000 0000 0000 0000 0000 0000 0000 0000
00000040: 0000 0000 0000 0000 0000 0000 0000 0000
00000050: 0000 0000 0000 0000 0000 0000 0000 0000
00000060: 0000 0000 0000 0000 0000 0000 0000 0000
00000070: 0000 0000 0000 0000 0000 0000 0000 0000
00000080: 0000 0000 0000 0000 0000 0000 0000 0000
00000090: 0000 0000 0000 0000 0000 0000 0000 0000
000000a0: 0000 0000 0000 0000 0000 0000 0000 0000
000000b0: 0000 0000 0000 0000 0000 0000 0000 0000
000000c0: 0000 0000 0000 0000 0000 0000 0000 0000
000000d0: 0000 0000 0000 0000 0000 0000 0000 0000
000000e0: 0000 0000 0000 0000 0000 0000 0000 0000
000000f0: 0000 0000 0000 0000 0000 0000 0000 0000
00000100: 0000 0000 0000 0000 0000 0000 0000 0000
00000110: ee51 c235 3dcb c936 c236 9936 5f45 b234
00000120: 9753 c636 a471 a036 0000 0000 0000 0000
00000130: 0000 0000 0000 0000 0000 0000 0000 0000
00000140: 0000 0000 0000 0000 0000 0000 0000 0000
00000150: 0000 0000 0000 0000 0000 0000 0000 0000
00000160: 0000 0000 0000 0000 0000 0000 0000 0000
00000170: 0000 0000 0000 0000 a200 0000 1062 e436
00000180: 7950 3538 0952 4938 a0c3 9037 8a95 7236
00000190: 1fc8 d236 09a4 1b36 3e37 b0b6 cd47 ddb5
000001a0: 0000 0000 0000 0000 0000 0000 0000 0000
000001b0: 0000 0000 0000 0000 0000 0000 0000 0000
000001c0: 0000 0000 0000 0000 0000 0000 0000 0000
000001d0: f492 f736 0000 0000 0000 0000 0000 0000
000001e0: f0d4 3490 f8a0 3536 c7c7 e437 49eb 4d38
000001f0: 7d38 6a38 1bd9 ec38 2709 cb36 c516 2eb8
00000200: 0f90 4937 1f45 bb36 0dc2 f7b6 9f9f 6935
00000210: a16b a936 e5d4 1e37 3a77 6a37 8c7c 9337
00000220: 3a77 6a37 2c3e 9436 0000 0000 0000 0000
00000230: 0000 0000 0000 0000 0000 0000 0000 0000
00000240: 38a2 4237 b7a5 5036 0000 0000 5480 2721
00000250: e1b6 8136 3813 4337 e4f9 5738 7264 d636
00000260: 43a6 deb8 9902 efb8 6d8f c6b8 4121 3bb8
00000270: 367a fd38 f52a f138 6c8c 0537 4d35 da37
00000280: a7fd dc37 2eba c937 59a4 c037 521c c037
00000290: 521c c037 c90c 9b37 0000 0000 0000 0000
000002a0: 0000 0000 0000 0000 0000 0000 0000 0000
000002b0: 32d2 9e36 f4b7 2237 9f7d ff35 cffc 6235
000002c0: f706 1d37 3268 f037 b59e 8438 801b 3cb8
000002d0: 4600 56b8 bfad 10b9 03c7 c9b9 85ac 6bb9
000002e0: 1eb7 74b8 907a 55b8 b146 80b8 98b7 aa37
000002f0: 51f8 0038 c47b f537 88ad b537 a028 8f37
00000300: cef2 8e37 6f21 7e36 0000 0000 0000 0000
00000310: 0000 0000 0000 0000 0000 0000 0000 0000
00000320: 4465 2b34 7057 fc36 712e 1037 5ec6 7937
00000330: a930 0c38 c3df c438 8788 e0b7 3c4b dab8
00000340: 161c 7cb8 e48e 81b9 dd45 0dba c91f 84b9
00000350: cb78 2db7 a0a5 fa36 f4ba bbb8 2f8a 00b9
00000360: dbeb 6bb6 ff8b d7b6 b8d1 20b7 af37 70b6
00000370: b5eb 1327 046c ca25 0000 0000 0000 0000
00000380: 0000 0000 0000 0000 2ca9 77b1 6f39 c9b1
00000390: 5490 a335 bb1e 5c36 b8af 1637 cfe6 2838
000003a0: 9ae4 d538 dc7c b437 4938 a6b8 7fb0 90b8
000003b0: dc2f a9b8 4564 4bb9 2af8 04ba 2e1b 5db9
000003c0: 2a4d e438 c309 1739 5fac eb38 7748 24b9
000003d0: af48 cdb8 16c9 00b8 1043 23b8 b904 1bb8
000003e0: 4cc2 0db8 7712 81b7 0000 0000 0000 0000
000003f0: 6e0c 13b2 cb46 8cb3 0b18 cdb3 acc0 ee34
0.0 0.0 0.0 0.0 0.0 0.0 0.0 0.0
0.0 0.0 0.0 0.0 0.0 0.0 0.0 0.0
0.0 0.0 0.0 0.0 0.0 0.0 0.0 0.0
0.0 0.0 0.0 0.0 0.0 0.0 0.0 0.0
0.0 0.0 0.0 0.0 0.0 0.0 0.0 0.0
0.0 0.0 0.0 0.0 0.0 0.0 0.0 0.0
0.0 0.0 0.0 0.0 0.0 0.0 0.0 0.0
0.0 0.0 0.0 0.0 0.0 0.0 0.0 0.0
0.0 0.0 0.0 0.0 1.4477971e-06 6.013927e-06 4.56613e-06 3.3205558e-07
5.910591e-06 4.781601e-06 0.0 0.0 0.0 0.0 0.0 0.0
0.0 0.0 0.0 0.0 0.0 0.0 0.0 0.0
0.0 0.0 0.0 0.0 0.0 0.0 2.27e-43 6.8063455e-06
4.322871e-05 4.7998536e-05 1.7257233e-05 3.6147853e-06 6.281785e-06 2.319228e-06 -5.25164e-06 -1.648668e-06
0.0 0.0 0.0 0.0 0.0 0.0 0.0 0.0
0.0 0.0 0.0 0.0 7.378281e-06 0.0 0.0 0.0
-3.5662782e-29 2.7064798e-06 2.7272747e-05 4.9094935e-05 5.5842556e-05 0.00011293796 6.050937e-06 -4.150604e-05
1.2014075e-05 5.581081e-06 -7.383764e-06 8.7031543e-07 5.049122e-06 9.467102e-06 1.39752465e-05 1.7581762e-05
1.39752465e-05 4.4179815e-06 0.0 0.0 0.0 0.0 0.0 0.0
1.1601071e-05 3.1090874e-06 0.0 5.675164e-19 3.8657895e-06 1.162738e-05 5.1492723e-05 6.3893904e-06
-0.000106167536 -0.00011396892 -9.468091e-05 -4.4615244e-05 0.00012086744 0.00011499777 7.960112e-06 2.6012445e-05
2.634416e-05 2.4047764e-05 2.2964714e-05 2.2901371e-05 2.2901371e-05 1.8483393e-05 0.0 0.0
0.0 0.0 0.0 0.0 4.733237e-06 9.698782e-06 1.9035541e-06 8.4559446e-07
9.359551e-06 2.865875e-05 6.323812e-05 -4.4848304e-05 -5.102183e-05 -0.00013797636 -0.00038485983 -0.00022475615
-5.8344674e-05 -5.0897303e-05 -6.116683e-05 2.0351072e-05 3.074884e-05 2.9263909e-05 2.1657688e-05 1.7065846e-05
1.7040784e-05 3.786841e-06 0.0 0.0 0.0 0.0 0.0 0.0
1.5962456e-07 7.5203643e-06 8.593882e-06 1.48877425e-05 3.342392e-05 9.387687e-05 -2.6766456e-05 -0.000104090635
-6.010764e-05 -0.0002471126 -0.00053891336 -0.00025200684 -1.0339728e-05 7.469862e-06 -8.9516776e-05 -0.00012258509
-3.5155015e-06 -6.423797e-06 -9.585572e-06 -3.57952e-06 2.0528125e-15 3.5114608e-16 0.0 0.0
0.0 0.0 -3.6039394e-09 -5.8563994e-09 1.2186451e-06 3.2800442e-06 8.981609e-06 4.026928e-05
0.00010199212 2.1515814e-05 -7.925981e-05 -6.89933e-05 -8.0674625e-05 -0.00019396942 -0.000507238 -0.00021086328
0.0001088626 0.00014404119 0.0001123778 -0.00015667254 -9.7887e-05 -3.0704854e-05 -3.8924685e-05 -3.6959278e-05
-3.3797973e-05 -1.5386597e-05 0.0 0.0 -8.559352e-09 -6.532135e-08 -9.55043e-08 4.4471142e-07
