hw8/lightning_logs/version_7/checkpoints/epoch=49-step=350.ckpt (torch, 398487 bytes, 36 tensors)

encoder.encoder.0.weight f4 [32, 784]
0	0x3c21c91c	0.009874608
1	0xbbd369b8	-0.0064518116
2	0x3c89110e	0.016731765
3	0xbd040d33	-0.03223915
4	0x3ce96caa	0.028494198
5	0xbcd1b54a	-0.02559914
6	0x3cd1648a	0.025560636
7	0x3c8e80ea	0.017395455
8	0x3cfcad16	0.030844253
9	0xbd0d7ccd	-0.034542847
10	0x3c8e6744	0.017383225
11	0xbb494c30	-0.0030715577
12	0xbcaf920e	-0.021431949
13	0x3aa39b60	0.0012482218
14	0xbbe066f0	-0.0068482086
15	0x3cc0d5b0	0.023539394
16	0xbcdbec9a	-0.026846219
17	0x3a057dc0	0.00050922856
18	0xbce87048	-0.028373852
19	0x3c6b7008	0.014369972
20	0xbcb555ec	-0.022135697
21	0xbd0aba85	-0.033869285
22	0xbc57b4b2	-0.01316564
23	0x3b8d0268	0.0043032654
24	0xbcb28eca	-0.021796603
25	0xbcd71948	-0.026257172
26	0x3ca31738	0.019908533
27	0xbcfe1035	-0.031013587
28	0x3c941440	0.018076062
29	0x3c54c828	0.012987174
30	0xbcf42fd3	-0.02980796
31	0x3cd679a6	0.026181053
32	0xbc104352	-0.008805113
33	0xbc99d71a	-0.018779326
34	0xbc9a702e	-0.01885232
35	0xbcf5dccc	-0.03001251
36	0xbb41ba20	-0.0029560402
37	0xbce3b0dc	-0.027794294
38	0xbd06262a	-0.03275124
39	0x3cc0260e	0.023455646
40	0x39fa3180	0.00047720596
41	0xbc8419d0	-0.01612559
42	0x3ce11aa6	0.027478527
43	0xbcfec1dc	-0.031098299
44	0xbd01f3ac	-0.031726524
45	0xbcf4a475	-0.029863575
46	0xbd0c2612	-0.034215994
47	0x3bc79ad0	0.006091453
48	0x3cd56608	0.026049629
49	0x3cd4a62e	0.025958147
50	0x3a99b7e0	0.0011727773
51	0xbcd6cb35	-0.026219944
52	0xbc25048a	-0.010071883
53	0x392f9700	0.00016745552
54	0x3c8344a0	0.016023934
55	0x3d0eaaf7	0.034831014
56	0xbcb0c458	-0.021577999
57	0xbcb6d510	-0.022318393
58	0xbc9545bc	-0.018221729
59	0x3c6a8908	0.014314897
60	0xbc1d22bc	-0.009590801
61	0xbc82d32c	-0.015969835
62	0xbc880ca0	-0.016607583
63	0xbce656b8	-0.028117523
64	0x3cefd362	0.0292756
65	0xbc8f4103	-0.017487055
66	0x3aef1020	0.0018239059
67	0x3d002e07	0.031293895
68	0x3ce0a375	0.027421692
69	0xbd876293	-0.066105984
70	0xbdabe199	-0.08392639
71	0x3dd96684	0.106152564
72	0x3dc900ce	0.098146066
73	0x3dbd77ff	0.09251403
74	0x3cc88bc8	0.024480715
75	0x3b3607a0	0.002777554
76	0x3bf86228	0.0075800605
77	0x3cd309b0	0.025761455
78	0x3cc70222	0.02429301
79	0xbc3689b8	-0.011141233
80	0xbc6a9b6e	-0.014319284
81	0xbbdf271c	-0.006810082
82	0x3d01c291	0.031679694
83	0xbcc1933a	-0.023629773
84	0xbbb19288	-0.005419079
85	0x3a156c40	0.00057000294
86	0x3be96e60	0.0071237534
87	0xbce5a1fe	-0.028031345
88	0xbcc742c3	-0.024323827
89	0xbc766598	-0.01503887
90	0xbc6cc9dc	-0.014452424
91	0x3d0ac3a7	0.033877995
92	0x3d8129b8	0.06306785
93	0x3d77fe96	0.060545526
94	0x3cf12fc9	0.029441731
95	0x3bb56b3c	0.005536465
96	0xbdeadf09	-0.11468322
97	0xbd8ffbf4	-0.07030478
98	0xbde6d49d	-0.112710215
99	0xbd1bb1c8	-0.038011342
100	0x3d4521c4	0.048127905
101	0x3cf1a260	0.029496372
102	0xbc644270	-0.013931856
103	0xbe0384a0	-0.12843561
104	0xbe80c45a	-0.25149804
105	0xbb78f600	-0.0037988424
106	0x3ca11688	0.019664064
107	0x3ce6f6ee	0.028193917
108	0xbbd20814	-0.0064096544
109	0xbcd43a3c	-0.025906675
110	0xbd00c200	-0.031435013
111	0xbc81d090	-0.01584652
112	0xbb358a30	-0.0027700774
113	0xbd11c11a	-0.035584547
114	0x3d01b431	0.031665985
115	0x3d09cf5b	0.033645015
116	0xbdbfce7d	-0.093655564
117	0x3b7d6770	0.003866639
118	0x3e13c04f	0.14428829
119	0x3d33bc64	0.043880835
120	0xbd96c4be	-0.07361744
121	0xbe25e877	-0.1620196
122	0xbe412f34	-0.18865663
123	0xbe3daebc	-0.18523687
124	0xbe56ad60	-0.20964575
125	0xbd81f6db	-0.06345912
126	0xbe315ba0	-0.17320108
127	0xbe0f141e	-0.13972518
128	0xbd1f8575	-0.038945634
129	0xbe2480ab	-0.16064708
130	0xbe641593	-0.22273855
131	0xbe7422fe	-0.23841473
132	0xbe80a942	-0.25129133
133	0xbd7662f0	-0.060152948
134	0xbd239600	-0.039937973
135	0xbcbc5201	-0.022988321
136	0x3ce1778d	0.027522827
137	0xbb74db50	-0.0037362166
138	0xbc384eb2	-0.011249231
139	0xbd0861f4	-0.03329654
140	0x3c49007c	0.012268182
141	0x3ca21a56	0.019787949
142	0x3c4d8b90	0.012545481
143	0x3cb34b82	0.02188659
144	0xbde88a83	-0.11354544
145	0xbd82489c	-0.063615054
146	0x3dc1e11b	0.094667636
147	0xbdf7c01f	-0.12097191
148	0xbe16587d	-0.14682193
149	0xbe25285f	-0.16128682
150	0xbe27030d	-0.16309758
151	0xbe6a4cf4	-0.22880918
152	0xbdbfe8b8	-0.093705595
153	0xbd39a37e	-0.045321934
154	0xbd39459f	-0.04523241
155	0xbd95f9ca	-0.07323034
156	0xbe06eb01	-0.13175584
157	0xbd8a9a82	-0.06767751
158	0xbde08d83	-0.10964491
159	0xbe3b56c4	-0.18294817
160	0xbdf645c2	-0.12025024
161	0xbd447cad	-0.047970463
162	0xbd88e297	-0.066838436
163	0x3b93a7ab	0.0045060716
164	0x3c9d6366	0.019212436
165	0x3c6b7850	0.014371946
166	0xbc57e65c	-0.013177481
167	0x3c7f3614	0.015576858
168	0xbcbf6fe8	-0.02336879
169	0xbd013128	-0.03154102
170	0xbaba6b20	-0.00142226
171	0xba216a00	-0.0006157458
172	0xbde5ac20	-0.11214471
173	0xbd86ab89	-0.065756865
174	0xbdde6d0c	-0.10860643
175	0xbde63429	-0.112404175
176	0xbd798a5f	-0.060922977
177	0xba114bd8	-0.00055426126
178	0xbd4ca2e4	-0.049960032
179	0xbe1c0b9d	-0.15238805
180	0xbccf4f02	-0.025306229
181	0x3cd6b4be	0.026209231
182	0x3d322f86	0.043502353
183	0x3d47722a	0.04869286
184	0x3bffa410	0.00780154
185	0xbde74bdf	-0.11293768
186	0xbe1b73c0	-0.15180874
187	0xbd96d196	-0.07364194
188	0xbdf169d5	-0.11787764
189	0xbda5bb07	-0.08092313
190	0xbc9ab854	-0.018886723
191	0xbcff8cc2	-0.031195048
192	0x39ea5075	0.00044691903
193	0xbbdd17e4	-0.0067472328
194	0x3c7454e0	0.014912814
195	0x3b489060	0.0030603632
196	0xbc55f046	-0.013057774
197	0x3c375924	0.011190686
198	0xbca82e4a	-0.020529885
199	0xbb874e68	-0.00412922
200	0x3a3470c3	0.0006883258
201	0xbda465c5	-0.080272235
202	0xbdd2a7e6	-0.1028593
203	0xbdcc3f6f	-0.099730365
204	0xbdb4db7f	-0.08830928
205	0xbdbd2b92	-0.09236826
206	0x3ca71fdd	0.020400936
207	0xbb052078	-0.0020313542
208	0x3d28ba71	0.04119343
209	0x3d737f77	0.05944773
210	0x3daf3f9d	0.08557055
211	0x3da6ad36	0.08138506
212	0x3e3b8c12	0.18315151
213	0xbd6a983d	-0.057274092
214	0xbdd06eb2	-0.101773635
215	0x3b01aad1	0.0019785652
216	0x3c75b513	0.014996785
217	0x3cd5294d	0.02602067
218	0xbd0d27da	-0.034461834
219	0xbd8471d3	-0.06467023
220	0xbcc14221	-0.023591103
221	0x3b1208b2	0.0022283015
222	0x3c80c5ee	0.01571938
223	0x3b167cb0	0.0022962503
224	0xbcf78d73	-0.030218815
225	0xbcc85aae	-0.024457302
226	0xbd590e1c	-0.05299197
227	0xbd105f80	-0.035247326
228	0xbde44be2	-0.11147286
229	0xbdad2b26	-0.084554955
230	0x3bf445dd	0.0074546174
231	0xbca05901	-0.01957369
232	0xbdf980c8	-0.12182766
233	0x3c04c8fb	0.008104558
234	0x3dec7fba	0.115477994
235	0x3dfb303e	0.12265061
236	0x3d953e29	0.07287247
237	0x3db6680b	0.08906563
238	0xbd2c3efd	-0.042052258
239	0xbce91773	-0.028453564
240	0xbd8898e0	-0.066697836
241	0xbcc06286	-0.02348448
242	0x3d21b567	0.03947964
243	0x3d6d8291	0.057985846
244	0x3d4359df	0.04769313
245	0x3c89514f	0.016762404
246	0xbc97533b	-0.018472305
247	0xbe11f432	-0.1425331
248	0xbd836aec	-0.06416878
249	0x3ba1019a	0.004913521
250	0xbc8dffd0	-0.017333895
251	0xbc61acce	-0.01377411
252	0xbcda4c8a	-0.026647825
253	0xbdac7696	-0.08421056
254	0xbdb4707f	-0.088105194
255	0xbd9aff81	-0.07568265

encoder.encoder.0.bias f4 [32]
0	0xbc8aa825	-0.01692588
1	0xbd0c08f4	-0.034188226
2	0x3b2b137e	0.0026104148
3	0x3e13f652	0.14449432
4	0x3e1a719e	0.15082404
5	0xbbaf4f80	-0.0053500533
6	0x3d553c78	0.05205962
7	0x3d80c74a	0.06288011
8	0x3c2f8c30	0.010714576
9	0x3da09b73	0.078421496
10	0xbc9ef405	-0.019403467
11	0x3dbc5480	0.091958046
12	0xbe52789c	-0.20553821
13	0x3c9a225f	0.018815218
14	0x3e2026ce	0.15639803
15	0x3e453aa6	0.19260654
16	0xbdfc420d	-0.12317286
17	0xbd39da80	-0.045374393
18	0xbd2e4c6f	-0.04255336
19	0xbda66692	-0.081250325
20	0xbcf45621	-0.029826226
21	0x3dba7a13	0.09105315
22	0x3e6c3872	0.23068407
23	0xbd07ba44	-0.03313662
24	0xbddf5453	-0.109047554
25	0xbb63773e	-0.0034708525
26	0xbe1c4e4c	-0.15264243
27	0xbe0813f4	-0.13288862
28	0xbd5fcce9	-0.054638777
29	0xbc098097	-0.008392475
30	0x3c27b254	0.010235388
31	0x3bc0bc05	0.0058817887

encoder.encoder.1.weight f4 [64, 32]
0	0xbe27c794	-0.16384727
1	0xbdd34374	-0.103156
2	0xbc60976e	-0.013707979
3	0xbe09e2b3	-0.13465385
4	0xbe04cd10	-0.1296885
5	0xbd8c13df	-0.068397276
6	0xbd6c53e2	-0.057697184
7	0xbd86ea7e	-0.065876946
8	0x3ddb5796	0.10710065
9	0x3e2e149a	0.17000046
10	0x3e17a38c	0.14808482
11	0x3b357941	0.002769068
12	0xbd389448	-0.045063287
13	0x3e843016	0.25817937
14	0x3c596d14	0.013270635
15	0x3cfe9105	0.03107501
16	0x3e9e1119	0.3087242
17	0xbdcb513e	-0.09927605
18	0x3e2a8658	0.1665281
19	0xbd551141	-0.052018408
20	0x3e2d0d65	0.16899641
21	0xbe438024	-0.1909185
22	0xbb6b5613	-0.0035909459
23	0x3dcd776d	0.10032544
24	0xbd7b1550	-0.061299622
25	0xbe8cfbb6	-0.2753579
26	0x3df0bd2a	0.1175483
27	0x3e7fbb28	0.24973738
28	0x3d87762c	0.06614336
29	0x3d85bf7a	0.06530662
30	0xbe3dc907	-0.18533717
31	0x3d6e5922	0.058190472
32	0xbe772209	-0.24134077
33	0x3d8879e6	0.06663875
34	0xbb5108ef	-0.0031896194
35	0x3d3cc44e	0.04608565
36	0xbb9d5392	-0.004801222
37	0x3e298afa	0.16556922
38	0xbd2c1350	-0.042010605
39	0xbdcdb2c4	-0.100438625
40	0x3d8fef03	0.0702801
41	0xbd82aeda	-0.063810065
42	0x3e58806a	0.21142736
43	0x3cac8ba1	0.021062674
44	0x3de57529	0.11203987
45	0x3eb64ec7	0.35606977
46	0xbe5b260b	-0.21401231
47	0xbea3803e	-0.3193378
48	0x3e822686	0.25420016
49	0x3eb3d568	0.35123754
50	0xbc01f16e	-0.0079310965
51	0x3e7a0242	0.24414924
52	0xbe00600e	-0.12536642
53	0xbd73c101	-0.059510235
54	0xbe48111b	-0.19537775
55	0xbc8fdefe	-0.017562386
56	0x3970d634	0.0002296798
57	0xbe73c51e	-0.23805663
58	0x3cfa295a	0.030537296
59	0xbdaaedcb	-0.08346137
60	0xbda59bbe	-0.08086346
61	0x3e2d7468	0.16938937
62	0x3b8cf043	0.0043011024
63	0x3dbe094a	0.092791155
64	0x3d2deee9	0.04246417
65	0xbcd1b763	-0.02560014
66	0x3b22917e	0.0024805958
67	0xbe64af87	-0.22332583
68	0xbe8dd8db	-0.2770451
69	0x3e2898c9	0.16464533
70	0xbc417ce6	-0.011809563
71	0x3d6e397f	0.0581603
72	0x3dabe3ee	0.083930835
73	0x3c9cfaa0	0.019162476
74	0x3d72f095	0.05931147
75	0xbcb24470	-0.02176115
76	0x3e7e5e3c	0.24840635
77	0xbc39d28e	-0.011341704
78	0x3b32699c	0.0027223593
79	0xbd933ec7	-0.07189708
80	0x3d0753b8	0.033038825
81	0x3d4498b3	0.047997188
82	0x3c4f40aa	0.012649694
83	0x3dd08080	0.101807594
84	0x3de6a457	0.11261814
85	0x3d963bdc	0.07335636
86	0xbe2a3a93	-0.16623907
87	0xbd3863a3	-0.045016896
88	0x3e6b81fa	0.22998801
89	0xbe842964	-0.2581283
90	0x3d261dcf	0.04055577
91	0xbd9944be	-0.07483815
92	0xbe1b3a26	-0.151589
93	0xbd317701	-0.04332638
94	0x3dbc40ef	0.091920726
95	0xbce51e25	-0.027968476
96	0x3d6c58f3	0.057702016
97	0x3e05ae34	0.13054734
98	0x3d842ca0	0.06453824
99	0x3d88d458	0.06681126
100	0xbe20dd2c	-0.1570937
101	0xbe1be660	-0.152246
102	0x3dbe70ac	0.09298834
103	0x3d7f1bc5	0.062282342
104	0xbd69e2d4	-0.057101086
105	0xbe857ad2	-0.26070267
106	0x3d4c0e2e	0.04981821
107	0x3ca1d158	0.019753143
108	0x3d0d6deb	0.034528654
109	0xbd7dbe47	-0.06194904
110	0xbe827a49	-0.2548392
111	0xbea317b3	-0.3185402
112	0x3ce10e58	0.02747266
113	0xbca044ec	-0.019564115
114	0xbcbbeeef	-0.02294108
115	0xbd47d59f	-0.04878771
116	0xbe818b43	-0.2530156
117	0xbd9b4a4c	-0.075825304
118	0xbda7bff0	-0.08190906
119	0x3d417207	0.047227886
120	0xbd2ab171	-0.041673128
121	0x3d6c6470	0.057712972
122	0x3ea79439	0.32730272
123	0x3c0c665d	0.008569327
124	0x3dfebbc8	0.1243816
125	0x3c591acb	0.013251017
126	0x3e22238b	0.15833871
127	0xbdaf5b6e	-0.08562361
128	0x3e21080d	0.15725727
129	0x3e35fe8f	0.17772888
130	0x3e0c0af6	0.13676056
131	0x3c8e5c96	0.017378133
132	0x3dd0d6a1	0.10197187
133	0x3d932353	0.07184472
134	0x3c4baf1a	0.012431884
135	0xbe2e4d35	-0.1702164
136	0x3e0f3471	0.13984849
137	0xbe0a7afc	-0.13523477
138	0xbbfd2042	-0.0077247927
139	0xbe30e629	-0.17275299
140	0x3ccf8919	0.025333928
141	0x3dcbd7e3	0.099532865
142	0xbe2414f2	-0.16023615
143	0xbe49755c	-0.19673675
144	0x3df411fa	0.11917491
145	0xbd8048f8	-0.06263918
146	0xbd6a6684	-0.057226673
147	0xbcf136db	-0.029445102
148	0xbe0d3131	-0.13788296
149	0xbdc44eb4	-0.09585324
150	0xbdcbe357	-0.09955471
151	0xbdfb3d25	-0.12267522
152	0x3decc0c0	0.11560202
153	0xbdb23b3c	-0.08702704
154	0x3d953943	0.072863124
155	0x3d90b1e4	0.0706518
156	0x3d88ba8e	0.066762075
157	0xbe1b41f1	-0.15161873
158	0xbd218af4	-0.039439157
159	0xbdbbcb45	-0.0916963
160	0xbd064182	-0.032777317
161	0x3e409d62	0.18810037
162	0x3e0ad31d	0.13557096
163	0x3dac1338	0.08402103
164	0xbca7c66b	-0.020480355
165	0x3d4607b4	0.04834719
166	0x3d3b1b46	0.045680307
167	0xbd0eb550	-0.03484088
168	0x3c9b217f	0.01893687
169	0xbe2b2bfb	-0.16715996
170	0xbc6d9c65	-0.014502619
171	0xbc4cdfdb	-0.012504543
172	0xbd266f63	-0.04063357
173	0xbc587f99	-0.013214015
174	0x3d48379f	0.04888117
175	0xbe0f1569	-0.13973011
176	0xbd70bfb8	-0.058776587
177	0x3e5f5eb3	0.21813469
178	0xbe1b8ab8	-0.15189636
179	0xbadb9508	-0.0016752789
180	0xbd907ecc	-0.070554346
181	0xbd99900c	-0.07498178
182	0x3de69253	0.11258378
183	0x3e0c05f4	0.13674146
184	0xbd6989fc	-0.057016358
185	0x3c8c2f9f	0.017112551
186	0x3da2223e	0.079166874
187	0x3e202b4e	0.1564152
188	0x3cdaa606	0.026690494
189	0x3de0b7b2	0.10972537
190	0x3d997e8d	0.07494841
191	0x3cbb34a7	0.022852255
192	0x3e7b5b98	0.24546659
193	0xbc26eb34	-0.010187913
194	0x3e387af9	0.1801566
195	0x3d2127c6	0.03934457
196	0x3dc086b3	0.09400692
197	0x3c9613d2	0.018319998
198	0xbd9c2670	-0.07624519
199	0xbda440e2	-0.08020188
200	0x3cd76f33	0.026298141
201	0x3c853ca3	0.016264265
202	0xbc23cd52	-0.009997683
203	0xbd5ace29	-0.053419266
204	0x3e54e952	0.2079213
205	0xbdd891bc	-0.105746716
206	0xbe1b7b4a	-0.1518375
207	0xbd9df008	-0.07711798
208	0xbb7e8fdf	-0.0038843078
209	0x3e0acda8	0.13555014
210	0x3e48eb03	0.196209
211	0x3d7a4d5f	0.061108943
212	0x3e28b50e	0.16475317
213	0x3e0fcb5b	0.14042418
214	0xbe52372c	-0.20528859
215	0x3e0e3837	0.13888632
216	0x3c385b22	0.0112521965
217	0x3c93b568	0.018030837
218	0x3db8710c	0.09005937
219	0x3d03fe6b	0.032225054
220	0xbddf5ad5	-0.10905997
221	0xbe1eda0e	-0.15512869
222	0x3db10a0e	0.08644496
223	0xbe48168a	-0.19539848
224	0xbdcb4451	-0.0992514
225	0x3e24d1f9	0.16095723
226	0xbe0537ef	-0.13009618
227	0xbe4542db	-0.19263785
228	0xbd6d69d8	-0.05796227
229	0x3b87a012	0.004138955
230	0xbd95c2f4	-0.07312575
231	0xbd3fa506	-0.046788238
232	0xbe017e97	-0.12645946
233	0x3da807a3	0.082045816
234	0x3d83bfa9	0.06433041
235	0xbcd54568	-0.026034072
236	0x3e319f51	0.1734593
237	0xbdc6c9bb	-0.09706446
238	0x3c9f48c9	0.019443886
239	0x3de386d9	0.111097045
240	0xbce34f30	-0.02774772
241	0x3e5af542	0.21382621
242	0xbd042927	-0.03226581
243	0x3d205d84	0.039151683
244	0xbdcb5ed8	-0.099301994
245	0x3e068d46	0.13139829
246	0xbe227817	-0.15866123
247	0x3e3d6d17	0.18498646
248	0x3e531ede	0.20617244
249	0xbc8cd385	-0.017190704
250	0x3e5e26f0	0.21694541
251	0x3d3dfab3	0.046381664
252	0x3d4c5ca2	0.04989303
253	0xbe8564a3	-0.26053342
254	0xbe2fc99d	-0.17166753
255	0xbdb817bb	-0.08988901

encoder.encoder.1.bias f4 [64]
0	0xbdfe2e83	-0.12411215
1	0xbda321bf	-0.07965421
2	0xbe44901e	-0.19195601
3	0xbe0c311e	-0.13690612
4	0xbe33925e	-0.17536303
5	0x3d9f0f0d	0.077665426
6	0xbe4442e1	-0.19166137
7	0xbe939342	-0.28823286
8	0xbc86a5b6	-0.016436439
9	0xbe999c7f	-0.3000221
10	0xbcf14636	-0.029452424
11	0xbdd8785b	-0.10569831
12	0xbe792418	-0.24330175
13	0x3e1af2a3	0.15131621
14	0xbe531b8d	-0.20615979
15	0xbe61014a	-0.21973148
16	0x3d3e3acb	0.046442788
17	0x3dc030f8	0.0938434
18	0xbe9a35d8	-0.30119205
19	0xbdd26efe	-0.10275076
20	0x3d2b7d98	0.041867822
21	0xbe61f75d	-0.22067018
22	0xbe5143b3	-0.20435981
23	0x3ccedd99	0.02525215
24	0xbc67c55a	-0.014146173
25	0xbe0b46af	-0.13601182
26	0xbe6b7676	-0.22994408
27	0xbe69036c	-0.22755212
28	0xbe313788	-0.1730634
29	0xbe406011	-0.18786646
30	0x3dd14122	0.10217501
31	0xbe0947ae	-0.1340625
32	0xbbe0137e	-0.006838261
33	0xbe833415	-0.25625673
34	0x3d428fa0	0.047500253
35	0xbe3086de	-0.17238948
36	0x3cfb3cc0	0.030668616
37	0xbd34d701	-0.044150356
38	0xbc509acf	-0.012732222
39	0xbe21a6ba	-0.15786257
40	0x3dd7b6c2	0.10532905
41	0xbe685555	-0.22688802
42	0xbe6bf6ec	-0.23043412
43	0x3cef8867	0.029239846
44	0xbd7fc3d2	-0.06244261
45	0xbe89f30e	-0.2694325
46	0xbdc166a5	-0.09443406
47	0xbe677e80	-0.2260685
48	0x3da199bf	0.07890653
49	0xbe525cad	-0.20543166
50	0xbe586032	-0.21130446
51	0xbe014dee	-0.12627384
52	0xbe8e7399	-0.2782257
53	0xbda635d4	-0.08115736
54	0xbda25245	-0.07925848
55	0x3dd6f74b	0.10496386
56	0xbe34423d	-0.17603393
57	0xbe33daca	-0.1756393
58	0xbdea9776	-0.1145467
59	0xbdff7cc2	-0.124749675
60	0xbe783335	-0.24238284
61	0xbd971365	-0.07376746
62	0xbd28b593	-0.041188788
63	0xbe66dfcd	-0.2254631

encoder.encoder.3.weight f4 [20, 64]
0	0xbd7bfeb7	-0.061522212
1	0xbd5af7f0	-0.053459108
2	0xbc9f48be	-0.019443866
3	0xbd80f48b	-0.06296643
4	0xbd07d149	-0.033158574
5	0x3cc0dd52	0.023543034
6	0xbd06dd5b	-0.032925945
7	0xbd717db1	-0.05895776
8	0x3d4080c7	0.04699781
9	0xbdf3d3cf	-0.11905634
10	0x3e130bb1	0.14359929
11	0x3e507675	0.20357688
12	0xbd2b13ad	-0.04176681
13	0x3e7a58d5	0.24447949
14	0xbd2f4512	-0.04279048
15	0x3ccd871e	0.025088843
16	0x3c1a5eaf	0.009421988
17	0x3cd7952e	0.026316252
18	0x3e10fff9	0.14160146
19	0xbdaf75e0	-0.08567405
20	0xbdf07f6c	-0.11743054
21	0x3e458b42	0.19291404
22	0x3cb64ce6	0.022253465
23	0xbe4aab33	-0.1979187
24	0xbe00b90f	-0.12570594
25	0x3e137d3a	0.14403239
26	0xbc5f8477	-0.013642422
27	0xbc4ce1c1	-0.012504996
28	0xbd5cfaba	-0.05395005
29	0xbe87f7ab	-0.26556143
30	0x3bca0ada	0.0061658444
31	0xbc8086f3	-0.015689349
32	0x3d12608d	0.03573661
33	0xbe012881	-0.12613107
34	0xbd8d9e8b	-0.06915005
35	0xbe078b84	-0.13236815
36	0xbe3027bf	-0.17202662
37	0xbd9af16a	-0.07565577
38	0x3d2b0692	0.041754313
39	0x3e1dbd38	0.15404212
40	0xbc48df3d	-0.012260255
41	0x3d6a0d89	0.057141814
42	0x3d92460e	0.07142268
43	0x3d8cf9a9	0.068835564
44	0xbe47ec93	-0.1952384
45	0x3cd19390	0.025583059
46	0xbd128d36	-0.0357792
47	0xbe0aa0d9	-0.13537921
48	0x3d5d5b5c	0.054042205
49	0x3b659338	0.0035030376
50	0xbe0683e4	-0.1313625
51	0x3dbd3234	0.09238091
52	0xbdb011aa	-0.08597119
53	0xbc2a83f8	-0.01040744
54	0x3e0ff6d5	0.14059003
55	0x3d30de75	0.0431809
56	0x3cff6af5	0.03117893
57	0x3dd9689a	0.10615654
58	0xbd952047	-0.07281547
59	0xbe0a803b	-0.13525479
60	0xbd573ac8	-0.052546293
61	0xbe4c7dab	-0.19969814
62	0xbddf5438	-0.10904735
63	0xbd7f32ec	-0.062304422
64	0xbdefe748	-0.11714035
65	0xbd45b0d6	-0.048264347
66	0xbd599e90	-0.053129733
67	0xbdb55efc	-0.088560075
68	0xbd5cff64	-0.053954497
69	0x3d7bc8ff	0.06147098
70	0xbc09b6fb	-0.008405442
71	0xbd9f50ce	-0.07779084
72	0x3d3a505f	0.045486804
73	0x3e710d9f	0.23540352
74	0xbe2165f0	-0.15761542
75	0x3d62176d	0.05519812
76	0xbba26296	-0.0049556
77	0xbe5ecefd	-0.21758647
78	0xbdaeab67	-0.08528786
79	0x3dc9bed9	0.098508544
80	0x3d855289	0.06509883
81	0x3df0cf2f	0.11758267
82	0xbdab5c3c	-0.08367202
83	0x3cd86ee1	0.026420059
84	0x3e46a6ba	0.19399539
85	0xbe15a3ad	-0.14613219
86	0xbc5dbb25	-0.013533388
87	0x3e21e625	0.1581045
88	0xbd560374	-0.052249387
89	0xbe46b568	-0.19405138
90	0x3c787ec3	0.015166941
91	0x3e08d4be	0.13362405
92	0xbe1fa8cf	-0.15591739
93	0x3d93c13e	0.072145924
94	0xbe1d5db5	-0.15367778
95	0x3de5ad94	0.11214748
96	0x3e6c823a	0.23096552
97	0xbe3ea976	-0.18619332
98	0xbe06f22c	-0.13178319
99	0x3db2961b	0.087200366
100	0xbe374382	-0.17896846
101	0xbe88846a	-0.26663524
102	0x3e9e9373	0.3097187
103	0xbc874978	-0.016514525
104	0xbb0f02a2	-0.0021821638
105	0x3dc3caa7	0.09560137
106	0x3e0cca3a	0.13749018
107	0x3e27ac7e	0.16374394
108	0x3d80273c	0.06257483
109	0x3d26cafc	0.040720925
110	0x3e0764fc	0.13222116
111	0xbd43c2a7	-0.047793057
112	0xbe3d39e1	-0.1847911
113	0x3c2fe706	0.010736233
114	0xbdc7cdfb	-0.097560845
115	0xbe3e7bc5	-0.18601902
116	0xbbe2d566	-0.0069224117
117	0xbd776919	-0.060402963
118	0x3de8d388	0.113684714
119	0x3c6436a9	0.013929048
120	0x3ca3d91e	0.02000099
121	0xbd928a76	-0.071553156
122	0x3cf1ebf1	0.029531451
123	0x3e11b697	0.14229809
124	0x3b89a221	0.0042002355
125	0xbd966c81	-0.07344914
126	0xbdebb3cb	-0.11508902
127	0x3d8ca72f	0.06867825
128	0xbe19788c	-0.14987391
129	0x3e602af6	0.21891388
130	0x3e006b0a	0.12540832
131	0xbd76e851	-0.060280148
132	0x3d89f4d7	0.067361526
133	0x3de97b1e	0.11400436
134	0xbb4cb889	-0.0031237921
135	0xbe8fe7ad	-0.28106442
136	0xbddf0209	-0.1088906
137	0x3d3eec28	0.046611935
138	0x3d8b4032	0.06799354
139	0x3d8a8d26	0.06765203
140	0xbd8b5230	-0.068027854
141	0xbd936c03	-0.07198336
142	0x3dcabed7	0.09899681
143	0x3dd9cd02	0.10634805
144	0x3e2fc9f9	0.1716689
145	0x3d46c772	0.04853005
146	0x3d587c04	0.052852646
147	0xbce56f54	-0.028007187
148	0x3e078f30	0.13238215
149	0x3d36eba2	0.04465831
150	0x3d5c0d98	0.0537239
151	0xbdd13c8c	-0.102166265
152	0x3d8f92fd	0.07010458
153	0xbcaf0cfc	-0.021368496
154	0x3ce18abb	0.027531972
155	0xbcdfaa37	-0.027302844
156	0x3d29fa5f	0.041498538
157	0x3e44d70c	0.19222659
158	0xbde5b773	-0.11216631
159	0x3e35b381	0.17744257
160	0xbd97e7f8	-0.074172914
161	0xbe8ce04b	-0.27514872
162	0xbe41c8e1	-0.18924285
163	0x3d9d4a4e	0.07680188
164	0xbbe2efb5	-0.006925548
165	0x3d37f80e	0.044914298
166	0x3e9a4649	0.30131748
167	0x3c48cf40	0.0122564435
168	0xbdbf6340	-0.09345102
169	0x3e27612d	0.16345663
170	0x3e527ea3	0.2055612
171	0xbd17f2f1	-0.03709692
172	0x3d723bf0	0.059139192
173	0xbda8e995	-0.08247677
174	0x3d029d5d	0.031888355
175	0x3da7a65f	0.0818603
176	0xbcc23510	-0.023706943
177	0xbe4447d8	-0.19168031
178	0xbda1b79b	-0.07896348
179	0xbe113495	-0.14180215
180	0x3ddae4b3	0.10688152
181	0xbb25482a	-0.0025220015
182	0x3b0ba8b5	0.0021310274
183	0x3cbc8e0d	0.023016954
184	0xbcae331d	-0.021264607
185	0x3e241d67	0.16026841
186	0x3d2b159f	0.041768666
187	0xbc5b1592	-0.013371842
188	0xbdbb0ed7	-0.0913369
189	0xbe5b7923	-0.21432929
190	0xbbed20e3	-0.0072365864
191	0xbc6c0e0d	-0.014407647
192	0xbc089511	-0.008336321
193	0x3d71e633	0.059057426
194	0xbd9f081c	-0.077652186
195	0x3cc545c5	0.02408112
196	0x3d804b32	0.06264342
197	0xbd0a4ff4	-0.033767655
198	0xbd0dbf67	-0.034606364
199	0x3e2cac69	0.16862644
200	0xbc9ffee1	-0.019530715
201	0x3e4160c7	0.18884574
202	0xbba32c68	-0.004979659
203	0x3da19f45	0.078917064
204	0x3d8779cd	0.066150285
205	0x3deeefec	0.11666855
206	0xbdd6a463	-0.10480573
207	0xbce23245	-0.027611861
208	0xbd548569	-0.051885042
209	0xbd2dd6bd	-0.04244112
210	0x3d1dfe5c	0.038572654
211	0xbd88ec71	-0.066857226
212	0x3d0a85f8	0.03381917
213	0x3e372367	0.17884599
214	0xbd1f9122	-0.03895677
215	0xbe5b93d4	-0.2144311
216	0xbcb7748f	-0.022394447
217	0xbd44aa1c	-0.04801379
218	0x3db1c437	0.08680003
219	0xbd64c288	-0.055849582
220	0xbca7afd4	-0.020469584
221	0x3d0bbc60	0.034115195
222	0xbd28e9e0	-0.041238666
223	0x3d010a45	0.031503934
224	0xbe586443	-0.21131997
225	0xbd7b15e8	-0.06130019
226	0x3db7f48d	0.08982191
227	0xbd181dba	-0.037137724
228	0xbe1631a8	-0.1466738
229	0xbb39dfd1	-0.0028362165
230	0xbd250995	-0.04029234
231	0xbcc54b80	-0.024083853
232	0xbd4a0eb2	-0.04933042
233	0x3d0ed715	0.034873087
234	0xbe570b14	-0.2100032
235	0x3da223dd	0.07916997
236	0x3d9ebb59	0.077505775
237	0x3d2b114b	0.04176454
238	0xbba050db	-0.004892451
239	0xbd364aae	-0.044504814
240	0x3e13c717	0.14431415
241	0xbdc1898f	-0.09450065
242	0x3a8a8801	0.0010569097
243	0x3e54cce8	0.2078129
244	0xbe5b25b4	-0.21401101
245	0x3d6a2f8b	0.057174247
246	0xbd2cb4a6	-0.042164467
247	0x3cf071ac	0.029351078
248	0x3a41b204	0.0007388892
249	0x3e3da98d	0.1852171
250	0xbd9380c4	-0.072022945
251	0xbce8bdb6	-0.028410774
252	0x3d07a3c2	0.033115156
253	0xbdbd1636	-0.09232752
254	0x3e208456	0.15675482
255	0x3e5d6b62	0.21622995

encoder.encoder.3.bias f4 [20]
0	0xbdd06d16	-0.101770565
1	0xbe2b501a	-0.16729775
2	0xbe6fd513	-0.23421125
3	0xbd913133	-0.07089462
4	0xbe5ade7b	-0.21373932
5	0xbdfd3617	-0.123638324
6	0xbd99acd2	-0.07503666
7	0xbce53eb3	-0.027983999
8	0xbe12bdf3	-0.14330272
9	0x3d87d0f7	0.06631654
10	0xbd6ea047	-0.05825832
11	0xbe8c7fd8	-0.27441287
12	0x3ba8392b	0.005133768
13	0x3deb6066	0.11492996
14	0xbc033732	-0.008008765
15	0x3db6c64b	0.0892454
16	0xbdf4200f	-0.11920177
17	0xbde9fc3a	-0.114250615
18	0xbe1191b2	-0.14215735
19	0x3d1aa9a7	0.03775945

model.0.weight f4 [32, 20]
0	0x3e88a5e5	0.26689067
1	0x3dd53eac	0.10412344
2	0x3c425a5c	0.011862364
3	0x3e4df9b5	0.20114787
4	0x3ce9f70d	0.028560186
5	0x3c607ed4	0.013702113
6	0x3dd39212	0.10330595
7	0x3e42ea9e	0.19034812
8	0x3e154d7e	0.14580342
9	0x3dea6537	0.114450864
10	0x3ddd2786	0.10798554
11	0x3e8421fe	0.25807184
12	0x398839e5	0.00025983076
13	0x3cf8930e	0.030343559
14	0xbdcabb16	-0.09898965
15	0xbddd5f51	-0.10809196
16	0xbd2b7e96	-0.04186877
17	0xbe8692b9	-0.26283816
18	0x3dda71b9	0.10666222
19	0x3b9d6d9f	0.0048043276
20	0x3da689f6	0.08131783
21	0xbdad7431	-0.084694274
22	0x3cd1dfdc	0.02561944
23	0xbdd5a6ed	-0.10432229
24	0x3e80d568	0.25162816
25	0x3d01d7c6	0.03169992
26	0x3da7125d	0.081577994
27	0x3e251c69	0.16124119
28	0x3e990cac	0.2989248
29	0xbd28e212	-0.041231222
30	0x3e571188	0.21002781
31	0x3c517093	0.012783187
32	0xbeae2fba	-0.34020787
33	0x3dbede87	0.093197875
34	0x3de37e34	0.11108056
35	0xbc04608f	-0.008079662
36	0x3e5468a8	0.20743048
37	0x3dc80b26	0.097677514
38	0x3dad177a	0.084517434
39	0x3e3933e9	0.18086208
40	0x3e810111	0.25196126
41	0x3e041845	0.12899883
42	0xbd54f473	-0.051990937
43	0xbe7d0793	-0.2470992
44	0xbcdcef24	-0.0269695
45	0xbe1c7c7e	-0.15281865
46	0x3e83788f	0.25677916
47	0xbd885b35	-0.06658021
48	0x3ea64304	0.32473004
49	0x3e81af02	0.25328833
50	0x3e0a7885	0.13522537
51	0x3ddf575a	0.10905333
52	0xbe0f9d4c	-0.14024848
53	0xbd067ab2	-0.032831855
54	0x3e79f445	0.24409588
55	0xbd68b2e5	-0.056811232
56	0x3ea26466	0.31717223
57	0xbda4f321	-0.08054186
58	0x3eb56451	0.35428098
59	0x3cde2d52	0.02712122
60	0xbd0c2ac0	-0.034220457
61	0x3e80406c	0.2504915
62	0x3ce60851	0.028080137
63	0xbe632fb3	-0.22186165
64	0x3d7d4662	0.0618347
65	0x3d350bd3	0.04420073
66	0x3e0b45da	0.13600865
67	0xbd992d49	-0.074793406
68	0x3c8c288c	0.017109178
69	0x3cc358f8	0.023846135
70	0x3d018ab7	0.03162643
71	0x3e1c62c4	0.15272051
72	0x3d97bffa	0.074096635
73	0x3d1ff3e2	0.039050944
74	0x3e042055	0.12902959
75	0xbe2c1d86	-0.16808137
76	0x3bd3eed0	0.0064676777
77	0xbde192fb	-0.110143624
78	0x3e45b371	0.19306733
79	0xbc4264f8	-0.011864893
80	0xbdcb8794	-0.09937969
81	0x3da65756	0.08122127
82	0x3e54ba3e	0.20774171
83	0x3cb012f0	0.021493405
84	0xbc11dcba	-0.008902723
85	0xbde8123f	-0.11331605
86	0xbe3d15ea	-0.18465391
87	0xbdb75c76	-0.089531824
88	0x3ef76e88	0.48326516
89	0x3e5ffa55	0.21872838
90	0x3dfca91c	0.123369426
91	0x3e13b5c6	0.1442481
92	0xbe7be093	-0.24597387
93	0xbde07cc0	-0.10961294
94	0x3dc6ab6c	0.09700665
95	0xbe8a98db	-0.27069744
96	0x3e2829e7	0.16422234
97	0x3d054e43	0.03254534
98	0x3edba564	0.4289962
99	0x3d8fee92	0.070279256
100	0x3d00120f	0.031267222
101	0x3e181df8	0.14855182
102	0x3db4d8b9	0.08830399
103	0xbec6f375	-0.38857618
104	0x3e1f0b31	0.15531613
105	0x3d3b8abc	0.045786604
106	0x3d9af06c	0.07565388
107	0xbd3f94ff	-0.046772953
108	0x3ead0f06	0.33800524
109	0x3e54cfe9	0.20782436
110	0x3db17f4e	0.086668596
111	0x3e5cd804	0.21566778
112	0x3ebfc877	0.3745763
113	0x3d6dbd8c	0.058042094
114	0x3e4f5027	0.2024542
115	0xbe71d189	-0.23615088
116	0x3ca5fe0b	0.020262739
117	0x3bf814b5	0.007570828
118	0x3ee852b6	0.45375603
119	0x3d7f1b44	0.062281862
120	0x3dbc1422	0.091835275
121	0xbd300f78	-0.042983502
122	0x3d07ea2c	0.033182308
123	0xbdab9aab	-0.0837911
124	0x3d27b54a	0.040944375
125	0xbe7e65db	-0.24843542
126	0x3d9acfc6	0.07559161
127	0x3db1026e	0.086430416
128	0x3e25df1d	0.16198392
129	0xb9e3040e	-0.00043299835
130	0x3d1d7a4c	0.03844671
131	0x3cdf8618	0.02728562
132	0x3c9ab17a	0.018883456
133	0xbd6a92e7	-0.057269003
134	0xbda3d694	-0.07999912
135	0xbe13173c	-0.14364332
136	0x3ddc0986	0.10744004
137	0x3d216724	0.039405003
138	0x3e63abdb	0.22233526
139	0xbda9cb92	-0.08290781
140	0xbda5d6d5	-0.080976166
141	0xbb696bf6	-0.0035617328
142	0xbd19b7b9	-0.037528727
143	0xbe1615a4	-0.14656693
144	0x3d022bf6	0.031780206
145	0x3c4d19e9	0.0125183845
146	0xbcc81114	-0.024422206
147	0x3d5d720b	0.054063838
148	0xbde4a3f1	-0.11164082
149	0xbe0d7a1a	-0.1381611
150	0x3d676050	0.056488335
151	0xbe637153	-0.22211199
152	0xbe44dae8	-0.19224131
153	0x3e28cded	0.16484804
154	0xbe4ccf40	-0.20000935
155	0x3df91147	0.121614985
156	0x3e468831	0.1938789
157	0x3d80177a	0.06254478
158	0xbe3cd6b2	-0.18441275
159	0xbdb59d76	-0.08867924
160	0x3e1b9b32	0.15195921
161	0x3daf20c8	0.085511744
162	0xbd1a728b	-0.037706893
163	0x3df5f587	0.12009721
164	0x3ec4a6e7	0.38408586
165	0xbe6a1222	-0.2285848
166	0xbe2acf8d	-0.16680737
167	0xbd7bff8a	-0.061522998
168	0xbd04f3db	-0.03245912
169	0x3e3a1042	0.18170264
170	0xbe41696b	-0.1888787
171	0x3e42979c	0.19003147
172	0x3cfcb517	0.03084807
173	0xbd95793a	-0.07298513
174	0x3db0503c	0.086090535
175	0xbe086643	-0.1332026
176	0x3ce0f04a	0.027458329
177	0xbec7109a	-0.38879853
178	0x3e87f38a	0.26552993
179	0xbe5483cb	-0.207534
180	0x3dbc975d	0.09208558
181	0xbcfb34ee	-0.030664887
182	0xbd7761f2	-0.060396142
183	0x3e48c4d1	0.1960633
184	0x3d9fd2de	0.078038916
185	0x3cf5c8bb	0.030002942
186	0xbe0a7d04	-0.13524252
187	0x3d6bb4f4	0.057545617
188	0x3e516633	0.20449142
189	0x3e12898d	0.14310284
190	0xbdf9232d	-0.121649124
191	0xbe065ffc	-0.13122553
192	0xbd26a3f7	-0.040683713
193	0x3e149d61	0.1451316
194	0xbb819316	-0.0039543016
195	0x3e0e2b32	0.13883665
196	0xbcbc5489	-0.022989528
197	0xbea01692	-0.3126722
198	0x3e866451	0.2624841
199	0xbd572cb8	-0.05253288
200	0xbd168867	-0.036751177
201	0x3c887b29	0.01666029
202	0x3e4a4704	0.19753653
203	0xbd135522	-0.03596986
204	0xbd82973d	-0.06376503
205	0xbddeac6a	-0.10872729
206	0x3e120f26	0.14263591
207	0x3e843f0e	0.25829357
208	0x3e44d410	0.1922152
209	0x3e2dc5ef	0.16970037
210	0xbe39b44b	-0.18135183
211	0x3e100d58	0.1406759
212	0xbe03ee30	-0.1288383
213	0x3e481338	0.19538581
214	0x3e6b69ca	0.22989574
215	0x3d9830ca	0.07431181
216	0xbd817644	-0.063213855
217	0xbe5f6fc1	-0.21819974
218	0x3e989f6b	0.29809126
219	0xbe34f5e7	-0.1767193
220	0x3db59921	0.08867098
221	0x3e67d765	0.2264076
222	0x3ec32c05	0.38119522
223	0x3e66c91a	0.22537652
224	0x3e691275	0.22760947
225	0xbda922b4	-0.08258572
226	0x3ec6d7c0	0.3883648
227	0x3dddfb99	0.10839004
228	0x3e925066	0.28576964
229	0x3dc53739	0.096296735
230	0x3da4ae2c	0.08041033
231	0x3dd6b4d4	0.10483709
232	0x3e365c47	0.17808639
233	0xbe17ef56	-0.14837393
234	0x3daf785b	0.08567878
235	0x3e115f47	0.14196502
236	0x3c6031b7	0.013683728
237	0x3cf43620	0.029810965
238	0x3ebda32d	0.37038556
239	0x3e97723b	0.29579338
240	0xbe276481	-0.16346933
241	0x3e8dc3fa	0.2768858
242	0x3db7eac3	0.08980324
243	0x3c57c746	0.013170069
244	0xbd92a263	-0.07159879
245	0x3d494a60	0.049143195
246	0x3e2f9609	0.17147078
247	0xbdd5834a	-0.10425432
248	0xbc966205	-0.018357286
249	0x3cc22704	0.023700245
250	0x3c998a86	0.018742811
251	0x3cc8fa5b	0.024533441
252	0xbded8fa2	-0.115996614
253	0xbde18dd5	-0.110133804
254	0x3e112aea	0.14176527
255	0x3da12951	0.078692086

model.0.bias f4 [32]
0	0xbe6ef6bb	-0.23336308
1	0x3c84d9c0	0.016217113
2	0x3e1f0ade	0.15531489
3	0xbe3080af	-0.17236589
4	0xbd44aefc	-0.04801844
5	0xbe059f74	-0.13049108
6	0xbe418286	-0.18897447
7	0x3e3d2298	0.18470228
8	0xbe9691cd	-0.29408112
9	0x3dc80f5a	0.09768553
10	0xbdea0bed	-0.11428056
11	0xbe17a9b6	-0.14810833
12	0xbd22a5ff	-0.039709087
13	0xbeb4564c	-0.3522209
14	0xbe1102f0	-0.14161277
15	0xbe26b19b	-0.16278689
16	0xbd7f74ef	-0.062367376
17	0x3d47ed06	0.048810028
18	0xbe83e55c	-0.25760925
19	0xbe7f40f0	-0.24927115
20	0xbc31b256	-0.010845741
21	0xbe0b9639	-0.13631524
22	0xbe5f1824	-0.21786553
23	0xbe8f6448	-0.28006196
24	0x3e50e2ea	0.20399061
25	0x3e256cfc	0.16154855
26	0x3dd748e3	0.10511949
27	0xbe421547	-0.18953429
28	0xbe904dd2	-0.28184372
29	0xbd9587b8	-0.07301277
30	0xbe97e1e8	-0.2966454
31	0x3e9c991b	0.3058556

model.2.weight f4 [64, 32]
0	0x3dd49cdc	0.10381481
1	0x3decbb6c	0.115591854
2	0xbe311e9f	-0.17296837
3	0x3d9b2b92	0.0757667
4	0xbd917faa	-0.07104428
5	0x3ee201b7	0.44141933
6	0x3e36b187	0.17841159
7	0xbb86cb47	-0.004113588
8	0x3d27ed22	0.04099763
9	0xbc138def	-0.009006008
10	0x3ddc3971	0.107531436
11	0x3d9a497c	0.07533547
12	0xbe6c390d	-0.23068638
13	0x3db54838	0.08851665
14	0x3e926cb1	0.2859855
15	0xbd176dd5	-0.03696998
16	0x3e9fad11	0.31186727
17	0xbe68a554	-0.22719318
18	0x3cc68ec8	0.024238005
19	0xbd74f251	-0.059801403
20	0x3ee75b3c	0.45186794
21	0xbe40141e	-0.18757674
22	0x3dd21f2f	0.10259854
23	0x3d07ce3f	0.033155676
24	0xbdc1bfa3	-0.0946038
25	0xbee8d139	-0.45472124
26	0xbe7ac319	-0.24488486
27	0xbd353789	-0.044242416
28	0x3e905049	0.28186253
29	0xbe5b760c	-0.2143175
30	0xbe83b39d	-0.25722972
31	0xbe3b1e6f	-0.18273328
32	0xbd63b8e8	-0.055596262
33	0x3c983d0e	0.0185838
34	0x3e369408	0.17829907
35	0x3e87383e	0.26410097
36	0x3d92e1a7	0.07171946
37	0x3e338f05	0.17535026
38	0x3e18e6c4	0.1493178
39	0xbe1597c9	-0.14608683
40	0xbd7efdd6	-0.062253796
41	0xbe8c472c	-0.2739805
42	0xbd741fdb	-0.059600692
43	0x3e2ecddf	0.17070721
44	0x3db4046b	0.08789905
45	0xba6df798	-0.0009077727
46	0x3db481b7	0.08813804
47	0xbd9a1888	-0.0752421
48	0x3d06b6d9	0.03288922
49	0x3c2f0edc	0.010684695
50	0x3cd35304	0.02579642
51	0x3dc74fe6	0.09732036
52	0x3e32563f	0.17415713
53	0x3b9d299f	0.0047962214
54	0x3d6cc167	0.05780163
55	0x3eb9ab13	0.36263332
56	0xbe4d226e	-0.20032665
57	0xbd8b16c5	-0.06791452
58	0x3d6b61bd	0.057466257
59	0x3e03c233	0.1286705
60	0x3e49be06	0.19701394
61	0x3e30b803	0.17257695
62	0xbdf811eb	-0.121127926
63	0xbe04fff1	-0.12988259
64	0x3dbe5431	0.09293402
65	0xbd4501b6	-0.048097335
66	0x3e12051f	0.14259766
67	0x3e5d9f95	0.21642907
68	0x3e8a14d7	0.26969025
69	0x3c4cec75	0.012507548
70	0xbc9af0b2	-0.0189136
71	0xbeae53c2	-0.34048277
72	0xbe8893d8	-0.26675296
73	0x3d852639	0.06501431
74	0xbe1d7565	-0.15376814
75	0x3dd5693f	0.10420465
76	0xbc9b7c19	-0.018980073
77	0x3da7d197	0.08194273
78	0x3d8a548e	0.06754409
79	0x3d2d6310	0.0423308
80	0x3c5922c2	0.013252916
81	0xbe5c7942	-0.21530631
82	0xbe0bb398	-0.13642728
83	0x3e1b5fa2	0.151732
84	0x3e2d509b	0.1692528
85	0xbd118e78	-0.03553626
86	0xbe0dff41	-0.13866903
87	0x3e82f01c	0.25573814
88	0xbe02d4db	-0.1277651
89	0xbdfb8982	-0.12282087
90	0xbe0ab9a2	-0.13547376
91	0x3e343fac	0.17602414
92	0x3e0d2afd	0.1378593
93	0xbeb52f52	-0.35387665
94	0xbe17acb1	-0.1481197
95	0xbd6a5108	-0.057206184
96	0xbe510aa4	-0.20414215
97	0x3e710fa3	0.23541121
98	0x3bb5735e	0.0055374345
99	0xbe37ff73	-0.1796854
100	0x3e1d5411	0.153641
101	0x3dc4ec93	0.096154355
102	0xbc9e91e4	-0.019356675
103	0xbdc53596	-0.09629361
104	0xbdd4ee1c	-0.10396978
105	0xbddee877	-0.10884183
106	0x3d803701	0.06260491
107	0x3e712844	0.23550516
108	0x3ca89384	0.020578153
109	0x3d865283	0.065587066
110	0x3ca6e0d7	0.020370884
111	0x3d86723e	0.06564759
112	0x3c9cd54c	0.019144677
113	0x3ce1a41e	0.027544077
114	0x3c4974d1	0.012295918
115	0xbdfba113	-0.12286582
116	0x3c47824d	0.012177062
117	0xbbbab075	-0.005697305
118	0x3d1eb696	0.038748346
119	0x3e7e03b6	0.24806103
120	0xbb707a2a	-0.003669391
121	0xbddba7de	-0.107253775
122	0x3eabf86a	0.33587962
123	0x3e7be55a	0.2459921
124	0x3ebf2589	0.37333325
125	0x3cf22a0b	0.029561063
126	0xba881450	-0.001038203
127	0xbe5125f6	-0.20424637
128	0xbba303fb	-0.0049748397
129	0x3ee392f9	0.4444807
130	0x3ddaac75	0.10677425
131	0x3e42a507	0.19008265
132	0x3e58e1aa	0.21179834
133	0x3e4c73d8	0.19966066
134	0x3de9c890	0.114152074
135	0xbdcdb7d0	-0.10044825
136	0xbe83ddea	-0.25755244
137	0xbdc82ff2	-0.0977477
138	0xbe25beb6	-0.16186032
139	0x3e08a3e0	0.13343763
140	0xbda8da8f	-0.08244812
141	0xbdbe528e	-0.0929309
142	0x3d910668	0.070813
143	0x3bc46d3a	0.005994466
144	0x3dcd0e9c	0.10012552
145	0xbe642410	-0.22279382
146	0xbc8cce9d	-0.017188365
147	0xbcc88dff	-0.024481772
148	0x3ceb3dd3	0.028716004
149	0x3c4290c9	0.01187534
150	0x3dc54426	0.09632139
151	0x3db26cb7	0.08712142
152	0xbd01bcbb	-0.031674128
153	0x3d007827	0.031364586
154	0x3c8f8c9d	0.017523104
155	0xbdc1d788	-0.094649374
156	0x3da8984d	0.08232174
157	0xbde0ea2b	-0.10982164
158	0xbd221740	-0.039572954
159	0xbdaefe81	-0.085446365
160	0xbcd2aa42	-0.02571595
161	0x3d809b92	0.06279673
162	0xbd28a66d	-0.04117434
163	0xbcbe455d	-0.023226434
164	0x3e32ab72	0.17448214
165	0xbbaebc10	-0.0053324774
166	0x3de78c1d	0.11306021
167	0xbd80cdcf	-0.06289255
168	0x3cb1c713	0.021701371
169	0xbd910a14	-0.070820004
170	0xbd183750	-0.037162125
171	0x3e9717a9	0.2951024
172	0xbcb38159	-0.021912264
173	0x3e57d4da	0.2107729
174	0x3bdb43cc	0.0066914316
175	0xbd19b9d1	-0.037530724
176	0x3eca43ea	0.3950494
177	0x3e2c9078	0.16851985
178	0x3c2edfca	0.010673473
179	0x3c3539ee	0.011061175
180	0xbd744193	-0.05963285
181	0x3ec55450	0.38540888
182	0xbd72f422	-0.059314854
183	0x3abb6c48	0.0014299238
184	0xbd5140e9	-0.051087294
185	0xbdd138a5	-0.10215882
186	0x3c75b1a6	0.014995968
187	0x3dbda13e	0.0925927
188	0x3e3f368b	0.1867315
189	0xbdc3fd33	-0.09569778
190	0x3e14c4e1	0.14528228
191	0xbec0c7ee	-0.37652534
192	0xbe47a7a4	-0.19497544
193	0x3dc52020	0.09625268
194	0x3c6c2e34	0.014415313
195	0x3dc39af8	0.09551042
196	0x3e25e289	0.16199698
197	0x3e43842c	0.19093388
198	0xbceef34c	-0.029168747
199	0xbd87369b	-0.06602212
200	0xbeb398a9	-0.35077408
201	0xbf14a019	-0.5805679
202	0x3d9c3a71	0.07628334
203	0x3c3045c1	0.010758818
204	0xbda58777	-0.080824785
205	0x3e3832ed	0.17988177
206	0x3b8a527e	0.0042212596
207	0xbe60603e	-0.21911713
208	0x3de346bc	0.11097476
209	0xbe378fae	-0.17925903
210	0xbed23a9b	-0.41060337
211	0x3d1123af	0.03543442
212	0xbcbacec6	-0.022803675
213	0x3e05f1c0	0.13080502
214	0x3e2bd46a	0.16780248
215	0x3e32585c	0.17416519
216	0x3de2acc6	0.1106811
217	0xbd730e5a	-0.05933986
218	0x3e4b052b	0.1982619
219	0x3da9e1ca	0.08295019
220	0x3e1f4055	0.15551884
221	0xbe34d6bf	-0.17660044
222	0xbbd7de69	-0.0065877927
223	0xbf3e0d84	-0.74239373
224	0xbba48375	-0.0050205537
225	0x3e586c81	0.21135141
226	0x3e8cab7e	0.27474588
227	0x3e505117	0.20343433
228	0x3edb92c2	0.42885405
229	0x3d8c1a03	0.06840899
230	0x3dfd58c1	0.12370444
231	0xbe33c293	-0.17554693
232	0xbd897a17	-0.0671274
233	0xbd900ce1	-0.070337065
234	0x3d34e507	0.04416373
235	0x3ec25b21	0.3796015
236	0x3d9c9142	0.07644893
237	0x3eb93a19	0.36177137
238	0x3e1749b6	0.14774212
239	0x3e37cc9b	0.17949145
240	0xbe7116ee	-0.23543903
241	0xbe7092b8	-0.23493469
242	0xbda1831b	-0.078863345
243	0x3e733d14	0.23753768
244	0x3e60bcfa	0.21947089
245	0x3ea826c4	0.32842076
246	0x3e26a5e4	0.1627422
247	0x3de9edcf	0.114223115
248	0xbe106671	-0.14101578
249	0xbea153b6	-0.3150918
250	0x3d6e61c2	0.058198698
251	0x3e1df9f2	0.15427378
252	0x3ede0437	0.4336259
253	0x3d8cfe38	0.06884426
254	0x3e4f2266	0.20227966
255	0xbd6e7672	-0.058218427

model.2.bias f4 [64]
0	0xbedb6c32	-0.42855984
1	0xbe90788b	-0.28216967
2	0xbdd6a596	-0.10480802
3	0xbeb31215	-0.34974733
4	0xbe44fa99	-0.1923622
5	0xbddb49f8	-0.10707468
6	0xbead9b9a	-0.33907777
7	0xbec01c29	-0.37521484
8	0x3d0bd364	0.034137145
9	0xbed10efc	-0.40831745
10	0x3e610401	0.21974184
11	0xbd6d7487	-0.057972457
12	0x3dafe747	0.085890345
13	0xbd528461	-0.051395778
14	0xbedae8ac	-0.4275564
15	0xbe070384	-0.13184935
16	0xbe6a5cae	-0.22886917
17	0xbed255b5	-0.41081014
18	0xbda408b7	-0.08009475
19	0xbeb0b831	-0.34515527
20	0xbe533427	-0.20625363
21	0xbd3ec729	-0.046576653
22	0xbe3ea79f	-0.1861863
23	0xbe5460a8	-0.20739996
24	0xbc69c144	-0.0142672695
25	0xbe57f5be	-0.21089837
26	0xbe9dc706	-0.30815905
27	0xbd8484d2	-0.06470646
28	0x3dbb3f96	0.091429874
29	0xbd97db87	-0.074149184
30	0xbd64c09f	-0.05584776
31	0xbbe8cd63	-0.007104562
32	0xbe5d13df	-0.21589611
33	0xbe79ecb5	-0.24406703
34	0xbe8d06b1	-0.27544168
35	0xbe5cb18f	-0.21552108
36	0xbe1b9056	-0.15191779
37	0xbb54e700	-0.003248632
38	0xbe1623aa	-0.14662042
39	0xbe1454f4	-0.14485532
40	0xbdbdec7b	-0.09273621
41	0xbd8c1fd6	-0.0684201
42	0xbef34813	-0.47515926
43	0x3b867d61	0.004104302
44	0xbe02a294	-0.12757331
45	0xbee3af4a	-0.44469672
46	0xbe9c8459	-0.30569723
47	0x3d1556bf	0.03645968
48	0xbe8dda66	-0.27705687
49	0xbe1a89ae	-0.15091583
50	0xbe6309c2	-0.22171691
51	0xbe4ea0e1	-0.20178558
52	0xbe52f74f	-0.20602153
53	0x3e3ef0f8	0.1864661
54	0xbe900fb0	-0.2813697
55	0xbcbbfd89	-0.022948043
56	0x3dc11476	0.09427731
57	0xbdcaeb02	-0.099081054
58	0xbdf3affd	-0.118988015
59	0xbb9f31b7	-0.0048582214
60	0xbee6f7ba	-0.45110875
61	0xbe946e2f	-0.28990313
62	0xbe80c423	-0.2514964
63	0xbba4e7e1	-0.005032525

model.4.weight f4 [10, 64]
0	0xbd866056	-0.06561343
1	0x3d6894ae	0.056782417
2	0xbd8a6ca3	-0.06759002
3	0xbd047968	-0.032342345
4	0x3d3ff449	0.046863828
5	0x3e4c7709	0.19967283
6	0xbe862156	-0.26197308
7	0xbe1941ac	-0.14966458
8	0x3dab697d	0.0836973
9	0x3e48d1ca	0.19611278
10	0x3d36f2e7	0.044665243
11	0x3d9b2e87	0.07577234
12	0xbc5d7336	-0.013516238
13	0x3c914b31	0.01773605
14	0x3dbfba88	0.0936175
15	0x3d9b94d2	0.075967446
16	0x3e11e153	0.1424611
17	0x3d7e0a23	0.062021386
18	0x3e10c53d	0.1413774
19	0xbcce541d	-0.025186593
20	0xbe4f6bb6	-0.20255932
21	0xbaa1c912	-0.0012343249
22	0x3e971d2f	0.29514453
23	0x3e99c831	0.30035546
24	0x3d459d57	0.048245754
25	0x3db0f2f5	0.086400904
26	0xbdc58e7f	-0.096463196
27	0x3e09d81c	0.13461345
28	0x3d928fea	0.07156356
29	0x3e671081	0.2256489
30	0x3cfac7bb	0.030612817
31	0x3c93dbae	0.018049087
32	0xbd8ff71e	-0.07029556
33	0x3d8fb065	0.070160665
34	0x3dc8af03	0.09799006
35	0x3e00f1bb	0.12592213
36	0x3c916cdc	0.017752104
37	0xbc8c8789	-0.017154472
38	0xbd298ba8	-0.041392952
39	0xbbe207b6	-0.006897892
40	0xbc497ad6	-0.012297353
41	0x3e309964	0.17246014
42	0xbe63d760	-0.22250128
43	0x3d8c1d64	0.06841543
44	0x3ccaf991	0.024777206
45	0xbe8b6833	-0.27227935
46	0xbd504c92	-0.050854273
47	0x3e2b8b1d	0.16752286
48	0x3c53314f	0.012890174
49	0x3df177af	0.11790406
50	0x3d6f0b7f	0.058360573
51	0xbd825d92	-0.06365503
52	0xbd52e83a	-0.051491
53	0xbc5b982a	-0.013402978
54	0x3dad4e89	0.08462245
55	0x3ccba339	0.024858104
56	0x3de2f09d	0.110810496
57	0xbd427dc0	-0.047483206
58	0x3de135f1	0.10996617
59	0xbcd51ef6	-0.02601574
60	0x3e2a8c01	0.1665497
61	0x3d96d889	0.073655196
62	0x3da52631	0.08063925
63	0xbcc2ca57	-0.023778124
64	0xbdf9ced6	-0.12197654
65	0xbdd5107d	-0.104035355
66	0x3df81289	0.1211291
67	0x3c0ee299	0.008721017
68	0xbd5d40a9	-0.054016743
69	0x3d75a98f	0.059976157
70	0x3e2bf893	0.16794042
71	0x3db2f80c	0.087387174
72	0xbbf373cf	-0.007429577
73	0xbc833a5b	-0.016019037
74	0xbda196c7	-0.078900866
75	0x3e1c84f9	0.152851
76	0x3cdead8c	0.027182363
77	0xbd2d1fb7	-0.042266574
78	0xbddd4b9e	-0.108054385
79	0x3c7ce048	0.015434332
80	0xbdd71f56	-0.10504024
81	0x3e80b7ed	0.25140324
82	0xbd26e164	-0.040742293
83	0xbc2e62cc	-0.010643672
84	0xbd36c5f1	-0.044622365
85	0xbdae948a	-0.08524425
86	0x3d95a6d0	0.073072076
87	0x3d35c7ed	0.044380117
88	0x3d6a8848	0.057258874
89	0xbdf10a92	-0.11769594
90	0xbcad01ad	-0.021118963
91	0xbd834c6d	-0.064110614
92	0x3d811218	0.06302279
93	0x3d09d21f	0.033647653
94	0xbda67795	-0.08128277
95	0xbddedfdf	-0.10882544
96	0xbc51c104	-0.012802366
97	0x3dbce100	0.09222603
98	0x3e0ac31e	0.13550994
99	0x3d79012a	0.060792126
100	0xbbe6296b	-0.0070239804
101	0x3e090d01	0.13383867
102	0x3e4e4b7b	0.20145981
103	0xbc7542ae	-0.014969511
104	0x3d56c39b	0.052432638
105	0x3de26784	0.110549
106	0x3d97d1fb	0.074130975
107	0xbd96d977	-0.07365697
108	0xbc07eac0	-0.008295715
109	0xbcc51a4d	-0.024060393
110	0x3d280a8f	0.041025694
111	0xbe1f5a8a	-0.15561882
112	0xbd054d9f	-0.03254473
113	0xbe2fd065	-0.1716934
114	0x3e4afa16	0.19821963
115	0xbd0f8cc8	-0.03504637
116	0x3da707cd	0.08155785
117	0xbd54e24b	-0.051973622
118	0xbd0ae131	-0.033906166
119	0xbe3a5398	-0.18195951
120	0xbc7b387a	-0.015333289
121	0xbdaa25c2	-0.08307983
122	0x3dc8fd6d	0.09813962
123	0x3ca20041	0.019775512
124	0x3df0f586	0.1176558
125	0x3dcf4cf7	0.10122102
126	0x3d09449e	0.033512704
127	0xbdc75b79	-0.09734244
128	0x3e4ecdc7	0.20195685
129	0xbcdd7062	-0.027031127
130	0xbe3a2449	-0.18177904
131	0xbe065e49	-0.13121904
132	0x3db05c29	0.08611328
133	0x3df1e3cd	0.11811028
134	0x3c8ddf2b	0.017318329
135	0x3e2bb88e	0.16769621
136	0x3cdc9efb	0.026931277
137	0xbded1162	-0.11575581
138	0x3e59e780	0.21279716
139	0x3e21cbb6	0.15800366
140	0xbd5a4bca	-0.053294934
141	0x3e0a0dea	0.1348187
142	0x3e061c1a	0.13096657
143	0x3d8443e0	0.06458259
144	0x3e7e51be	0.2483587
145	0xbe3aa852	-0.18228272
146	0xbda83cd7	-0.08214729
147	0x3d41fda8	0.047361046
148	0x3d676738	0.05649492
149	0x3cd2060a	0.025637645
150	0x3ce091bb	0.02741324
151	0x3cc8fd68	0.024534896
152	0x3c229a39	0.009924465
153	0x3d4093fd	0.047016133
154	0x3e1b35d3	0.15157251
155	0x3dd00206	0.10156636
156	0x3dd0b158	0.10190076
157	0xbdd1db24	-0.10246876
158	0x3e15516e	0.14581844
159	0xbc774961	-0.0150931785
160	0xbddd9e63	-0.108212255
161	0xbdcefa99	-0.101063915
162	0xbe2011fa	-0.15631858
163	0x3d639904	0.05556585
164	0xbe170893	-0.14749365
165	0x3b6e2f00	0.0036343932
166	0x3bdaef87	0.006681386
167	0x3dbda9c6	0.09260897
168	0xbd8978ae	-0.06712471
169	0x3d2ba27b	0.041903
170	0x3e1c11ec	0.15241212
171	0x3d226d04	0.039654747
172	0xbd164e9a	-0.036696054
173	0xbe8c3759	-0.27385977
174	0x3ccca9da	0.024983335
175	0x3e8de666	0.27714843
176	0xbde2dca2	-0.110772386
177	0xbdf2d9da	-0.11857958
178	0x3d158282	0.036501415
179	0x3be21c76	0.0069003655
180	0x3e477cff	0.19481276
181	0xbe32fe85	-0.17479904
182	0xbdaf9814	-0.085739285
183	0xbda5f88e	-0.08104049
184	0x3c7cac1a	0.015421892
185	0xbcec11be	-0.028817054
186	0xbd986f68	-0.07443124
187	0x3e82325c	0.25429046
188	0xbb97093b	-0.0046092547
189	0xbeac8a91	-0.33699468
190	0xbbea1928	-0.007144112
191	0x3da81dca	0.08208807
192	0xbe3bddb3	-0.1834629
193	0xbdb264a2	-0.087106004
194	0x3db9d0c0	0.09073019
195	0xbe3cd3a1	-0.18440105
196	0xbdad3d5b	-0.08458968
197	0x3d0f9872	0.035057493
198	0xbd7a9248	-0.06117466
199	0xbe3270d1	-0.17425849
200	0x3be2a27d	0.006916343
201	0xbe8c97ed	-0.2745966
202	0x3c8bbc3e	0.017057534
203	0xbe8af824	-0.2714244
204	0x3cd2266a	0.025653083
205	0x3d320a85	0.043467063
206	0xbe30729e	-0.17231223
207	0xbc04af2b	-0.008098404
208	0xbdbd8021	-0.09252954
209	0x3e108282	0.14112285
210	0x3dfcb426	0.12339048
211	0xbce3b236	-0.027794939
212	0xbd0741f4	-0.033021882
213	0xbd31170f	-0.04323488
214	0xbd773d0b	-0.06036095
215	0xbd985881	-0.07438756
216	0x3da0e089	0.07855327
217	0xbd2e7593	-0.042592596
218	0xbe9e4fee	-0.30920357
219	0xbd1e7553	-0.038686108
220	0x3e2521ea	0.16126218
221	0x3e2cb4ea	0.16865888
222	0x3b8fd619	0.004389536
223	0xbdad50ee	-0.08462702
224	0x3e8e0f9d	0.27746287
225	0xbc5ea535	-0.013589193
226	0x3e25b193	0.1618102
227	0x3df7f78b	0.12107762
228	0xbd5e151a	-0.054219343
229	0x3e15b34d	0.14619179
230	0x3e0f2fed	0.13983126
231	0x3d549f73	0.051909875
232	0x3bda2620	0.006657377
233	0xbd9a9ef9	-0.07549853
234	0xbdd4916c	-0.103792995
235	0xbdc8c69a	-0.09803505
236	0x3dc37c45	0.09545187
237	0xbc8d6239	-0.01725875
238	0xbd0a1a74	-0.033716634
239	0xbc0a0c6f	-0.008425816
240	0xbd7d4a7d	-0.061838616
241	0xbdd035f3	-0.1016654
242	0x3d1ffd6d	0.039060045
243	0xbdd83dc7	-0.10558658
244	0x3d90322f	0.07040822
245	0x3d7f5a81	0.06234217
246	0x3d46d29f	0.048540708
247	0xbc710d01	-0.014712573
248	0x3e383786	0.1798993
249	0xbccdfd7a	-0.025145281
250	0x3d472279	0.04861686
251	0x3bf597cb	0.007494902
252	0x3db13606	0.08652882
253	0xbd12aac3	-0.035807382
254	0xbd01c5d2	-0.031682797
255	0xbc0a699c	-0.008448031

model.4.bias f4 [10]
0	0xbe51dcc2	-0.20494369
1	0x3ec2b988	0.38032174
2	0xbe02ba35	-0.12766345
3	0xbddf4030	-0.10900915
4	0xbe241071	-0.16021897
5	0x3e1a1ee1	0.15050842
6	0xbe661dea	-0.22472349
7	0x3f50991a	0.81483614
8	0xbeed05a6	-0.46293372
9	0xbe7c0670	-0.2461183
