hw8/lightning_logs/version_4/checkpoints/epoch=49-step=100.ckpt (torch, 398423 bytes, 36 tensors)

encoder.encoder.0.weight f4 [32, 784]
0	0x3b4652e0	0.00302618
1	0x3bba0440	0.005676776
2	0x3cbabd0e	0.022795226
3	0xbaf79e60	-0.0018891804
4	0x3cfad1ea	0.030617673
5	0xb9f8ac00	-0.00047430396
6	0x3cf3632e	0.029710378
7	0xbd0f81a7	-0.035035755
8	0x3b6fd330	0.0036594383
9	0xbcb22588	-0.021746412
10	0xbc1082ae	-0.008820219
11	0xbcecc4c5	-0.02890242
12	0x3ca8f820	0.020626128
13	0x3c85e7da	0.016345907
14	0xbc8284c3	-0.015932446
15	0x3c354af0	0.01106523
16	0xbd0a6214	-0.03378494
17	0x3c8b913e	0.01703703
18	0x3cf320c2	0.029678706
19	0x3c3771d8	0.011196576
20	0xbbbaf8e4	-0.0057059396
21	0xbc8d58f5	-0.017254332
22	0x3d070f11	0.032973353
23	0x3ad76a20	0.0016434826
24	0xbceac118	-0.028656527
25	0x3bed1b48	0.007235918
26	0x3cc338e8	0.023830846
27	0xbd0b24ea	-0.03397075
28	0xbc2f9298	-0.010716103
29	0x3b9afb88	0.004729692
30	0xbc0ea5dc	-0.008706536
31	0x3bfa8030	0.0076446757
32	0x3cf8d74e	0.030376103
33	0xbb22f4d0	-0.0024865158
34	0x3ca04492	0.019563947
35	0x3c10dab4	0.008841205
36	0xbc8728de	-0.01649898
37	0xba9af3e0	-0.0011821948
38	0x3c878234	0.016541578
39	0x3c92b36c	0.01790782
40	0xbc83e700	-0.01610136
41	0x3cf8575a	0.03031509
42	0x3d095bc5	0.033534784
43	0x3bf03f60	0.0073317736
44	0xbca5d430	-0.02024278
45	0x3b793050	0.0038023181
46	0xbce6ca0c	-0.028172515
47	0x3b15a4b0	0.0022833757
48	0xbc3fb5a0	-0.011701018
49	0xbc34248e	-0.010995043
50	0xbcb4ae8e	-0.02205589
51	0xbcf248f8	-0.02957581
52	0xbb548070	-0.0032425188
53	0xbbf99870	-0.007617049
54	0x3d0e7311	0.034777705
55	0x3d06f26b	0.03294603
56	0x3c8aa81e	0.016925868
57	0x3d11d777	0.035605874
58	0xbcc39270	-0.023873538
59	0x3c862688	0.016375795
60	0xbbf990d4	-0.007616142
61	0x3ce053b6	0.027383666
62	0xbd096da6	-0.033551835
63	0xbd015dce	-0.0315836
64	0xba7bd140	-0.0009606071
65	0x3c355f64	0.011070106
66	0x3c4cd2f4	0.012501467
67	0xbb444870	-0.0029950403
68	0xbcbe60e8	-0.023239568
69	0x3c8d8c77	0.017278893
70	0xbc3d6e7d	-0.011561987
71	0x3c85912d	0.016304577
72	0xbb909b96	-0.0044130785
73	0xbbe18f8d	-0.0068835677
74	0xbc61b96e	-0.01377712
75	0x3cfe0716	0.031009238
76	0x3c2e94dc	0.010655608
77	0x3d0db735	0.034598548
78	0x3cf49a6a	0.029858787
79	0x3b560010	0.0032653846
80	0xba364580	-0.00069531053
81	0xbbe3c4b8	-0.006950941
82	0x3c35b620	0.011090785
83	0x3cac097a	0.021000613
84	0xbb3d89d0	-0.0028921254
85	0xbccf2b70	-0.025289267
86	0x3c79b230	0.015240237
87	0x3c5f8c14	0.013644237
88	0x3bf34320	0.0074237734
89	0x3be0f120	0.006864682
90	0x3aec6420	0.0018035211
91	0xbb577ee5	-0.0032882032
92	0xbd139f68	-0.036040694
93	0x3cb733c8	0.022363558
94	0x3caa7bc4	0.02081097
95	0xbd094431	-0.033512298
96	0x3cec5e7d	0.02885365
97	0x3c55c1a6	0.013046658
98	0x3d3b2cef	0.04569715
99	0xbc631eff	-0.0138623705
100	0xbce71ea2	-0.028212849
101	0x3c3a20c1	0.011360348
102	0x3ce82914	0.0283399
103	0x3cb6e0c6	0.022323977
104	0xbc6a8f2f	-0.014316364
105	0x3ceb38c6	0.028713595
106	0x3cad2cb2	0.021139476
107	0xbca7f22e	-0.020501222
108	0xbcb22473	-0.021745896
109	0xbc204fe0	-0.009784669
110	0xbcb9b9aa	-0.02267154
111	0x3c81c8b4	0.015842773
112	0x3b799060	0.003808044
113	0x3cf26f12	0.029593978
114	0x3bf2e8c8	0.0074130036
115	0xbc7dfa4a	-0.015501568
116	0xbadaf837	-0.0016706054
117	0x3a8b7660	0.0010640137
118	0xbc843368	-0.016137794
119	0xbc87f454	-0.016595997
120	0x3ccf8305	0.02533103
121	0xbcb599fa	-0.022168148
122	0x3bd58447	0.006516013
123	0x3d040162	0.03222788
124	0x3cbcdad8	0.023053572
125	0xbc4ee459	-0.0126276845
126	0x3bff4521	0.007790223
127	0x3c21fdb5	0.009887149
128	0x3d3354b0	0.043781936
129	0xbce965b1	-0.028490873
130	0xba068991	-0.00051321933
131	0xbcb72121	-0.022354664
132	0x3b6a02d3	0.003570725
133	0x3b13a45e	0.002252839
134	0x3c68dcd1	0.014212803
135	0x3c8e61a5	0.017380545
136	0x3d15714e	0.03648501
137	0x3cd0d73a	0.025493253
138	0x3d0919cb	0.033471864
139	0xbc22568a	-0.009908328
140	0xbc5c1a46	-0.013433998
141	0x3d107461	0.035267238
142	0xbc243b2e	-0.010023875
143	0x3a98bd20	0.0011653043
144	0x3cd4f405	0.025995264
145	0xbcf1987a	-0.029491652
146	0xbd19a81e	-0.037513845
147	0x3cc15a5f	0.023602663
148	0xbd5194e4	-0.051167384
149	0xbcb2f7cb	-0.021846673
150	0xbd0caea6	-0.034346245
151	0xbc2f9e2a	-0.010718862
152	0x3b111324	0.0022136653
153	0xbb9a5fed	-0.0047111423
154	0xbbd01eb6	-0.0063513173
155	0xbd071f24	-0.032988682
156	0xba029473	-0.0004981227
157	0xbc76dc38	-0.015067153
158	0xbcf1c71f	-0.029513894
159	0x3c879c19	0.016553925
160	0x3b3d169d	0.002885259
161	0xbcf7073a	-0.030154813
162	0x3ccc13c3	0.024911767
163	0xbadc12f2	-0.0016790314
164	0xbca2537d	-0.019815201
165	0x3c88ea80	0.01671338
166	0xbc9c3157	-0.019066496
167	0xba773a00	-0.0009430945
168	0x3c72d570	0.014821395
169	0x3ce6460e	0.028109577
170	0xbd087afa	-0.033320405
171	0xbd09fa6d	-0.03368609
172	0xbcd5360f	-0.026026754
173	0xbceb38ef	-0.028713671
174	0x3cecb6eb	0.028895816
175	0x3c9f47c5	0.019443402
176	0x3c3844e7	0.011246896
177	0xbaae0d86	-0.0013279177
178	0xbb1eaa2f	-0.0024210324
179	0x3ca3303f	0.019920466
180	0x3c3bdec8	0.011466689
181	0x3d05b438	0.032642573
182	0xbce17c70	-0.027525157
183	0xbbfaae87	-0.0076502
184	0x3c9ed30f	0.01938775
185	0xbccc3be6	-0.024930906
186	0x3cb20950	0.021732956
187	0x3c83963a	0.016062845
188	0xbcf34551	-0.029696139
189	0x3d2b4cc4	0.041821256
190	0xbc803890	-0.015651971
191	0xbce5d733	-0.028056717
192	0x3cde0d33	0.027105903
193	0xbbd410af	-0.0064717154
194	0x3d015a3d	0.0315802
195	0xbc01d2ca	-0.007923791
196	0x3badf7e8	0.0053090937
197	0xbaf57fa0	-0.0018730052
198	0x3c18c37c	0.009323951
199	0xbc89ff5e	-0.016845401
200	0xbc7e0c33	-0.015505838
201	0xbcd1335a	-0.025537182
202	0x3c9f5b45	0.0194527
203	0x3c91c3a5	0.017793486
204	0xbc13659f	-0.008996396
205	0x3caa141e	0.020761546
206	0x3d3a6042	0.045501955
207	0x3d2d1af1	0.04226202
208	0x3cb2e7c3	0.021839028
209	0xbc863e9f	-0.016387282
210	0xbc842676	-0.01613162
211	0xbd0b102c	-0.03395097
212	0x3cda9114	0.026680507
213	0xbcef0020	-0.029174864
214	0x3ca06989	0.019581573
215	0x3ce490e5	0.027901122
216	0xbcc55e52	-0.024092827
217	0xbc043bd9	-0.008070909
218	0x3c8a78f9	0.016903387
219	0x3b8ceeac	0.004300913
220	0x3d16c4a6	0.036808632
221	0xbcd3c0b2	-0.02584872
222	0x3cb73eca	0.022368807
223	0x3bda0a28	0.0066540428
224	0x3cfa9f42	0.030593518
225	0x3bc3e700	0.005978465
226	0xbc83921a	-0.016060878
227	0xbc86042c	-0.016359411
228	0xbc049a4c	-0.008093428
229	0xbc41b251	-0.011822299
230	0xbcf26125	-0.029587338
231	0x3d0cdf6d	0.034392763
232	0x3d2e4a26	0.042551182
233	0xbc563c24	-0.013075862
234	0x3cfda530	0.030962557
235	0x3b91e77a	0.004452643
236	0x3bf01393	0.007326552
237	0x3cc34199	0.02383499
238	0xbcdf18bf	-0.02723348
239	0x3cb80ff0	0.022468537
240	0x3c145892	0.00905432
241	0x3cfbd6c7	0.030742062
242	0x3d5d8420	0.054081082
243	0xbc36e6eb	-0.011163454
244	0xbba03870	-0.0048895404
245	0x3cf1dfd1	0.02952567
246	0x3d3ee45d	0.046604503
247	0xbc3ebc48	-0.011641569
248	0x3d0b1be5	0.03396215
249	0x3cae83fb	0.021303168
250	0xbcaa6caa	-0.020803768
251	0x3d062d7b	0.032758217
252	0xbb267e19	-0.002540475
253	0x3cfa028f	0.030518798
254	0x3d10381d	0.035209764
255	0x3cba709c	0.022758774

encoder.encoder.0.bias f4 [32]
0	0xbd43c087	-0.04779103
1	0xbc46e6f2	-0.012140023
2	0x3d0bd4b0	0.03413838
3	0x3c5ad04a	0.013355324
4	0xbc35f67f	-0.0111061325
5	0xbc382f61	-0.011241765
6	0x3c9c06ec	0.01904627
7	0x3d0fa461	0.035068873
8	0xbc9ed6cc	-0.019389533
9	0x3c3ffc50	0.011717871
10	0x3ca499e6	0.020092916
11	0x3aa8b10c	0.0012870147
12	0xbc8c85b9	-0.017153608
13	0x3d01ce1f	0.031690713
14	0xbc1eb8fa	-0.009687657
15	0x3c948ff4	0.018135048
16	0xbc8f7613	-0.017512357
17	0x3cd94e47	0.026526583
18	0xbcf9afe4	-0.030479379
19	0xbc88d138	-0.016701326
20	0xbcc674fb	-0.024225703
21	0xbca2b08f	-0.01985958
22	0x3cc4fa44	0.024045117
23	0xbcbb42a3	-0.022858923
24	0x3c0fe159	0.008781754
25	0xbc07c14c	-0.008285832
26	0xbb14e637	-0.0022720227
27	0xbcbdb537	-0.023157699
28	0x3cb90992	0.022587571
29	0xbadf327a	-0.0017028593
30	0xbc29cc4f	-0.010363652
31	0xbc6562ed	-0.0140006365

encoder.encoder.1.weight f4 [64, 32]
0	0x3dfc476a	0.12318309
1	0xbd9b6038	-0.07586712
2	0x3e1f42eb	0.15552871
3	0x3e213556	0.15743002
4	0x3e2cc98a	0.16873756
5	0x3e00e366	0.12586746
6	0xbd0578c2	-0.032585867
7	0x3de72b2e	0.11287533
8	0xbdfb13aa	-0.1225961
9	0xbc5202d2	-0.012818055
10	0xbd80d9b9	-0.06291527
11	0xbccecfe8	-0.025245622
12	0x3e1e67fe	0.15469357
13	0xbe47fefe	-0.19530866
14	0x3b203e77	0.0024451294
15	0x3c25b2c0	0.010113418
16	0xbe3321ef	-0.17493413
17	0xbdc4d56b	-0.09611019
18	0x3e146c9d	0.14494558
19	0x3e18a833	0.14907913
20	0x3d81e673	0.06342783
21	0x3deab8c8	0.114610255
22	0xbdedfb21	-0.11620165
23	0xbde0e731	-0.10981596
24	0x3c14271e	0.009042529
25	0xbe244288	-0.16041005
26	0xbe0bf891	-0.1366904
27	0xbdc2ace6	-0.09505634
28	0x3dac0222	0.08398844
29	0xbd9c8434	-0.07642403
30	0x3db5a31a	0.08869
31	0x3d77115f	0.0603193
32	0xbdc75c20	-0.09734368
33	0x3d86f887	0.065903716
34	0xbd90215a	-0.07037611
35	0x3dfa880c	0.1223298
36	0xbc7b5ca1	-0.015341909
37	0xbdff6a7a	-0.12471481
38	0xbb95555b	-0.0045572943
39	0x3d8c9bf6	0.06865685
40	0x3d1b204d	0.0378726
41	0xbe068630	-0.13137126
42	0xbdf407d5	-0.11915556
43	0x3e1d0989	0.15335669
44	0x3c97dda1	0.018538298
45	0x3da870c7	0.082246356
46	0x3d012a77	0.03153464
47	0x3b861eda	0.0040930333
48	0x3cda5292	0.0266507
49	0xbe2f710c	-0.17132968
50	0x3da6fa15	0.08153168
51	0xbcf48800	-0.029850006
52	0xbcd79a8f	-0.026318816
53	0xbe2e4424	-0.17018181
54	0x3d50fcce	0.051022343
55	0x3cd18180	0.025574446
56	0xbb2574a6	-0.002524653
57	0xbe088405	-0.13331611
58	0xbdb052e3	-0.086095594
59	0x3e043225	0.12909754
60	0xbb93c6ad	-0.004509768
61	0xbdfad224	-0.122471124
62	0x3d2ca9b3	0.042154025
63	0xbe0c7094	-0.1371482
64	0xbdb31d5f	-0.087458365
65	0x3dbf6efc	0.093473405
66	0xbd990716	-0.07472055
67	0xbc8bf44e	-0.017084267
68	0x3c9be518	0.019030139
69	0x3dc3112f	0.09524762
70	0xbdbc0445	-0.09180502
71	0x3bd563a1	0.006512121
72	0x3d5295a6	0.051412247
73	0x3dd97cf2	0.106195346
74	0xbe2417eb	-0.16024749
75	0xbe331872	-0.17489794
76	0xbe3041a0	-0.17212534
77	0xbb09e18f	-0.0021038984
78	0x3da44abc	0.08022067
79	0xbc35472f	-0.011064335
80	0xbdecc92b	-0.11561807
81	0x3d0393bd	0.032123316
82	0xbbe45e99	-0.0069692847
83	0x3e07572e	0.1321685
84	0x3d5da012	0.054107733
85	0x3e32a63d	0.17446227
86	0x3e279026	0.16363582
87	0x3e2911a7	0.1651064
88	0xbcc43944	-0.023953088
89	0xbdf6940b	-0.12039956
90	0x3de9f394	0.11423412
91	0xbdaecd63	-0.08535268
92	0x3d7adf66	0.061248206
93	0x3d51c8a9	0.051216755
94	0x3e02d80a	0.12777725
95	0xbbacad20	-0.0052696615
96	0xbd206569	-0.039159212
97	0x3d9faab2	0.077962294
98	0xbdcdddf3	-0.10052099
99	0xbcb67eef	-0.022277324
100	0xbe05d6f8	-0.13070285
101	0xbe3b7339	-0.18305673
102	0xbdac9829	-0.0842746
103	0x3e3215d8	0.17391145
104	0xbe1b58ac	-0.15170544
105	0xbe2d9f60	-0.16955328
106	0x3e253b4e	0.16135904
107	0x3d6057dd	0.054771293
108	0xbc790c98	-0.0152007565
109	0x3e08b0a8	0.13348639
110	0x3e08cedc	0.1336016
111	0xbcf28635	-0.02960501
112	0xbd3ca368	-0.046054274
113	0x3e23b0fb	0.15985481
114	0xbcf69319	-0.030099439
115	0x3be1de7b	0.006892977
116	0xbdc1fdfe	-0.09472273
117	0xbe04f415	-0.12983735
118	0x3e08439e	0.13307044
119	0xbd57b348	-0.05266121
120	0x3ca4e677	0.020129425
121	0xbe243a71	-0.16037919
122	0xbc84852b	-0.01617678
123	0x3db9c53e	0.09070824
124	0xbcbe6fad	-0.02324661
125	0x3dcfc5e6	0.10145168
126	0x3db59346	0.08865981
127	0x3c525564	0.0128377415
128	0x3e08fc62	0.13377526
129	0xbdde606c	-0.10858235
130	0xbbd037dd	-0.0063543157
131	0xbe2fe4a3	-0.17177062
132	0xbb8ba41a	-0.004261506
133	0x3d50e159	0.05099616
134	0xbd8ed347	-0.06973892
135	0xbe316ad4	-0.17325908
136	0xbe003097	-0.12518536
137	0x3e21713c	0.15765852
138	0x3d36c541	0.04462171
139	0xbdd91860	-0.10600352
140	0xbe38c5cd	-0.18044205
141	0x3d534925	0.051583428
142	0xbe3244a6	-0.17409
143	0xbe015140	-0.1262865
144	0x3d50f128	0.051011235
145	0x3d78f3ff	0.060779568
146	0xbdc7b5bc	-0.0975146
147	0x3d33769f	0.043814298
148	0xbe294337	-0.16529547
149	0x3da0f780	0.07859707
150	0x3e05c404	0.13063055
151	0xbd6b9a4c	-0.057520196
152	0x3dc6f3a3	0.09714439
153	0x3e17cfaf	0.14825319
154	0xbe02c985	-0.12772186
155	0xbd21819d	-0.03943025
156	0x3e3d62d0	0.18494725
157	0x3dffc276	0.12488262
158	0xbe3a4ee3	-0.18194155
159	0xbdca7ce2	-0.09887101
160	0x3c3aa0e2	0.0113908965
161	0xbdd098c8	-0.10185391
162	0xbd0a93f3	-0.0338325
163	0xbc26eec9	-0.010188767
164	0xbe02fb02	-0.12791064
165	0xbd603c24	-0.054744855
166	0xbdf2188d	-0.11821089
167	0x3ce1fdd3	0.027586853
168	0x3e1c4e1e	0.15264174
169	0x3db7c0b0	0.08972299
170	0xbe1504a4	-0.14552552
171	0x3d7d4025	0.06182875
172	0xbdec7fc6	-0.11547808
173	0xbb6187fc	-0.0034413328
174	0x3e2d7d16	0.16942248
175	0xbca1b3ae	-0.019738998
176	0x3da9a16b	0.08282741
177	0x3dc33785	0.09532074
178	0x3dff6281	0.1246996
179	0x3e0aced0	0.13555455
180	0x3c98db07	0.018659128
181	0xbe01297c	-0.12613481
182	0xbe288b56	-0.16459402
183	0x3d5de4bd	0.05417322
184	0xbcf69f10	-0.030105144
185	0x3d899564	0.06717947
186	0xbc4f4483	-0.012650612
187	0x3d53ade9	0.051679526
188	0x3e42a9a9	0.19010033
189	0x3cd450d7	0.025917454
190	0x3d652c03	0.055950176
191	0xbba63497	-0.005072187
192	0xbe0f80cc	-0.14013976
193	0x3e36d00b	0.178528
194	0xbda04dea	-0.07827361
195	0xbd3b7a89	-0.045771156
196	0x3d84c597	0.06483
197	0x3ca375b2	0.019953582
198	0xbe0ffb5f	-0.14060734
199	0xbdf9fb83	-0.12206175
200	0x3cde8cb2	0.027166698
201	0xbdb8c7cc	-0.09022483
202	0x3d5bc734	0.05365677
203	0x3e149f56	0.14513907
204	0xbe2fb1f1	-0.17157723
205	0x3d93875a	0.07203551
206	0xbdf5a0d7	-0.119935684
207	0x3e3a0799	0.18166961
208	0xbc7e3704	-0.015516046
209	0x3de61d35	0.112360395
210	0xbe3aae2d	-0.18230505
211	0x3d6d9e3d	0.058012236
212	0x3d9327e9	0.07185347
213	0xbda87107	-0.08224683
214	0xbd519e08	-0.0511761
215	0xbe0d1380	-0.1377697
216	0xbde1d51c	-0.110269755
217	0xbd186fbf	-0.037215944
218	0x3baa1106	0.0051900176
219	0xbdecc2a8	-0.11560565
220	0x3d8d07f3	0.06886282
221	0xbcbd4367	-0.023103429
222	0xbbf646b9	-0.007515755
223	0xbd0f99f8	-0.035058945
224	0x3d86ab88	0.06575686
225	0x3cb70add	0.022344047
226	0xbdfca7de	-0.123367056
227	0x3db8bfbe	0.09020947
228	0x3d945faa	0.07244809
229	0x3e31f114	0.1737712
230	0x3dcd5fa7	0.1002801
231	0xbe288410	-0.16456628
232	0xbd8532c1	-0.06503821
233	0xbd366504	-0.04452993
234	0x3d86a3a2	0.06574179
235	0x3d808996	0.062762424
236	0x3c0a1230	0.008427188
237	0x3d8171c0	0.06320524
238	0xbdfa1c51	-0.12212432
239	0x3ab63af7	0.0013903071
240	0x3e0a6e9a	0.13518754
241	0xbd89864f	-0.067150705
242	0x3c0c8680	0.008576989
243	0xbdccc4ae	-0.09998451
244	0x3e0e4c6c	0.1389634
245	0x3d2b342e	0.04179781
246	0x3dcf4566	0.101206586
247	0xbd409a33	-0.047022056
248	0xbcf25c6d	-0.029585088
249	0x3de06002	0.10955812
250	0x3d793a63	0.060846698
251	0x3db0d935	0.08635179
252	0x3d8bff49	0.06835801
253	0x3e253e23	0.16136985
254	0xbc9072da	-0.01763289
255	0xbe3ba713	-0.18325453

encoder.encoder.1.bias f4 [64]
0	0xbde5c274	-0.112187296
1	0xbe15ed1a	-0.14641228
2	0x3d20f9ea	0.039300837
3	0xbdd516da	-0.10404749
4	0xbd3adc79	-0.045620415
5	0xbe28a4db	-0.16469137
6	0xbce63dca	-0.028105635
7	0xbd1ef638	-0.03880903
8	0xbe00e76e	-0.12588283
9	0x3d7e835a	0.062136985
10	0x3cbc8220	0.023011267
11	0xbd989103	-0.07449534
12	0xbdb5b9d8	-0.088733375
13	0x3e05dad3	0.13071756
14	0x3e223fec	0.15844697
15	0x3d78b2f6	0.060717545
16	0xbda6bcc6	-0.081414744
17	0x3dce12c3	0.10062172
18	0xbdefe549	-0.117136545
19	0x3db891cb	0.09012183
20	0xbdeda3f3	-0.116035365
21	0xbbf836b5	-0.007574881
22	0xbd486ae6	-0.04893007
23	0x3e32f87a	0.17477599
24	0xbcaca2fc	-0.02107381
25	0x3d94f6cc	0.07273635
26	0x3dff32d2	0.12460865
27	0xbdf11510	-0.117715955
28	0xbe2d5f81	-0.16930963
29	0x3d8adfdf	0.06780981
30	0xbe19a3ad	-0.15003844
31	0x3d370526	0.044682644
32	0xbdffa506	-0.124826476
33	0x3cc94f88	0.024574056
34	0x3dc6d89f	0.09709286
35	0x3e18db9c	0.14927524
36	0xbdb2483f	-0.08705186
37	0x3cbfb2ed	0.023400748
38	0xbe1974b5	-0.14985926
39	0x3d982fe5	0.0743101
40	0xbe32c674	-0.17458516
41	0x3de7e0c9	0.11322171
42	0xbd7bbf01	-0.061461452
43	0x3dc6130f	0.09671604
44	0xbda6a449	-0.08136804
45	0xbbd2f54b	-0.0064379326
46	0x3d94187a	0.07231231
47	0xbdf6add7	-0.12044876
48	0x3bb151e4	0.0054113735
49	0x3df6bb1d	0.12047408
50	0xbd72ed73	-0.05930848
51	0xbd0a09d9	-0.033700798
52	0xbda6b082	-0.08139135
53	0xbe2f761d	-0.171349
54	0x3e05a0c4	0.13049608
55	0x3dec16f6	0.11527817
56	0xbd866d3a	-0.06563802
57	0x3e35354f	0.17696117
58	0x3c86303c	0.016380422
59	0x3dc72494	0.097237736
60	0xbd82205b	-0.063538276
61	0x3dd77ca3	0.105218194
62	0x3e0de05c	0.13855118
63	0xbd386a19	-0.045023058

encoder.encoder.3.weight f4 [20, 64]
0	0x3dd3e9c5	0.103473224
1	0xbc8687a9	-0.01642211
2	0xbd8e98d8	-0.069627464
3	0xbcba3dcd	-0.022734547
4	0x3cfbd10b	0.030739328
5	0x3dc02291	0.09381593
6	0xbd92aa23	-0.07161357
7	0x3df4759b	0.11936494
8	0xbdd39449	-0.103310175
9	0x3dcb97a4	0.099410325
10	0x3c8c88ef	0.017155139
11	0xbdb279b8	-0.08714622
12	0x3b38f7ab	0.0028223793
13	0xbdd8b657	-0.105816536
14	0x3d437e52	0.04772789
15	0xbd17974d	-0.037009526
16	0xbdc97e19	-0.09838504
17	0x3c83ea3f	0.016102908
18	0x3e08fe98	0.1337837
19	0x3d64a457	0.05582079
20	0xbd47a918	-0.048745245
21	0x3dcf7638	0.1012997
22	0x3d770025	0.060302872
23	0xbdbcff6d	-0.09228406
24	0xbd4184ca	-0.04724578
25	0xbdb65d85	-0.08904556
26	0x3d9f42f8	0.07776445
27	0xbc589777	-0.013219706
28	0xbd0ce77e	-0.034400456
29	0xbd907eb2	-0.07055415
30	0x3df2a2ca	0.11847456
31	0xbd2de040	-0.04245019
32	0xbe002a45	-0.12516125
33	0xbd312e88	-0.043257266
34	0x3d60c8b5	0.05487891
35	0xbdc661de	-0.096866354
36	0x3d638027	0.055542137
37	0x3dbb9dea	0.09160979
38	0x3dae7a61	0.08519436
39	0x3ccffdce	0.025389578
40	0xbcb66960	-0.022267044
41	0x3c220431	0.009888695
42	0xbd49ad9f	-0.049237844
43	0x3d324b2b	0.043528717
44	0x3d44e69b	0.048071485
45	0xbd3ff418	-0.046863645
46	0x3dc52ad8	0.096273124
47	0x3e0ad687	0.13558398
48	0x3dc18103	0.09448435
49	0x3ab11aa2	0.0013511966
50	0xbc005c76	-0.007834544
51	0xbd842147	-0.0645166
52	0xbdf491f2	-0.11941899
53	0x3dc01b53	0.09380212
54	0x3dc72f97	0.09725874
55	0x3bd686b7	0.006546821
56	0x3d9defd4	0.07711759
57	0xbc992c7c	-0.01869797
58	0xbdc1ddf4	-0.09466162
59	0x3d824bcd	0.06362114
60	0x3d3d77ae	0.046256714
61	0x3de6b5ce	0.11265145
62	0x3c3ead30	0.011637971
63	0x3dcb2752	0.09919609
64	0xbce531dc	-0.027977876
65	0x3db8b0eb	0.090181194
66	0x3deab5cf	0.114604585
67	0xbdc8349b	-0.09775659
68	0xbdf6d735	-0.12052766
69	0x3bb814ce	0.0056177145
70	0xbd3664e2	-0.044529803
71	0x3dc89595	0.097941555
72	0xbd82b9a3	-0.06383064
73	0xbd2fa38f	-0.04288059
74	0x3c4cfcb3	0.01251142
75	0x3d6f1383	0.058368217
76	0x3da22313	0.07916846
77	0x3c287b71	0.010283337
78	0xbde3dcc0	-0.11126089
79	0x3dac4abb	0.08412691
80	0x3d2d0ee5	0.042250533
81	0xbdacd0d7	-0.084382705
82	0x3be92600	0.0071151257
83	0x3dd856fb	0.10563465
84	0x3d7c262f	0.061559852
85	0xbd955f4d	-0.07293568
86	0xbd79d6a7	-0.060995724
87	0x3daffd6a	0.08593257
88	0x3d875401	0.06607819
89	0x3c1342f1	0.008988128
90	0xbd9dff8e	-0.07714759
91	0x3b3c4bde	0.0028731744
92	0xbd02b69e	-0.03191244
93	0xbd310e03	-0.043226253
94	0xbd86ba54	-0.06578508
95	0x3d828d0d	0.063745596
96	0xbcd97f3b	-0.026549926
97	0x3de1d78f	0.11027443
98	0x3d07cd53	0.033154797
99	0xbbfc2e78	-0.007695969
100	0xbcca6866	-0.024707984
101	0x3d4a42e1	0.049380187
102	0x3e1afbed	0.15135165
103	0xbd294b3c	-0.041331515
104	0x3dcf3d10	0.101190686
105	0xbd7b2017	-0.0613099
106	0x3d3741a3	0.04474033
107	0xbc3514c8	-0.011052318
108	0xbdf5eda0	-0.12008214
109	0x3dc91310	0.09818089
110	0xbd94acbf	-0.07259511
111	0x3d141d32	0.036160655
112	0xbcf85ca7	-0.030317618
113	0xbdba097b	-0.090838395
114	0x3dd4421f	0.10364174
115	0x3d9f674a	0.07783373
116	0x3ddacf09	0.1068402
117	0x3c8a0caf	0.016851751
118	0xbd97be37	-0.074093275
119	0xbde42bc5	-0.11141161
120	0xbdf3e0fe	-0.11908148
121	0x3d627f43	0.055297147
122	0xbce8ece5	-0.028433273
123	0xbceb6a34	-0.028737165
124	0x3dc18781	0.094496734
125	0x3d7ef5f7	0.06224629
126	0xbbc9256e	-0.006138495
127	0x3dd23eed	0.102659084
128	0xbdb49b2c	-0.08818659
129	0xbdc8fa44	-0.098133594
130	0x3c488b0c	0.012240183
131	0x3dba7295	0.09103886
132	0x3c9ac91c	0.018894725
133	0xbb54367d	-0.003238111
134	0xbd7296be	-0.05922579
135	0x3d4ea119	0.050446603
136	0xbc612957	-0.013742766
137	0x3cb77d04	0.02239848
138	0x3bc6b3c2	0.0060639093
139	0xbc6deb22	-0.014521392
140	0xbdb5fca2	-0.088860765
141	0x3db29861	0.0872047
142	0xbd53f81e	-0.051750295
143	0x3de70edf	0.11282133
144	0x3d4290b7	0.047501292
145	0xbe038a20	-0.1284566
146	0x3db95991	0.090502866
147	0x3dfdf099	0.12399406
148	0x3c9eda28	0.019391134
149	0x3d8c46b6	0.068494245
150	0xbd6154ca	-0.0550125
151	0xbd458330	-0.048220813
152	0x3db07c03	0.08617403
153	0xbc8be5b7	-0.01707731
154	0x3adeb68a	0.0016991657
155	0xbd8c7312	-0.068578854
156	0x3db26b98	0.08711928
157	0x3da2288a	0.079178885
158	0xbddaf6d9	-0.10691614
159	0xbdee2725	-0.1162856
160	0x3dcc202a	0.09967072
161	0x3dd225de	0.10261129
162	0x3c3c0acb	0.011477183
163	0xbe00ab95	-0.12565453
164	0xbd92db00	-0.07170677
165	0x3c9f1f3c	0.019424073
166	0x3dd0d4b8	0.10196823
167	0x3e005461	0.12532188
168	0x3d5ba232	0.05362148
169	0xbd9ad7b3	-0.075606726
170	0xbd927525	-0.0715125
171	0xbdcf2a1e	-0.10115455
172	0x3d39037f	0.04516935
173	0x3ca1ae8f	0.019736556
174	0xbda227ad	-0.07917724
175	0xbde800f6	-0.11328308
176	0x3d2182c5	0.039431352
177	0xb9d27170	-0.0004013884
178	0xbcc4844b	-0.023988863
179	0x3d1c5067	0.038162615
180	0xbdb02bd0	-0.086021066
181	0xbd5449c6	-0.05182817
182	0xbd2e7081	-0.04258776
183	0xbd1cecc3	-0.03831173
184	0x3d95cbe5	0.073142804
185	0xbddbbf1b	-0.1072981
186	0x3d07148d	0.032978583
187	0x3ccf6759	0.025317835
188	0x3de916fe	0.113813385
189	0x3cbc7f31	0.023009868
190	0x3db0d0b0	0.08633554
191	0xbe01fa43	-0.12693124
192	0xbdb6d0bf	-0.08926534
193	0xbd8a9f49	-0.067686625
194	0x3dd8a8b3	0.10579052
195	0xbddf2afb	-0.1089687
196	0xbd65c58c	-0.0560966
197	0xbc8cca4b	-0.017186305
198	0xbda50d1b	-0.0805914
199	0xbd9fb22d	-0.07797656
200	0xbdf4150d	-0.119180776
201	0xbb9b383b	-0.004736928
202	0x3dce05e5	0.10059718
203	0x3df2065d	0.1181762
204	0x3dda9469	0.10672838
205	0x3d5a1d42	0.05325056
206	0xbd06f1be	-0.032945387
207	0x3dafe6ab	0.08588918
208	0x3c57d424	0.013173137
209	0xbdd04afe	-0.101705536
210	0x3dec90d7	0.115510635
211	0x3c9a36e0	0.018824995
212	0xbbaf67f5	-0.005352969
213	0x3cc5a8e4	0.024128385
214	0xbdf1bdd4	-0.11803785
215	0x3dd9fd5a	0.10644026
216	0x3e06000f	0.1308596
217	0xbdc9f016	-0.09860246
218	0xbd87f43c	-0.06638381
219	0x3d9d5d17	0.07683771
220	0x3c9f071f	0.019412575
221	0x3d2cfc0a	0.04223255
222	0x3cfd7aa1	0.030942263
223	0xbd957dab	-0.0729936
224	0xbcaac986	-0.020848047
225	0xbd968b2d	-0.073507644
226	0x3de83061	0.113373525
227	0xbe0595c0	-0.13045406
228	0xbd578c7a	-0.052624203
229	0xbc428c9b	-0.011874343
230	0x3df1a5a1	0.11799169
231	0xbd817811	-0.06321729
232	0xbdfbdea7	-0.12298327
233	0xbcfbe109	-0.030746954
234	0x3db31ccf	0.08745729
235	0x3d97659a	0.07392426
236	0xbe04624a	-0.1292812
237	0x3d0a12fa	0.033709504
238	0xbbe05b84	-0.006846847
239	0x3da8df83	0.082457565
240	0xbd8318d3	-0.06401219
241	0x3da728a9	0.08162052
242	0x3d9d8cb5	0.07692853
243	0xbdfa0042	-0.122070804
244	0xbe040be1	-0.12895156
245	0x3d10d56a	0.035359778
246	0xbd93ce6b	-0.072171055
247	0xbddb92a7	-0.10721331
248	0xbc1870c7	-0.009304232
249	0xbd950c96	-0.07277791
250	0x3d2674c5	0.040638704
251	0xbc962592	-0.018328462
252	0x3c8069ba	0.015675414
253	0xbc89fda1	-0.016844572
254	0x3dcac552	0.09900917
255	0x3a5db608	0.0008457606

encoder.encoder.3.bias f4 [20]
0	0x3d29b30c	0.041430518
1	0x3d8dd3fa	0.06925197
2	0x3df4ce71	0.11953438
3	0xbcb4944c	-0.02204337
4	0xbdb9da71	-0.090748675
5	0x3de6f2c6	0.11276774
6	0x3d25543a	0.040363528
7	0x3d51fa6a	0.051264204
8	0x3d3d4143	0.046204817
9	0x3de8c80f	0.11366283
10	0x3d5d89e3	0.054086577
11	0x3d09d335	0.03364869
12	0xbbffb045	-0.0078029954
13	0xbceb0819	-0.028690385
14	0xbda8b8b3	-0.082383536
15	0xbdef4408	-0.11682898
16	0xbd8ab072	-0.067719355
17	0xbdf259fc	-0.118335694
18	0x3e066abc	0.13126653
19	0x3d495dd0	0.049161732

model.0.weight f4 [32, 20]
0	0x3e385939	0.18002786
1	0xbd01a92d	-0.03165548
2	0xbe668f43	-0.22515588
3	0xbdf341d6	-0.118777916
4	0xbdc25086	-0.09488015
5	0xbd17e522	-0.037083752
6	0x3e0b9f0b	0.13634889
7	0xbd82bf63	-0.0638416
8	0x3e22a0b6	0.15881619
9	0xbddb880c	-0.10719308
10	0xbe21bd90	-0.15794969
11	0xbc16a80b	-0.009195338
12	0x3e229d62	0.1588035
13	0x3e59f232	0.21283796
14	0xbdfaa1ff	-0.122379296
15	0x3e047dc1	0.12938596
16	0x3dcedb6e	0.10100447
17	0x3a6b0d87	0.00089665543
18	0x3d9a3e2e	0.07531391
19	0xbdd676d3	-0.10471883
20	0x3d970be4	0.07375315
21	0x3e4b0f5d	0.1983008
22	0x3e806f2f	0.25084826
23	0x3e150f3f	0.14556597
24	0xbd86cd30	-0.06582105
25	0x3d967c1a	0.07347889
26	0xbe018f5b	-0.12652342
27	0x3d5fc3e7	0.054630186
28	0x3dfbabbe	0.122886166
29	0x3dc1b6d2	0.09458698
30	0xbe18b149	-0.14911379
31	0xbe4cf056	-0.20013556
32	0x3e059880	0.13046455
33	0xbddc3e6c	-0.107540935
34	0x3db6a54c	0.089182466
35	0xbe22b48b	-0.15889184
36	0x3de58fd9	0.112090774
37	0xbdf73fad	-0.12072692
38	0xbd597906	-0.053093933
39	0xbdd8c4c8	-0.10584408
40	0x3ccb97eb	0.024852714
41	0xbd76cf98	-0.06025657
42	0x3c6ff658	0.014646135
43	0xbe134df9	-0.14385213
44	0xbdaa368c	-0.08311185
45	0x3dd62ade	0.10457395
46	0x3e1de4f2	0.15419367
47	0xbaa5b2cc	-0.0012641787
48	0x3e059db2	0.13048437
49	0x3c9d20d0	0.019180685
50	0xbdf48318	-0.11939067
51	0x3dddc90e	0.10829364
52	0x3bbf62b0	0.005840622
53	0xbd462c43	-0.048382055
54	0x3d871749	0.06596238
55	0xbde0b319	-0.1097166
56	0xbd185f2a	-0.03720013
57	0xbe1dcec7	-0.1541091
58	0xbd490238	-0.04907438
59	0xbe51ed56	-0.20500693
60	0xbdd11ab4	-0.10210171
61	0xbe18bf4b	-0.14916722
62	0x3d2e6da1	0.04258502
63	0xbd828245	-0.06372503
64	0xbdeb0e03	-0.11477282
65	0xbd33aaf3	-0.0438642
66	0xbe0c4d5f	-0.1370139
67	0x3da8cea5	0.08242539
68	0x3e415340	0.18879414
69	0xbd65688a	-0.0560079
70	0xbe5ffa44	-0.21872813
71	0xbcc3afce	-0.023887541
72	0xbe696852	-0.22793701
73	0xbe3e9413	-0.18611173
74	0xbe2800a6	-0.16406497
75	0xbb33e873	-0.0027451783
76	0x3dffb376	0.12485401
77	0xbd1c35f5	-0.038137395
78	0x3aad9499	0.0013243138
79	0xbe1b6b79	-0.15177716
80	0x3e593665	0.21212156
81	0x3d6d9979	0.05800769
82	0x3d92b0c1	0.071626194
83	0xbbfe82a1	-0.007767037
84	0x3e16412d	0.146733
85	0xbd44416d	-0.047913957
86	0xbbe36248	-0.0069392063
87	0xbe4555cd	-0.19271012
88	0xbe0b7154	-0.1361745
89	0xbd0b59a2	-0.034021027
90	0xbe5fc0c5	-0.2185088
91	0xbe125798	-0.14291227
92	0x3e500f95	0.20318444
93	0xbe4695ca	-0.19393077
94	0xbe4e07eb	-0.20120208
95	0x3ddea7a8	0.10871822
96	0xbce195cf	-0.027537255
97	0x3e410517	0.18849598
98	0x3dfac47a	0.12244506
99	0xbdbe5c8c	-0.09294996
100	0xbe74bbf9	-0.23899831
101	0x3e42054a	0.1894733
102	0x3e49cf27	0.19707929
103	0x3e3d64a6	0.18495426
104	0x3d21fcc6	0.039547704
105	0xbde2fe76	-0.11083691
106	0x3e4259ed	0.18979616
107	0xbdb89551	-0.09012855
108	0xbd72e7cf	-0.0593031
109	0xbe48f6dd	-0.19625421
110	0x3d596211	0.05307204
111	0x3e4dacc2	0.20085433
112	0x3e07ba47	0.13254653
113	0x3de0851d	0.10962889
114	0xbd50f7a2	-0.05101741
115	0xbd7fd6e0	-0.06246078
116	0xbe51202e	-0.20422432
117	0x3e04e9ad	0.12979765
118	0x3cbf8071	0.023376675
119	0xbda2f8cc	-0.079576105
120	0xbcea4d1b	-0.02860122
121	0xbe4551bb	-0.19269459
122	0x3e16cd12	0.14726666
123	0x3d9a4301	0.07532311
124	0xbe607692	-0.21920231
125	0xbe144088	-0.14477742
126	0xbe4c1a82	-0.19931987
127	0x3e5324fa	0.20619574
128	0x3c3520fa	0.0110552255
129	0xbe66faed	-0.22556658
130	0x3dfd935a	0.12381621
131	0xbe6bcad6	-0.23026595
132	0xbcb41da1	-0.021986784
133	0x3cda4689	0.026644962
134	0x3e302423	0.17201285
135	0x3e1da270	0.15393996
136	0xbc6cb5d3	-0.014447647
137	0x3de3a6a5	0.11115769
138	0x3d111b30	0.03542632
139	0xbe48004c	-0.19531363
140	0xbba882ef	-0.0051425616
141	0x3de06cee	0.10958277
142	0xbd755326	-0.05989375
143	0x3e1be998	0.15225828
144	0xbc8427f3	-0.01613233
145	0x3e4db12c	0.20087117
146	0xbe528868	-0.20559847
147	0x3d677ebe	0.056517355
148	0xbe3fff70	-0.18749785
149	0xbe08f89c	-0.13376087
150	0xbd1a3176	-0.037644826
151	0xbe4d4fe5	-0.20050009
152	0x3d16b7bd	0.03679632
153	0x3e2b4ed8	0.16729295
154	0xbd4bebef	-0.04978555
155	0xbdc02a38	-0.093830526
156	0xbc76fae2	-0.015074464
157	0xbdbeace4	-0.0931032
158	0x3e694ff8	0.22784412
159	0xbdb63781	-0.08897305
160	0xbd8d2b2c	-0.06893
161	0x3e43d23a	0.19123164
162	0xbce6123e	-0.02808487
163	0xbdde44b2	-0.10852946
164	0x3e02261a	0.12709847
165	0xbe6cc7d1	-0.23123099
166	0x3dd696c4	0.10477975
167	0xbdbeb655	-0.09312121
168	0x3dae0ec9	0.08498914
169	0xbe4e9889	-0.20175375
170	0x3e397192	0.1810973
171	0xbdaf9d2c	-0.085749
172	0xbddf479a	-0.10902329
173	0xbc8f9d14	-0.017530955
174	0x3e3dd193	0.18536977
175	0x3d41a023	0.04727186
176	0x3e2fa130	0.17151332
177	0x3c0e3f12	0.008682029
178	0x3ce7a8d1	0.02827874
179	0x3d5ca7cd	0.053870965
180	0x3e64c098	0.22339094
181	0x3bc056b5	0.0058697113
182	0xbc6197dc	-0.013769116
183	0x3e70be04	0.23509985
184	0xbdb4a59c	-0.0882065
185	0xbcf67968	-0.030087188
186	0x3d54a2a9	0.051912937
187	0x3cdaae5a	0.026694465
188	0x3c2785e0	0.010224789
189	0xbca53cb8	-0.020170555
190	0xbdc4e9e0	-0.096149206
191	0x3df2b22e	0.11850391
192	0xbe2fc291	-0.17164065
193	0xbc9dc205	-0.019257555
194	0xbe5ed77f	-0.21761893
195	0x3d9b97a2	0.07597281
196	0xbd079042	-0.03309656
197	0x3e3b536d	0.18293543
198	0xbe2a86f9	-0.1665305
199	0xbddf491a	-0.10902615
200	0x3d449aa3	0.047999036
201	0x3d93a300	0.07208824
202	0xbe2a25fe	-0.16616055
203	0x3e307bb1	0.17234685
204	0x3d1589c8	0.03650835
205	0xbe020a47	-0.12699233
206	0xbdf751c8	-0.120761454
207	0x3d075b17	0.033045854
208	0xbc048e5c	-0.008090582
209	0x3df2107b	0.1181955
210	0xbe82c2a2	-0.25539118
211	0x3df357fc	0.11882016
212	0xbd8665e8	-0.06562406
213	0xbd2db918	-0.042412847
214	0xbe4c6a5a	-0.19962445
215	0xbdd29e42	-0.102840915
216	0xbe4436ab	-0.19161479
217	0x3914cad6	0.00014189942
218	0x3e2fe9f6	0.17179093
219	0xbdeaf8ed	-0.1147326
220	0xbdf04c7b	-0.117333375
221	0xbdbec5ce	-0.09315072
222	0x3d1f736e	0.03892844
223	0x3dbf6672	0.09345712
224	0x3e0d630b	0.13807313
225	0x3e01f73c	0.12691969
226	0x3df6a732	0.12043609
227	0xbe2d63ab	-0.16932552
228	0xbdc1530b	-0.09439667
229	0xbe476b0b	-0.19474427
230	0x3e0eb60f	0.13936637
231	0x3e2d0f8d	0.16900463
232	0xbe143f2f	-0.14477228
233	0xbd8d1f9e	-0.06890796
234	0xbb83b427	-0.0040192786
235	0x3e16db11	0.14732005
236	0x3e5b2c66	0.21403655
237	0xbd4b5f51	-0.049651448
238	0x3e52e820	0.20596361
239	0xbdf96f2e	-0.12179409
240	0x3cf40938	0.029789552
241	0x3ddbf769	0.10740549
242	0x3e146215	0.1449054
243	0x3de93d99	0.11388702
244	0x3d6540ec	0.055970117
245	0x3d8926fd	0.066968895
246	0x3e1f7b90	0.15574479
247	0x3d25bb4d	0.040461827
248	0x3d56c0e7	0.05243006
249	0x3d0dd956	0.034631096
250	0x3e12cfdd	0.14337106
251	0x3df60c09	0.12014014
252	0xbcde8191	-0.027161391
253	0xbe2ba40e	-0.167618
254	0x3d906eea	0.07052405
255	0x3e2e1544	0.170003

model.0.bias f4 [32]
0	0x3deb3254	0.11484209
1	0x3dd25d89	0.10271747
2	0xbdac6190	-0.08417046
3	0xbe0818a4	-0.1329065
4	0xbd6f2d7f	-0.058392998
5	0x3d908c00	0.07057953
6	0x3e408c9e	0.18803641
7	0x3d784a26	0.06061759
8	0xbe3895b9	-0.18025865
9	0xbda1d410	-0.07901776
10	0xbe541972	-0.20712832
11	0x3e6a61f9	0.22888936
12	0x3caba8e6	0.02095456
13	0xbd8d641c	-0.0690386
14	0xbe37d9b1	-0.17954136
15	0x3daba74b	0.08381518
16	0xbd305c4f	-0.043056782
17	0xbe042bfc	-0.12907404
18	0x3df2b6f9	0.118513055
19	0xbda4d0c6	-0.08047633
20	0xbe45140e	-0.19245932
21	0xbe169081	-0.14703561
22	0x3dd9e13b	0.106386624
23	0xbd7552c2	-0.059893377
24	0x3d8e55fe	0.069499955
25	0xbdd3dd19	-0.103449054
26	0x3d787ca5	0.060665745
27	0xbdd233ec	-0.102638096
28	0x3cd6471e	0.026156958
29	0x3dbe883b	0.09303328
30	0x3e220a49	0.15824236
31	0x3dd16a91	0.10225404

model.2.weight f4 [64, 32]
0	0xbd9206da	-0.07130213
1	0xbd39ef30	-0.045394123
2	0xbe066a14	-0.13126403
3	0x3d2bdd79	0.04195926
4	0xbd265e8d	-0.040617514
5	0xbe081964	-0.13290936
6	0xbd87cb8b	-0.066306196
7	0x3d406707	0.046973255
8	0xbe179f36	-0.14806828
9	0xbcfc3f6b	-0.030791959
10	0xbd97fcaa	-0.07421239
11	0x3e2a9f01	0.16662218
12	0x3ced27a3	0.028949564
13	0x3d9061e4	0.07049921
14	0x3e15eb7f	0.14640616
15	0x3dd4d672	0.10392465
16	0xbd8a48b3	-0.067521475
17	0xbd610ae9	-0.054942045
18	0xbe05a9bf	-0.13053034
19	0x3e1707d8	0.14749086
20	0xbdaa47b0	-0.083144546
21	0x3d9cc846	0.076553866
22	0x3db46c95	0.08809773
23	0xbe403553	-0.18770342
24	0x3cde8f24	0.027167864
25	0xbbd9616c	-0.006633928
26	0xbda43d14	-0.08019462
27	0x3d763f35	0.060118873
28	0x3d3db9dc	0.046319827
29	0xbe229b94	-0.15879661
30	0x3d678847	0.05652645
31	0xbe2961d5	-0.16541226
32	0xbe0947cd	-0.13406296
33	0x3dc946a5	0.098279275
34	0xbddc02b1	-0.10742701
35	0xbcc1b607	-0.023646368
36	0x3e3b2ded	0.18279238
37	0xbdcbd342	-0.099524036
38	0x3c6c9d87	0.014441854
39	0xbd41b55e	-0.047292106
40	0x3e0c98e4	0.13730198
41	0xbdd7151b	-0.105020724
42	0xbe37505f	-0.17901753
43	0xbe333cb7	-0.1750363
44	0xbd863d8c	-0.06554708
45	0x3c29218a	0.010322938
46	0x3e07b3d2	0.1325219
47	0xbc1e403e	-0.009658871
48	0x3d268dba	0.040662505
49	0x3e55e001	0.20886232
50	0xbe2d5776	-0.16927895
51	0xbd614de5	-0.055005927
52	0xbe2a5393	-0.16633444
53	0x3d5b1541	0.053487066
54	0xbe199c44	-0.15001017
55	0x3d7b25ff	0.061315533
56	0x3e265eb0	0.16247058
57	0xbdc73152	-0.09726204
58	0x3cf08d29	0.029364185
59	0xbd0927f1	-0.033485357
60	0xbe245648	-0.16048539
61	0x3c262797	0.010141275
62	0xbc8d05c1	-0.017214658
63	0xbbc4dbf0	-0.006007664
64	0xbd24dba4	-0.040248528
65	0x3b197cda	0.0023420365
66	0xbd83227d	-0.064030625
67	0x3db4562b	0.08805498
68	0xbdb7dcd2	-0.08977665
69	0xbd522edb	-0.051314216
70	0x3cc03d86	0.023466837
71	0x3e122b62	0.14274362
72	0xbceb4869	-0.028721051
73	0x3ddc1f94	0.107482105
74	0x3c8b2c0d	0.016988778
75	0xbe368a01	-0.17826082
76	0x3d927ac0	0.07152319
77	0xbdf02205	-0.11725239
78	0x3c590f51	0.013248281
79	0x3d1e2c10	0.03861624
80	0x3d96117e	0.07327555
81	0xbcf1395e	-0.0294463
82	0xbc9020fb	-0.017593851
83	0x3d4c8385	0.049930114
84	0x3dbb3bf3	0.09142294
85	0xbca75cc3	-0.020429974
86	0x3da7fbfb	0.08202358
87	0xbe008493	-0.12550573
88	0x3baea7ba	0.005330053
89	0x3e1009e3	0.14066271
90	0x3d849bfd	0.06475065
91	0xbd8adb13	-0.06780066
92	0x3d40f067	0.047104266
93	0xbe1d6d11	-0.15373637
94	0x3e187cf7	0.1489142
95	0x3e16ca8a	0.147257
96	0x3dfa241c	0.122139186
97	0xbe23a1c0	-0.15979671
98	0xbe2fef46	-0.1718112
99	0xbdb57a8d	-0.08861265
100	0x3e303233	0.1720665
101	0x3d5778a2	0.05260528
102	0xbe078406	-0.13233957
103	0x3d777287	0.060411956
104	0xbdd3a044	-0.103333026
105	0xbde9dde6	-0.11419277
106	0x3e05124a	0.12995258
107	0x3da40776	0.080092356
108	0xbd9dc5b7	-0.07703727
109	0x3cfd28f5	0.030903319
110	0x3dea6f58	0.114470184
111	0xbe215a2c	-0.15757054
112	0xbc953e79	-0.018218266
113	0xbd7282ec	-0.059206888
114	0x3d764402	0.06012345
115	0x3cfd679b	0.030933192
116	0xbe0fec2a	-0.14054933
117	0xbded3679	-0.115826555
118	0x3ce522af	0.02797064
119	0x3d849a21	0.0647471
120	0xbe1e9db7	-0.15489851
121	0xbd7fbaaa	-0.062433876
122	0x3ddd0136	0.107912466
123	0xbe15c79e	-0.14626929
124	0xbde05c44	-0.10955098
125	0x3e10ecc0	0.14152813
126	0x3d8d56fb	0.06901356
127	0x3ded40e6	0.11584644
128	0xbd91574b	-0.07096728
129	0xbd3b0c0f	-0.045665797
130	0x3dac7f9e	0.084227785
131	0xbbf294b4	-0.0074029807
132	0x3e060ce4	0.13090855
133	0x3e13dae5	0.1443897
134	0xbdeac1d4	-0.11462751
135	0xbe024b6f	-0.12724088
136	0xbd810290	-0.06299317
137	0x3d2fbd05	0.042904872
138	0x3bb65097	0.0055638063
139	0xbb06db58	-0.0020577516
140	0x3da6c962	0.081438795
141	0xbce39d4c	-0.027784966
142	0x3ca88365	0.020570466
143	0x3e2479d8	0.16062105
144	0x3e3772ba	0.17914858
145	0xbd4b198a	-0.049584903
146	0xbc52967d	-0.012853262
147	0xbde78d9e	-0.11306308
148	0xbd81573c	-0.06315467
149	0xbbbf8c28	-0.0058455653
150	0xbe11d5b0	-0.14241672
151	0x3e0fab91	0.14030291
152	0xbe148d33	-0.14506988
153	0x3df49385	0.119421996
154	0xbd1489c7	-0.036264207
155	0x3d435478	0.047687978
156	0x3de91555	0.11381022
157	0x3e17563b	0.14778988
158	0x3dc731d5	0.097263016
159	0x3e33a2dc	0.17542595
160	0x3e10ff47	0.1415988
161	0xbdc1a1b3	-0.0945467
162	0xbc26e232	-0.010185765
163	0xbe3f37a6	-0.18673572
164	0x3de95fcb	0.11395224
165	0x3d26201f	0.040557977
166	0x3e050e69	0.12993778
167	0x3e0ab7f4	0.13546735
168	0xbd9552b5	-0.07291166
169	0xbe0175d3	-0.12642603
170	0x3d387f78	0.04504344
171	0xbd29ead3	-0.04148371
172	0xbd190f9b	-0.0373684
173	0x3e0fdffe	0.1405029
174	0xbdaba2f1	-0.08380688
175	0xbd5a8a77	-0.053354707
176	0xbd9e074b	-0.07716235
177	0x3c26fb44	0.010191742
178	0x3e311acb	0.17295377
179	0xbc4801c1	-0.012207449
180	0x3d274d9d	0.040845502
181	0xbce44615	-0.027865449
182	0xbaf5b8a1	-0.001874704
183	0xbe0a5c94	-0.13511878
184	0xbe0dd317	-0.13850056
185	0x3cc05c23	0.023481434
186	0xbe1e3b52	-0.15452316
187	0x3dbe184c	0.09281978
188	0xbe22d53e	-0.15901658
189	0xbd40f11e	-0.047104947
190	0x3d4159f3	0.047204923
191	0xbd1b6d38	-0.037945956
192	0xbdb3dd86	-0.087824866
193	0xbdfefaec	-0.12450203
194	0xbde5cf93	-0.11221232
195	0xbd2cfeaf	-0.042235073
196	0xbcba9600	-0.022776604
197	0xbd951a91	-0.07280458
198	0x3c3c2bef	0.011485084
199	0x3ce725d6	0.028216284
200	0xbce64259	-0.028107809
201	0xbcb88ea6	-0.022528958
202	0x3dd74588	0.10511309
203	0xbceda9f1	-0.029011698
204	0xbe05a953	-0.13052873
205	0xbcbec394	-0.023286618
206	0x3dd0ee51	0.10201705
207	0x3d24dc4e	0.04024916
208	0xbe10442d	-0.14088507
209	0xbe1d242a	-0.15345827
210	0x3c75ef13	0.015010613
211	0xbd2e2a29	-0.042520676
212	0xbd8f61ef	-0.07001101
213	0xbd2f80e2	-0.04284752
214	0x3e141039	0.14459313
215	0x3d40ede7	0.04710188
216	0x3dbda83b	0.09260603
217	0xbe3ac731	-0.18240048
218	0x3e2deddc	0.16985267
219	0xbe388a95	-0.18021615
220	0x3dea6a14	0.11446014
221	0xbdba3b4d	-0.09093342
222	0x3d32f2cc	0.04368858
223	0x3cbb7e1f	0.022887288
224	0xbcf03b38	-0.029325113
225	0x3e148e8a	0.145075
226	0xbd438dad	-0.047742534
227	0xbe362e53	-0.17791109
228	0xbdb6b7cb	-0.089217745
229	0xbd436c35	-0.047710616
230	0x3e0640e0	0.13110685
231	0x3dbf36a3	0.09336593
232	0x3cc46b79	0.023977028
233	0x3d9a08c4	0.07521203
234	0xbd3bca73	-0.045847367
235	0x3cb2b324	0.021813937
236	0xbdd1fe16	-0.10253541
237	0x3d3e60bd	0.046478976
238	0x3df8987a	0.121384576
239	0xbdf121e0	-0.11774039
240	0x3d398ccb	0.045300286
241	0xbd8a7901	-0.06761361
242	0x3d9966f8	0.07490343
243	0x3ddbc65f	0.10731196
244	0xbdce49a0	-0.100726366
245	0xbd86cf90	-0.06582558
246	0xbd21bf31	-0.039488975
247	0xbbc9fea5	-0.006164389
248	0xbe0c7946	-0.13718137
249	0xbd6bfa82	-0.05761195
250	0xbcd06594	-0.025439061
251	0xbe07eee5	-0.13274725
252	0xbe292212	-0.16516903
253	0xbd273139	-0.040818427
254	0xbd4a60f3	-0.049408864
255	0xbcd73f6f	-0.026275365

model.2.bias f4 [64]
0	0xbdbbbf65	-0.09167365
1	0xbd495876	-0.04915663
2	0xbdc3eccd	-0.095666505
3	0xbce378da	-0.027767587
4	0x3e08e89a	0.1336998
5	0x3d1646ba	0.036688544
6	0xbdcb9ec9	-0.09942395
7	0xbdaca012	-0.084289685
8	0x3c70c1e0	0.014694661
9	0xbdfd0611	-0.12354673
10	0xbdf23196	-0.11825864
11	0xbe0d07fb	-0.13772576
12	0xbdef8c0d	-0.116966344
13	0xbda3553d	-0.07975242
14	0x3d91ae37	0.07113307
15	0xbc5a3594	-0.013318438
16	0xbdfc2cb8	-0.12313217
17	0xbd0f20cd	-0.03494339
18	0xbdec8fe2	-0.11550881
19	0xbde712d6	-0.112828895
20	0x3df1bfe3	0.118041776
21	0xbd00559d	-0.031331647
22	0xbbf6bc13	-0.0075297444
23	0xbbd3c830	-0.006463073
24	0x3d6b91c0	0.057512045
25	0x3d5cde9d	0.053923238
26	0xbe249499	-0.1607231
27	0x3d2826f2	0.041052766
28	0x3daa821f	0.083256
29	0x3dd22caf	0.10262429
30	0x3d42736c	0.047473356
31	0x3d1fd93c	0.03902553
32	0x3d70085d	0.058601726
33	0xbe28a287	-0.1646825
34	0x3d52371b	0.051322084
35	0xbd15c72b	-0.036566895
36	0xbe376306	-0.17908868
37	0x3ddfce01	0.10927964
38	0xbe2db731	-0.16964413
39	0x3cf6d3b8	0.030130252
40	0x3c2abe28	0.010421313
41	0xbd985cd2	-0.07439579
42	0x3d7f5a8b	0.062342208
43	0xbb5ec675	-0.0033992801
44	0x3df9a25d	0.121891715
45	0x3c94473c	0.018100373
46	0xbe0cf988	-0.13767064
47	0x3d51cb0d	0.051219035
48	0x3e2198c1	0.15780927
49	0xbe1f4c35	-0.15556414
50	0x3dc474e5	0.09592608
51	0xbe1da791	-0.15395953
52	0xbce7af37	-0.028281791
53	0x3d8959cf	0.06706583
54	0x3e1ef9a6	0.15524921
55	0x3ddd1a7c	0.10796067
56	0xbe1a7a6f	-0.15085767
57	0x3dc5a3dd	0.09650395
58	0x3cc1c55e	0.023653682
59	0x3e3639a9	0.17795433
60	0xbd7c8332	-0.061648555
61	0x3d11e355	0.03561719
62	0x3db3dbd2	0.08782162
63	0xbdd6e9f9	-0.104938455

model.4.weight f4 [10, 64]
0	0xbdada0ed	-0.0847796
1	0xbd0a64bd	-0.033787478
2	0xbba27aac	-0.0049584713
3	0xbd64ee08	-0.055891067
4	0x3df34304	0.118780166
5	0x3d7e588c	0.062096164
6	0x3d833aa3	0.064076684
7	0xbd13ec71	-0.03611416
8	0x3d881c7e	0.066460595
9	0xbd6ae93f	-0.057351347
10	0x3dc5a969	0.09651453
11	0xbdd5cff4	-0.104400545
12	0x3cbf0bb6	0.023321014
13	0x3e0c82ea	0.13721815
14	0xbd8c8f80	-0.06863308
15	0xbe0977e3	-0.1342464
16	0x3d8ead7a	0.06966682
17	0x3e008094	0.12549049
18	0xbd767c11	-0.060176913
19	0xbd34e5e5	-0.044164557
20	0x3cf3b228	0.029748037
21	0xbd84e6c2	-0.06489326
22	0xbdba6db1	-0.09102953
23	0xbd806818	-0.06269854
24	0xbd89b27d	-0.06723497
25	0x3de0bf36	0.109739706
26	0xbdd3a360	-0.10333896
27	0xbc674b97	-0.014117143
28	0x3dc95754	0.0983111
29	0xbd380434	-0.044925883
30	0x3ddab7f6	0.10679619
31	0xbd844c17	-0.064598255
32	0x3d97f663	0.074200414
33	0x3dde7877	0.108628206
34	0xbc0a45b5	-0.008439471
35	0x3d117748	0.035514146
36	0x3cfbc531	0.030733677
37	0xbdbe1eef	-0.09283244
38	0x3db9ce43	0.090725444
39	0xbda62941	-0.08113337
40	0xbda4918e	-0.08035575
41	0xbd2b605e	-0.04183995
42	0xbd993768	-0.07481271
43	0x3d02dd22	0.03194917
44	0x3ddd8b2e	0.10817562
45	0xbc125b1c	-0.008932855
46	0xbd839560	-0.064249754
47	0x3dba932d	0.09110103
48	0x3d599459	0.05311999
49	0x3d5cb46e	0.05388301
50	0xbcbf3cbc	-0.02334439
51	0x3d96a22d	0.07355151
52	0x3d850047	0.064941935
53	0x3de0e9fd	0.1098213
54	0xbc253bcf	-0.01008506
55	0xbb1e8856	-0.002419015
56	0x3bdfc87c	0.0068293195
57	0xbd8c6731	-0.0685562
58	0x3d39da1a	0.045374013
59	0xbb1f7f67	-0.0024337412
60	0x3db643a6	0.08899622
61	0xbdb710f0	-0.089387774
62	0x3cf737e1	0.030178012
63	0x3d6ed293	0.058306288
64	0x3d259414	0.04042442
65	0xbdf6019b	-0.12012025
66	0x3dcd4ee0	0.1002481
67	0xbe02b0bd	-0.12762733
68	0x3cbd3008	0.023094192
69	0xbdb1c3a2	-0.08679892
70	0x3d757d45	0.05993392
71	0x3cb03c32	0.021513078
72	0x3d552d5c	0.05204521
73	0xbe08b332	-0.13349608
74	0x3cada1ec	0.021195374
75	0x3d9c458b	0.07630452
76	0xbdbb329c	-0.09140512
77	0x3cb3b940	0.02193892
78	0xbdbc59d0	-0.09196818
79	0xbdcdb9d9	-0.10045213
80	0x3cdf4ad7	0.027257366
81	0xbc4406a0	-0.01196447
82	0xbd4faf7f	-0.050704475
83	0x3bd871e6	0.0066053746
84	0xbdd1d51c	-0.102457255
85	0x3e0366bf	0.12832163
86	0x3dcb299d	0.099200465
87	0x3ce00a41	0.02734864
88	0xbd1bc9de	-0.038034312
89	0x3c62dbf0	0.0138463825
90	0xbd8bef92	-0.06832804
91	0xbda86bde	-0.08223699
92	0xbdcda063	-0.10040357
93	0xbe14e803	-0.1454163
94	0x3db76d3c	0.08956382
95	0x3d887940	0.066637516
96	0xbc7d8a7e	-0.015474914
97	0x3dc6cd36	0.0970711
98	0xbd31de46	-0.043424867
99	0x3da31abb	0.07964083
100	0x3d7e4964	0.06208171
101	0xbe140114	-0.14453536
102	0x3de56432	0.11200751
103	0xbdd3d581	-0.10343457
104	0xbd830bf1	-0.06398762
105	0xbd44f31d	-0.048083413
106	0x3d0ec068	0.03485146
107	0x3d14c73f	0.03632283
108	0xbca7ca9b	-0.020482352
109	0x3d8d2a05	0.0689278
110	0x3dc72084	0.09722999
111	0xbe0bdeed	-0.13659258
112	0xbd9d693a	-0.07686086
113	0xbdbb9d14	-0.0916082
114	0xbd89524c	-0.0670515
115	0x3dd31198	0.1030609
116	0xbd51bf17	-0.051207628
117	0x3dde0630	0.10841024
118	0x3d6a8084	0.05725147
119	0xbd918be9	-0.07106764
120	0x3dd16063	0.102234624
121	0x3dca9915	0.09892479
122	0x3d5bc92c	0.05365865
123	0xbd649124	-0.05580248
124	0x3cf717bc	0.030162685
125	0x3d50afa4	0.050948754
126	0x3e0b7424	0.13618523
127	0x3d90ed15	0.0707647
128	0xbdb36fb1	-0.08761538
129	0xbd08a8d9	-0.03336415
130	0x3b3a640b	0.0028440978
131	0xbd2a4220	-0.041566968
132	0x3db34848	0.08754021
133	0xbdf47990	-0.11937249
134	0x3d52c549	0.051457677
135	0xbd813587	-0.06309038
136	0x3ddfec98	0.109337986
137	0xbd272b97	-0.040813055
138	0xbd93776f	-0.072005145
139	0x3dd3b115	0.1033651
140	0xbdac30cc	-0.08407745
141	0xbd886246	-0.06659369
142	0x3c5d6e34	0.013515044
143	0x3d42b95a	0.047540046
144	0x3d56aaac	0.05240886
145	0xbd4569c1	-0.048196558
146	0xbc81f5bf	-0.015864251
147	0xbd286259	-0.041109417
148	0xbdbae4f9	-0.09125704
149	0x3d8e3112	0.06942953
150	0xbdd4c557	-0.10389202
151	0x3d9730f7	0.07382386
152	0xbd78d9fa	-0.060754754
153	0x3d3a9d73	0.04556031
154	0xbc4a9a6d	-0.01236592
155	0xbdcc59f3	-0.09978094
156	0xbdee642a	-0.116401985
157	0xbda2472b	-0.079237305
158	0x3ce19254	0.027535595
159	0x3d4fe36f	0.050754007
160	0x3dd139e1	0.10216118
161	0x3d489533	0.048970412
162	0xbd9045c2	-0.07044555
163	0x3a552382	0.0008130596
164	0xbddf7274	-0.10910502
165	0xbd2022de	-0.039095752
166	0x3d88e4d9	0.06684274
167	0xbd389d45	-0.04507186
168	0x3d22a98d	0.039712477
169	0x3d614948	0.055001527
170	0x3ddf11b9	0.10892052
171	0xbcf8b26e	-0.03035852
172	0xbc3d64b1	-0.011559651
173	0xbd06b687	-0.032888915
174	0xbd513aca	-0.051081456
175	0xbc151e0d	-0.009101403
176	0xbce19104	-0.02753497
177	0x3d60cfc2	0.054885633
178	0xbd696860	-0.056984305
179	0x3d4b7651	0.049673382
180	0xbd904a06	-0.07045369
181	0x3d632a54	0.05546029
182	0xbdb8ee8d	-0.09029875
183	0xbb091733	-0.0020918369
184	0xbc9cb3c5	-0.01912869
185	0x3e0da0c3	0.13830857
186	0x3d2ef254	0.04271157
187	0x3d6c60a9	0.05770937
188	0xbdd50e7f	-0.104031555
189	0xbdff63c7	-0.12470203
190	0xbd5d5042	-0.054031618
191	0x3df6e610	0.120556
192	0xbd5ef8df	-0.05443656
193	0xbdd5f138	-0.104463995
194	0xbdcdf132	-0.1005577
195	0x3dddf1e8	0.108371556
196	0xbc5d9757	-0.013524852
197	0xbdce5d40	-0.1007638
198	0xbdf62f97	-0.12020796
199	0xbd862a2a	-0.06551011
200	0xbdd6e8e1	-0.10493637
201	0x3e06e60a	0.1317369
202	0xbd2e2813	-0.042518687
203	0xbd8dda59	-0.06926412
204	0xbe0e5980	-0.13901329
205	0xbd577277	-0.052599397
206	0x3d168a2f	0.036752876
207	0x3d2e6b1b	0.042582612
208	0x3d2f7351	0.042834584
209	0xbdea897f	-0.114520065
210	0x3dda12c1	0.10648108
211	0xbd518c5f	-0.05115926
212	0xbd870929	-0.06593544
213	0xbdfd2c98	-0.12362021
214	0xbcefa186	-0.029251825
215	0x3d4883b6	0.048953734
216	0x3d9b1acd	0.07573471
217	0x398809d1	0.00025947255
218	0xbdac17f3	-0.084030055
219	0xbdcbd10d	-0.09951983
220	0xbdf6208e	-0.12017928
221	0xbcf0d267	-0.029397203
222	0x3d1a9d66	0.037747763
223	0xbdd61c48	-0.10454613
224	0xbd2bdcd4	-0.041958645
225	0xbd627571	-0.055287782
226	0x3cb02b5b	0.021505048
227	0xbdece6b5	-0.115674414
228	0xbd6bb3c2	-0.057544477
229	0x3df81e3f	0.12115144
230	0xbd70bddc	-0.058774814
231	0xbde44224	-0.11145428
232	0xbc090837	-0.008363775
233	0xbdc84676	-0.09779064
234	0x3d56b104	0.05241491
235	0xbdddb6e5	-0.108259
236	0x3db08c64	0.086205274
237	0xbd351140	-0.044205904
238	0x3dec1c86	0.11528878
239	0x3e04d046	0.12970075
240	0xbd454652	-0.048162766
241	0x3daef277	0.0854234
242	0xbbe9a4c1	-0.007130236
243	0xbdee0b0b	-0.116232
244	0x3d897f62	0.067137495
245	0x3d243706	0.040091537
246	0x3cb641cb	0.02224817
247	0x3c713100	0.014721155
248	0xbc905843	-0.017620211
249	0x3d1c5bc0	0.038173437
250	0x3ce8f50a	0.028437156
251	0xbd6b9ae1	-0.05752075
252	0x3ddf18b6	0.10893385
253	0x3cb961a7	0.022629572
254	0x3e03ef9a	0.1288437
255	0xbdc8161d	-0.09769843

model.4.bias f4 [10]
0	0xbd3249ef	-0.04352754
1	0x3d43d296	0.047808252
2	0x3b933db6	0.0044934405
3	0xbd8b9f03	-0.068174385
4	0x3e13378b	0.14376657
5	0xbd1bd54d	-0.038045216
6	0x3db954a4	0.09049347
7	0x3c4a3cd1	0.012343601
8	0x3bd0a130	0.0063668713
9	0xbd70dc3a	-0.058803774
