hw8/lightning_logs/version_6/checkpoints/epoch=49-step=23250.ckpt (torch, 790487 bytes, 36 tensors)

encoder.encoder.0.weight f4 [32, 784]
000000 24 3f bd bb 78 aa c1 bc e0 d4 ca ba f8 ca f7 3b
       -0.005775349 -0.023640856 -0.0015474819 0.0075620376
000010 80 9a ae 39 06 36 d3 3c 00 e3 e1 ba 37 28 a2 bc
       0.00033302978 0.025782596 -0.0017233789 -0.019794567
000020 a8 32 35 3c fc a9 51 3c 88 a1 52 3c fc 67 3e 3c
       0.011059441 0.012796875 0.012855895 0.0116214715
000030 59 79 0e 3d 42 ed 55 3d 18 4c 45 3c 7c 9d f0 39
       0.034783695 0.05222822 0.012042068 0.00045893702
000040 aa fe 04 bd 9c 6c 7b bc 40 43 05 3a 4f 04 09 3d
       -0.03246943 -0.015345719 0.00050835684 0.033451375
000050 2a 27 e8 3c 2a 3a e2 3c f7 87 06 3d e2 89 07 bd
       0.028338987 0.027615625 0.03284451 -0.03309048
000060 70 9b 19 3c 6e fc b4 bc 66 73 94 3c 60 10 0e 3c
       0.009375438 -0.022093024 0.018121433 0.008670896
000070 68 6d 45 3c 48 92 ba bc d4 37 53 3c b8 bd fe 3b
       0.01205001 -0.02277483 0.012891728 0.007774081
000080 eb 5f 92 bc 49 38 bd bd 39 ff 76 3a 38 37 1d bd
       -0.017868003 -0.09239251 0.00094221864 -0.03838274
000090 0e b4 5e 3c 02 b7 c6 3c 54 93 2b bc 89 9c 21 bc
       0.013592733 0.024257187 -0.0104721375 -0.009863981
0000a0 b2 d5 0a bd 53 8a df bb b3 81 c3 bb a0 09 a7 3b
       -0.033895202 -0.0068219095 -0.005966389 0.005097583
0000b0 d5 81 39 bc 23 ea f9 39 8a dd 8f 3b 3f db 11 bd
       -0.011322458 0.00047667426 0.004390423 -0.03560948
0000c0 8b a3 85 3c ae 75 b5 3c 2c 26 a9 3c af 69 04 3d
       0.016313335 0.02215084 0.020648085 0.03232735
0000d0 9a b1 a6 bc 13 1c 11 3d b5 4d 9a bc e5 01 a5 bc
       -0.020348359 0.035427164 -0.018835882 -0.020142505
0000e0 48 13 87 3c 6c f3 e5 bc 28 55 28 bc bc 20 83 bb
       0.016488686 -0.028070174 -0.010274209 -0.004001705
0000f0 7e bb d5 bc 7a d7 b6 3c 46 e4 50 bc 80 a8 b9 bc
       -0.02609038 0.022319544 -0.012749737 -0.022663355
000100 1b 67 87 3c a5 0e 38 3b 9c 6a f6 bc b8 63 ab bb
       0.016528657 0.00280849 -0.030080132 -0.0052303933
000110 93 0a 60 bc 0a a5 89 3c 7e 02 10 bb ac 34 c4 3c
       -0.013674396 0.01680233 -0.0021974142 0.023950897
000120 73 7c 2d bb d8 85 cb bb 0b f0 fe b9 62 b8 c6 bb
       -0.0026471883 -0.006211024 -0.000486255 -0.0060644606
000130 7d fd 40 bb 8d 6a 68 bb 7c 7a b4 bb 1b 28 16 bb
       -0.0029447966 -0.00354639 -0.0055077653 -0.0022912088
000140 16 93 fd 3c d2 b9 1b 3d 80 34 8f bc d8 cc b6 3c
       0.030953925 0.03801901 -0.017481089 0.022314474
000150 40 6e 9c bb 23 10 cc bc e6 94 cb bc 67 e5 08 3d
       -0.004773885 -0.024910038 -0.024851274 0.0334219
000160 59 8e 3f 3d 5e d5 8f 3a c7 42 a5 3c 1f 8c 93 3d
       0.046766613 0.0010973623 0.020173443 0.0720446
000170 6a d2 05 3d 07 a1 78 3d ae 3e e8 3b 4e 31 6e bc
       0.03267137 0.060700443 0.00708755 -0.014538122
000180 78 96 7d bc 52 5c 28 bc 66 af c7 bc 92 e7 e5 bb
       -0.015477769 -0.010275917 -0.024375629 -0.0070161307
000190 18 96 b2 bc 88 06 a0 3a b0 78 e6 3c 4b a5 04 bc
       -0.021800086 0.0012208978 0.02813372 -0.00809605
0001a0 98 2a 9b 3c fe 93 d0 3b bf 75 e9 bc 8d e7 e3 3c
       0.018941209 0.0063652983 -0.028498529 0.027820373
0001b0 b9 07 9c bc a1 e6 50 3b 76 7b 1a bd a3 57 05 bd
       -0.019046651 0.0031875747 -0.037715398 -0.03255428
0001c0 0f eb 06 3d 95 57 59 3d 76 d2 1f ba c9 29 95 bc
       0.032939013 0.05306204 -0.000609673 -0.018208401
0001d0 cb ba c4 bc 85 12 3c 3c b5 8f 9f 3c 77 c2 52 3d
       -0.024014851 0.011479025 0.019477705 0.051454987
0001e0 b8 78 ed 3c b3 f1 02 3d ea b1 bb 3b d8 45 94 bc
       0.028988227 0.031968784 0.005727996 -0.01809971
0001f0 cf 3f 63 3c 8d 57 0f 3d 34 40 e9 3c 70 c1 03 3d
       0.013870194 0.034995604 0.028472997 0.0321669
000200 bf 59 d4 39 88 63 50 bd ba 85 39 bd 76 5c 0b bd
       0.00040502657 -0.05087617 -0.045293547 -0.034023724
000210 fc d5 01 bd f1 00 da bc fd 0f 98 bc 43 91 20 3d
       -0.031698212 -0.026611777 -0.018562311 0.039201032
000220 15 b0 44 3d 52 b8 4b 3d d2 95 15 3c 1e 80 4a bd
       0.048019487 0.04973633 0.009129958 -0.04943859
000230 a8 8b cb 3c 78 2b a6 3b 12 bf 08 3d 7c 61 16 3d
       0.024846867 0.0050711 0.033385344 0.036714062
000240 cf 8a 70 bb 19 21 9e 3c 8b f9 a9 3c f7 75 b0 3c
       -0.003670383 0.019302892 0.020748874 0.021540625
000250 63 4b 05 3d c0 a8 83 3c 58 a1 3a 3d 6d 76 5c 3d
       0.032542598 0.016071677 0.045564026 0.053823877
000260 ad 99 3f 3d 38 e2 8d 3d 06 20 68 3d 17 32 d6 3c
       0.046777416 0.069279134 0.056671165 0.026146932
000270 4e 5f 6f bc 71 cd 82 bd a7 11 39 bd d0 b9 93 bd
       -0.014610125 -0.06386841 -0.04518285 -0.07213175
000280 0d 58 3e bd 9d 4a 50 bd 7a d1 b1 bc a1 8c a0 3c
       -0.04647069 -0.050852407 -0.021706332 0.019598307
000290 ec 24 08 3d 57 b4 89 3d bf 67 da 3a 04 c0 a7 3c
       0.033238336 0.0672385 0.0016662999 0.020477302
0002a0 7c 6e 0d 3c 0f fd 5a 3d 58 72 0c bd 9b 4b 71 3c
       0.008632299 0.05346399 -0.034288734 0.014727498
0002b0 69 62 fd bb b4 48 21 bc b9 0d 15 3d c7 a8 3e 3c
       -0.0077326787 -0.009843994 0.03639004 0.011636919
0002c0 4c f3 7b 3c 11 8a 6a 3d 69 8e b6 3d c9 80 8f 3d
       0.015377831 0.057260577 0.08913881 0.07006986
0002d0 11 ca 30 3d 17 e0 04 3d 15 08 b6 3c a7 3b 57 bd
       0.043161456 0.03244027 0.02222065 -0.052547123
0002e0 c9 12 51 bd 6c 82 86 bd 77 69 76 bd ed 3a c5 bd
       -0.051043306 -0.06567845 -0.060159173 -0.0963038
0002f0 b2 54 82 bd 88 6c 34 bd c8 df a1 3b cd cb 1c bb
       -0.063638106 -0.044048816 0.004940007 -0.0023925186
000300 86 a7 94 3c 2a fb 21 3c e8 ac 42 3d c5 0f 3e 3d
       0.018146288 0.009886542 0.047528177 0.046401758
000310 da 16 8e bc 0c 6b 73 bc af ad 13 3c a9 03 9c 3c
       -0.01734488 -0.014857065 0.009013577 0.019044714
000320 fe a3 95 3c f0 6a c9 bb c5 73 bb ba 56 92 09 3d
       0.018266674 -0.006146781 -0.001430147 0.033586822
000330 e4 1c 65 3d c2 ed 96 3d a3 75 92 3d 32 ca cd 3c
       0.055935755 0.073695675 0.07151344 0.025120828
000340 54 bd 25 3c ce d8 d8 bb 5c 16 47 bd 8f 2a 2c bd
       0.01011594 -0.006617642 -0.048605308 -0.042032775
000350 d8 86 8c bd 69 40 90 bd 84 1e 22 bd a1 94 7d bd
       -0.06861657 -0.07043535 -0.039579883 -0.06190932
000360 ba 1d 55 bd c3 04 23 bd a2 3f fa bb 82 8f 9b 3b
       -0.052030303 -0.039799463 -0.00763698 0.004747332
000370 c3 a7 c2 3a 55 5b 92 bb e7 9d 59 3d 7d 46 9d bb
       0.0014851022 -0.004466454 0.053129103 -0.0047996626
000380 72 bf a6 bc 38 f3 dc bc 90 4d 55 3d c2 b8 16 3c
       -0.02035496 -0.026971444 0.052075922 0.009199323
000390 12 be e4 3c 63 60 87 3b 6f 93 2b 3d 8d 46 bd 3c
       0.027922664 0.0041313632 0.04188865 0.02310493
0003a0 df c0 90 3d d9 f2 aa 3d 3c 8a 45 3d 87 30 4b 3c
       0.07068037 0.08347101 0.048227534 0.012401707
0003b0 e6 1e e9 bc 3f 10 8e bc 78 ab 15 bd 25 6a a2 bc
       -0.028457116 -0.017341731 -0.03654048 -0.019826004
0003c0 0a 0f 58 bc c3 26 19 bd d0 d5 4e ba 56 6e cf 3c
       -0.013187179 -0.03739048 -0.0007890137 0.025321167
0003d0 f1 25 d6 bb d8 bd 9b bc 54 5f ab bb b2 eb 27 3d
       -0.0065352847 -0.019011423 -0.00522987 0.04099626
0003e0 8c 52 7c 3d 04 7e 43 3d 26 c4 91 3b 83 53 18 3c
       0.06160216 0.0477276 0.0044484315 0.0092972545
0003f0 5d f4 21 3b 58 36 8c 3d 0f f9 72 3d f6 56 20 3d
       0.0024712302 0.06846303 0.059319552 0.039145432

encoder.encoder.0.bias f4 [32]
000000 d3 7c b8 3d f5 fc d7 3e 72 6f 74 3e a3 20 88 be
       0.09008183 0.42185178 0.23870638 -0.265874
000010 66 9b 68 be 10 84 c1 3e 9d a1 aa be b5 8a 3f be
       -0.2271553 0.37796068 -0.33326426 -0.18705256
000020 14 56 4e 3d dd 72 99 3e 55 4b 88 be 72 a2 eb 3d
       0.05037506 0.29970446 -0.26619974 0.11505593
000030 a5 d5 f8 bd ee 0d 04 be 58 d2 1b bf e4 bb 80 3e
       -0.121501245 -0.12895939 -0.60867834 0.2514335
000040 23 04 d0 3d e0 08 c9 3e bc 0c be bd 57 eb 0c 3e
       0.10157039 0.39264584 -0.09279773 0.1376165
000050 42 ca 0f 3e d9 59 03 bd b8 1b 61 3c e8 ba f9 3e
       0.14041999 -0.032068107 0.013739519 0.4877541
000060 9c b1 2d bc a3 6d 27 be 38 a4 a2 bd fe 6d 79 be
       -0.010601427 -0.16350417 -0.079414785 -0.24358365
000070 c6 95 fe 3d 62 6e 56 3e 78 72 c5 bd 7b f2 89 be
       0.12430911 0.20940545 -0.09640974 -0.2694281

encoder.encoder.1.weight f4 [128, 32]
000000 49 17 0f 3e 8b 69 2b ba 35 3c 4e 3d 46 dd 31 3c
       0.13973726 -0.00065388595 0.050350387 0.010855978
000010 d8 15 6f bd 31 17 34 3e 3d 4b ac 3d b7 43 d4 3d
       -0.05837044 0.17586972 0.08412788 0.10364478
000020 e1 1b 6d bc e5 83 f8 3d 1c 53 23 3e 72 5e 35 be
       -0.014471979 0.12134532 0.15949672 -0.1771181
000030 da 88 a2 3c 76 c2 a1 3d 19 da 1f 3d 59 f9 c7 bd
       0.019840647 0.078984186 0.039026354 -0.09764356
000040 e0 98 c8 3d fc 79 2f 3e 2d 0a 0a be f2 d6 67 bd
       0.097947836 0.17136377 -0.13480444 -0.056601472
000050 e9 81 52 3d 27 d3 df bd 33 04 cc bd 4f a3 32 bc
       0.051393423 -0.10928946 -0.099617384 -0.010903194
000060 64 b7 ef 3d e4 af ba 3c 44 e9 17 3d aa 80 0d be
       0.11704901 0.02278895 0.037087694 -0.13818613
000070 4a 30 38 3d 44 ce 18 3e 6a 77 15 bd 00 a4 74 bd
       0.044967927 0.14922434 -0.036490835 -0.059726715
000080 fe d9 d1 bd 53 a3 55 3e d2 97 12 3e 9f 21 8f 3b
       -0.10246657 0.20863084 0.14315727 0.0043680216
000090 64 39 12 3e 54 4b cc 3d 17 49 32 bd a2 c1 02 be
       0.14279705 0.09975305 -0.043526735 -0.12769178
0000a0 a0 d0 17 bc 2b e0 0b 3d b1 40 95 3c d5 b6 08 3d
       -0.009266049 0.03414933 0.018219324 0.033377487
0000b0 17 55 ba 3b d1 ea 1e bd 4b 9e 0c be 00 72 ba 3d
       0.005686413 -0.038798157 -0.13732259 0.09103775
0000c0 d2 46 40 3d 71 2d 02 be c0 37 8f bd fb 62 17 3e
       0.04694254 -0.12712647 -0.06993055 0.14783852
0000d0 3d de e0 3c a1 d9 3b 3d b0 41 05 3e 7b 4a 83 3d
       0.027449721 0.045861844 0.13013339 0.064106904
0000e0 93 fb a6 3b fc d9 d5 bc c6 56 f5 3d 04 5f 12 be
       0.005095908 -0.02610492 0.11979441 -0.14294058
0000f0 a5 fd a4 3c 90 4c da bd 2f ac 81 bd 6b 86 35 be
       0.020140478 -0.106591344 -0.063316695 -0.17727058
000100 16 03 46 3e 91 56 1e 3e 05 a9 c3 bd ac 0e 13 3d
       0.19337115 0.1546271 -0.09553722 0.035902664
000110 e1 93 9f 3c 0c 54 15 3e 9f fd c5 3d 30 51 3d be
       0.019479694 0.14582843 0.09667515 -0.18488002
000120 e5 54 00 be a4 76 39 3d b0 18 fc 3b dd 5a b6 3d
       -0.12532385 0.04527916 0.0076933727 0.089040495
000130 87 37 7a 3e 21 81 1f be c4 b0 8d bd f1 91 4d bd
       0.24435245 -0.15576603 -0.06918481 -0.05018801
000140 de 9c 66 3e 4d 7d 77 3d d3 dd cc bd 67 ff b3 bd
       0.22520778 0.06042223 -0.10003247 -0.087889485
000150 d4 de f9 bd ba 2a e0 3b 66 34 aa bd 9d 43 31 bd
       -0.12200704 0.006841031 -0.083107755 -0.04327737
000160 06 8e e0 3d 2f 86 29 be 9c f2 35 bc 29 7b 6e bd
       0.10964589 -0.16555093 -0.011105206 -0.058222923
000170 6d 01 4c 3e 41 9b a0 3d 8a 25 a3 3c 3c 56 91 bc
       0.19922419 0.07842112 0.019915361 -0.017741315
000180 e1 af 53 bb 88 5e 05 3e 4e f2 38 3e 2e c7 11 bd
       -0.0032300877 0.13024342 0.18061182 -0.035590343
000190 76 1e a7 3d bd bb f7 bc c8 87 49 3d c1 07 fe bd
       0.08160107 -0.030240888 0.049201757 -0.12403823
0001a0 4a 8e 7b be 1b 22 1b 3e 56 9d bd 3d 73 e8 e1 3d
       -0.24565998 0.15149729 0.09258525 0.11030664
0001b0 82 65 1c 3e 81 18 ae 3d b0 c6 26 be 3a 5c 1c 3e
       0.15273097 0.085007675 -0.16286731 0.15269557
0001c0 bf e0 ba bd 31 fd bf 3d a1 02 37 bd 8d 54 12 be
       -0.09124898 0.09374464 -0.04468024 -0.14290066
0001d0 51 e7 05 be a2 7b 5d be f3 35 73 bd 37 15 4c 3d
       -0.13076521 -0.21629193 -0.05937762 0.04982492
0001e0 fe 2e 0a bd da 83 4e 3d 20 4b 24 be b7 44 b4 bd
       -0.03373622 0.050418712 -0.16044283 -0.08802169
0001f0 77 05 d7 bd 58 70 b4 3c e3 5c 7c bd fe c1 43 bd
       -0.10499089 0.022026226 -0.06161202 -0.047792427
000200 a4 85 06 bd 1c c5 10 3c 01 bd 3e 3d 49 68 e4 bd
       -0.032842293 0.008836057 0.046566967 -0.11152703
000210 d6 06 ad bc de c3 b3 3d a4 50 15 be 3b b4 4d bd
       -0.021121424 0.08777593 -0.14581543 -0.05022071
000220 93 11 51 3e c1 cb 9f 3d 38 f8 9b bc 2b 66 df bd
       0.2041686 0.07802535 -0.019039258 -0.10908159
000230 c1 fd 37 bc b9 cd 54 be 90 d6 17 be 71 e4 2c 3e
       -0.011229933 -0.20781602 -0.14827943 0.16884018
000240 9c c6 1d 3e d8 dc c8 3c cc 94 81 be e9 4d f3 bd
       0.15407795 0.024519369 -0.25308836 -0.118800946
000250 c0 b0 e5 be 12 20 11 bd 7f 2d e9 3e 77 34 6f 3c
       -0.44861412 -0.035430975 0.45542523 0.014599911
000260 4c c6 cb bd d3 d4 74 be ce 08 aa be bc a9 f6 bd
       -0.099499315 -0.23909311 -0.33209842 -0.12044093
000270 d3 57 2f 3e e2 3f 40 3e 04 1f 2b 3d 6b d9 e9 3c
       0.17123346 0.1877437 0.041777626 0.028546056
000280 ea a6 19 bc 40 9b b9 3d 84 f8 bc bc f1 61 45 bd
       -0.009378174 0.09062815 -0.02306772 -0.048189107
000290 45 7e fc bd 86 87 76 3b b2 53 07 be 54 be 21 be
       -0.123287715 0.00376174 -0.13215521 -0.1579526
0002a0 2e 13 b4 bd 1d 18 4f bd 4e b9 00 3c 0a 64 3f bd
       -0.08792721 -0.050560106 0.00785668 -0.046726264
0002b0 68 e7 37 3d 1b c0 87 bd ce f8 4e bd bb 91 0b 3e
       0.04489842 -0.06628438 -0.050530247 0.1362981
0002c0 5e ee 70 3d 69 a1 3b 3e c3 b6 4d bd 5e c8 65 3d
       0.058821075 0.18323292 -0.050223123 0.05609929
0002d0 d9 71 d4 3d 79 86 34 3c f8 58 df 3c d6 8d 2f bc
       0.10373277 0.011018389 0.027264103 -0.010714969
0002e0 0a c9 67 bc 52 25 eb bc 2c 5c d4 3d b8 6b d2 bd
       -0.014147053 -0.02870432 0.10369143 -0.10274452
0002f0 88 18 df 3d 39 04 ed bd 6a 3d 03 bd be ae c5 3d
       0.10893351 -0.11573071 -0.03204099 0.0965247
000300 b0 fa cc bc 14 2f 60 be fb 80 56 be 81 1d d0 3d
       -0.02502188 -0.21892959 -0.2094764 0.101618774
000310 53 b5 75 bd 39 7a 0b be 96 3c f1 3d 6b 97 8f bd
       -0.059987377 -0.13620843 0.11779134 -0.070113026
000320 95 11 3e bd ab ad e5 3d 17 57 27 3e aa 38 90 bd
       -0.046403486 0.11214765 0.16341816 -0.07042058
000330 76 75 2f bd b7 20 0b 3d 2f ab 7c bd 0d 75 d9 bd
       -0.04283663 0.033966746 -0.06168669 -0.10618029
000340 99 85 2e be 6a e3 42 3d 58 fe 56 3d bf 2e 8e bd
       -0.17043151 0.04758016 0.052488655 -0.0694251
000350 45 a7 8f 3d be 5f 63 3d 15 f7 3f be ba 88 91 bd
       0.07014326 0.05551123 -0.18746598 -0.07106157
000360 e4 f7 19 be d4 29 ca 3d f4 94 8b 3e 8f 71 a2 bd
       -0.15035969 0.09871259 0.2726208 -0.07931816
000370 0a bb 96 be 76 72 59 3d ab b9 64 3e 33 66 7c 3e
       -0.29439574 0.053087674 0.22336452 0.24648361
000380 cf 34 19 bd 84 26 96 3d 6f 64 8e bd 85 7a 5b bd
       -0.037403878 0.07331565 -0.0695275 -0.05358364
000390 3e c6 f8 bc 83 c7 90 bd 02 aa e6 3d ae bd 8b bd
       -0.030367967 -0.07069304 0.11262895 -0.06823288
0003a0 b8 9a 9d 3d d4 63 3e bc 24 8d e7 3d 9f 0c 74 3a
       0.07695526 -0.011620481 0.11306217 0.0009309742
0003b0 34 05 64 3c 02 a3 69 be 2f e7 05 be 6d 48 9b 3d
       0.013917256 -0.22816089 -0.13076471 0.075821735
0003c0 38 8b 15 be 38 a5 1f 3e c8 db d5 3b ea 41 38 3c
       -0.14603889 0.1559037 0.006526444 0.011246184
0003d0 98 63 f1 3d da 6c ed 3d b0 d5 e5 3d 0b 00 14 3e
       0.11786574 0.115930274 0.11222398 0.14453141
0003e0 e4 01 a6 bd 92 19 a0 bd 8b 99 1f 3e f2 f7 f6 3d
       -0.08105829 -0.07817377 0.15585916 0.120590106
0003f0 91 5e d4 3d 80 c3 07 3e f6 3f a3 3b 1d 3c 37 be
       0.103695996 0.13258171 0.00498199 -0.17894025

encoder.encoder.1.bias f4 [128]
000000 04 6e 0a be 96 fd 05 3f f2 2d aa 3e 05 21 a5 3e
       -0.1351853 0.52340066 0.33238178 0.32251754
000010 00 ff 19 3e c1 e7 c3 3e 8c 10 22 3e f0 c9 a4 3e
       0.15038681 0.38262752 0.15826625 0.32185316
000020 ad 40 b8 3d a0 b6 d7 3e 1e 4f 9c 3e 3d dc e5 bd
       0.08996711 0.4213152 0.30529112 -0.11223648
000030 2d cf b0 3d 3e 18 a1 3e 5b 7c 2f 3e 5e 40 86 3e
       0.08633266 0.31463808 0.17137282 0.26220983
000040 73 c3 98 bd 0f a0 09 3e 62 e9 ef 3d 3e 93 0a be
       -0.07459154 0.13439964 0.11714436 -0.13532731
000050 29 cd 51 3e 1d ac fe 3d 3e 77 84 bd b4 1e a4 3e
       0.20488419 0.12435172 -0.06468056 0.32054675
000060 99 aa c8 3d ac d3 6a 3e 6a 1a f8 3d f7 d5 62 3e
       0.09798164 0.22932309 0.12114413 0.22151934
000070 bf 2c c2 3d fd 2b 5f 3e fc 0e 4b 3d a0 df 8f be
       0.09481191 0.21794124 0.049574837 -0.281003
000080 33 ce 3f bb 84 a9 b9 bc e2 ac 17 3e c5 ff c0 3d
       -0.0029267191 -0.02266384 0.14812043 0.09423784
000090 8f 4d 00 3f 89 f0 cc 3d 4a c5 57 3e f1 43 1c bc
       0.50118345 0.10006816 0.21071354 -0.009537683
0000a0 4a 37 63 3e 95 e5 9d 3e ff fb a5 3e df 3e 89 3e
       0.2218906 0.3083922 0.3241882 0.2680578
0000b0 8a 5c 65 bd 47 31 04 be ea 03 02 3f 39 d8 d1 bd
       -0.055996455 -0.12909423 0.5078722 -0.10246319
0000c0 f0 82 56 3e 2f b6 94 be 91 5d 94 3e 51 a6 9c 3e
       0.20948386 -0.29045245 0.28977636 0.3059564
0000d0 48 38 5e 3e 2c 34 5a 3e fb 3a d0 3e 02 96 24 3e
       0.21701157 0.21308964 0.4067 0.16072848
0000e0 e3 d0 f0 3c 59 a9 81 3c 10 f7 a2 3e 89 aa 9f 3e
       0.02939648 0.015827822 0.3182912 0.31184795
0000f0 78 ce 29 3e ac 0f 8b 3d 9c 4d 80 3d 7c ff df 3e
       0.16582668 0.067900985 0.06264803 0.43749607
000100 30 de 13 3f 69 39 97 3e 48 a2 1d 3e 62 20 ed bc
       0.57760906 0.29535988 0.15393937 -0.028946105
000110 37 03 98 3e 68 d5 02 3f ba 75 9d 3e d1 3b 84 3d
       0.29689953 0.5110688 0.3075388 0.064567216
000120 d6 f3 1e be 44 be 90 3c 28 32 b2 3e a3 77 99 be
       -0.15522704 0.01766885 0.3480389 -0.29974088
000130 89 a2 18 3e 1b e5 f4 3d 5b 40 b8 3d 43 c4 35 bd
       0.14905752 0.11957761 0.0899665 -0.044376623
000140 69 38 92 3e 52 f6 45 3e b0 1a 9b 3e a8 de db 3e
       0.28558663 0.19332245 0.30293798 0.4294331
000150 88 5c a5 3e 31 b7 fa 3d 12 74 6a 3e f1 c1 47 3e
       0.32297158 0.12241972 0.2289584 0.19507577
000160 a6 5a 66 3e 53 bf 6b 3e 19 b0 97 3e 18 40 0d 3d
       0.22495517 0.23022203 0.2962654 0.034484953
000170 de 55 a2 3d c9 b2 81 3e 20 11 eb 3d ff 05 6d 3c
       0.07926534 0.25331715 0.11477876 0.014466762
000180 2b ed 5b 3e 38 2e db 3d 95 02 55 3e 71 ff 7e be
       0.21477191 0.10702175 0.20801766 -0.2490213
000190 4c 89 a7 3e c3 d0 e3 3e 61 33 ba 3c a0 c7 4e 3e
       0.32721937 0.4449521 0.022729577 0.20193338
0001a0 10 14 5a bc 98 89 be 3c bb aa 74 3e 69 e8 a2 3d
       -0.013310447 0.02325897 0.23893254 0.07954485
0001b0 59 7a 05 3f 8d a5 62 3e 4d 8e 4b 3d ef a5 bf 3e
       0.5213981 0.22133465 0.049696255 0.37431285
0001c0 89 38 a4 be c9 7c 0b 3e a8 06 96 3e 5c dd f2 bd
       -0.32074383 0.1362182 0.29301953 -0.11858627
0001d0 34 bf ec 3e d9 f1 a1 3e ad a3 f5 3e 8e 72 b8 3e
       0.46239626 0.31629828 0.47976437 0.36024898
0001e0 5c 96 a4 3c 8f 4e 37 3e 5a 59 69 3e e6 8a 8d 3e
       0.020091228 0.17901061 0.22787991 0.27645034
0001f0 e7 fd 65 3e df 30 80 3e e3 df aa 3e e0 00 08 be
       0.22460137 0.25037286 0.33373937 -0.13281584

encoder.encoder.3.weight f4 [20, 128]
000000 c2 9d ef bd 36 a0 90 3d 20 6a 66 bd 29 e8 79 3c
       -0.11700012 0.07061808 -0.056253552 0.015253105
000010 f2 33 b2 bd 82 ce 6f 3d ea 29 b5 bd 17 58 4a bc
       -0.08701314 0.05854655 -0.08845885 -0.012350104
000020 e2 88 6e bc 87 a2 89 3d 68 b2 b6 3a 5e 9e 8d bd
       -0.014559003 0.06720453 0.0013938667 -0.06914972
000030 fb c9 5b bc 69 99 96 bd 86 ea a9 3d 06 5d b6 3c
       -0.013414855 -0.073534794 0.08296685 0.022261154
000040 41 af fa 3c 2c b0 7a bc 9e 98 f3 3d 1d 6f 90 3d
       0.030601146 -0.015300792 0.11894344 0.07052443
000050 6e 8f 9c bd eb 2f 25 bd 8a 28 b0 bd 7a f3 5c 3c
       -0.076445445 -0.0403289 -0.08601482 0.013485784
000060 67 a2 ec 3b 7d b1 b2 3c 85 92 58 bd 29 e9 a7 bd
       0.0072215083 0.021813149 -0.052874107 -0.08198769
000070 4f 0b a5 3d 82 ce 3b 3a ba cb 8d 3d b5 3e 85 3d
       0.080587976 0.0007164256 0.069236234 0.06506101
000080 c2 ab 7f bd ef 6a 9c 3d a3 f5 2a 3c 76 d0 4d bd
       -0.06241966 0.076375835 0.010434541 -0.050247632
000090 40 86 c2 bd 6e de 51 3d 92 53 1f bd 30 41 cd 3d
       -0.094982624 0.051237516 -0.03889806 0.10022199
0000a0 86 91 86 3d 22 1e 3e 3c 45 fb 22 bd af 91 33 3c
       0.06570725 0.011603864 -0.03979041 0.010960027
0000b0 53 2a 9a bd 31 94 b0 3d 42 da ee 3b 8b 99 3a bd
       -0.07527604 0.08622015 0.007289202 -0.045556586
0000c0 6b a4 03 3c 57 de fd 3d 12 dd ac 3d 9e 99 3d bd
       0.008034806 0.123959236 0.08440603 -0.04628908
0000d0 11 cb a6 bd 94 08 cb 3c d9 21 e6 3c 5a d9 0e be
       -0.081442006 0.024784364 0.028092312 -0.139501
0000e0 1b a9 9c bd 82 aa 96 bd 8f 59 a8 bd cd c1 2d 3d
       -0.07649442 -0.073567405 -0.08220207 0.04242115
0000f0 02 45 17 be 88 a8 de 3c b9 5a 1f bc bf 22 b0 3d
       -0.14772418 0.027179971 -0.00972622 0.08600377
000100 7d 9d 11 3e 7e 2e c5 bc 70 61 48 bd 83 af c1 3c
       0.14220233 -0.02407002 -0.04892105 0.02364326
000110 4a 46 81 3c d8 63 2b bd 4c 99 b3 3d 6e a4 10 3e
       0.015780587 -0.041843265 0.087694734 0.14125225
000120 28 f5 87 3d 7e 78 e7 bd fe 62 a4 3b fc bb 6a 3d
       0.06638557 -0.11302279 0.0050166836 0.057308182
000130 2b da c4 bb d4 5f b2 bb cc f3 81 bd cc b4 7a bc
       -0.006007453 -0.0054435525 -0.06345329 -0.015301894
000140 d9 85 b7 bb a1 0f a3 bd 72 ba 8c bd f2 3f 6f bd
       -0.0056006727 -0.07961965 -0.06871499 -0.058410592
000150 ce 53 aa bd 42 ad b1 bc fd 23 16 3c 82 9a ec bd
       -0.08316766 -0.021689061 0.009163854 -0.115529075
000160 5d a8 87 3d 63 db f1 3d f4 45 cd 3d f0 8c c7 bb
       0.066239096 0.11809423 0.10023108 -0.006089799
000170 1a b9 26 3d 09 d8 03 bd 6b 9b 21 3d 27 82 1d 3d
       0.04070387 -0.03218845 0.03945486 0.0384542
000180 a8 c1 98 3d 6a 90 c0 bd 56 ca b8 3d 89 68 2a 3d
       0.07458812 -0.09402545 0.090229675 0.0416036
000190 2a 0f ed bc 68 d3 d7 bd 0a c1 06 bd 78 d3 39 3d
       -0.028937895 -0.105383694 -0.03289894 0.045367688
0001a0 0a 5e 03 3e be 35 66 3d 0e cf 39 bc 8d ae 87 bd
       0.12828842 0.056203596 -0.01134087 -0.0662509
0001b0 63 01 b5 3d e6 be bc 3d ff f5 9a bc 62 15 80 3d
       0.08838155 0.092160985 -0.018916128 0.062540784
0001c0 0b 6d ba bd 13 70 c5 3d 4d bb a9 bd b8 b1 8b 3c
       -0.091028295 0.09640517 -0.08287678 0.017052516
0001d0 6a f3 f3 bc b6 54 26 3d 66 fb 69 3d f3 68 d1 3d
       -0.029779155 0.04060813 0.057124518 0.102250956
0001e0 08 e9 3e 3d 11 db 97 ba 7a ad d9 3c 38 e6 33 3d
       0.046608955 -0.0011585673 0.026571978 0.043920726
0001f0 e6 d6 b8 3c 75 10 c1 bc 31 0e 62 bd 34 f2 47 bd
       0.022563409 -0.023567418 -0.055189315 -0.048814967
000200 9e df 6b bd da 92 48 3d c5 6d 94 3c af 5c af bd
       -0.057586305 0.048968174 0.018118748 -0.085626
000210 c7 8c 86 3c c5 d6 cc 3d 4a 3b 80 3d 9f 42 b2 bd
       0.01642455 0.100019015 0.062613085 -0.08704113
000220 e6 72 69 bc 39 8b 19 3d f3 7c 89 3d 9f a0 c7 3b
       -0.014248585 0.03748629 0.06713285 0.0060921456
000230 40 d7 b2 3c 53 f6 e1 bc 82 45 ac 3d ee a1 e7 3d
       0.021831155 -0.027583277 0.08411695 0.113101825
000240 0e cd c5 bd ce b6 24 3e 15 9d 02 be a2 ac 22 3e
       -0.09658252 0.1608536 -0.12755235 0.15886167
000250 e7 f0 66 bd a9 be 2b 3d b4 68 b3 bd fa 09 2e 3d
       -0.056382086 0.041929875 -0.08760205 0.042489983
000260 06 e0 8c 3d 51 bc 05 3d fe a2 93 bd 07 d9 f6 bc
       0.068786666 0.032650296 -0.07208823 -0.030132784
000270 42 14 ee 3d d8 b1 7c bd d7 9e 9c bd a4 b3 8c bc
       0.116249576 -0.061693043 -0.07647484 -0.017175503
000280 d2 ed f5 bd 80 70 4f bc b0 70 bc bc eb ec 29 3d
       -0.12008251 -0.012661099 -0.023002952 0.04148571
000290 fc 93 ab 3d e9 c4 02 3d 8a da 55 bd ba 1b 82 3d
       0.08377835 0.03192607 -0.05221037 0.06352945
0002a0 fd db 0d bb a5 93 8d 3d 58 95 92 bd b8 36 9e b9
       -0.0021646016 0.069129266 -0.07157391 -0.00030176877
0002b0 6b ec 87 bc 4b db 99 bd de ab a7 3b 7d 24 cd 3d
       -0.016592225 -0.0751253 0.0051169237 0.10016725
0002c0 a8 3a 73 3d 77 58 b4 bd ff be aa bd 1b 69 7f 3d
       0.05938211 -0.08805936 -0.08337211 0.062356096
0002d0 7d 12 b8 3d a7 11 7f 3d f0 5a 65 3d 9a df fd ba
       0.08987901 0.062272694 0.055994928 -0.0019369007
0002e0 ee ed ac bc bf 68 cc 3d 34 d7 ba 3d b2 86 eb 3d
       -0.021109547 0.09980916 0.09123078 0.115003005
0002f0 29 da 84 3d 00 63 6f bd a0 4a 9a bc f5 e7 6c bd
       0.06486923 -0.058444023 -0.018834412 -0.0578384
000300 6b 1d 75 bd 89 d8 70 bd 66 da fa bc 62 77 56 bd
       -0.05984251 -0.058800254 -0.030621719 -0.052359946
000310 04 8b 7e 3d de 15 64 3d 7e e3 00 3e aa 9e 7b 3d
       0.062144294 0.055684917 0.12586781 0.06143061
000320 81 e4 5c ba 2e b7 b4 bc a4 9d b0 3d 3a 01 f6 3d
       -0.0008426384 -0.022060003 0.086238176 0.12011953
000330 7b b6 4b 3d 15 e5 4a bd fd 93 81 bd d8 67 5d bc
       0.049734574 -0.049534876 -0.06327055 -0.013513528
000340 06 8b 0c 3d e8 67 3a bd 1a bb a4 3d 8e 43 d7 3d
       0.03431227 -0.04550925 0.08043499 0.10510932
000350 fe e3 34 3d 15 6e 28 3d 4d 19 68 3c ff 37 e5 bd
       0.044162743 0.041120607 0.014166188 -0.11192321
000360 42 60 95 bc c8 3b 96 3d b2 36 8b 3d 46 39 1a bd
       -0.018234376 0.07335621 0.06797542 -0.037652276
000370 ce 3c 9a b8 1d 9c c8 3d 93 df 36 3d de 19 a4 3c
       -7.354618e-05 0.09795401 0.04464681 0.020031866
000380 f6 55 c0 3d f7 41 77 3c dc f1 5d 3d 27 16 97 bd
       0.09391396 0.015091411 0.054185733 -0.07377272
000390 38 e9 b4 3d c2 27 b3 3c 15 2f 78 bc 57 e0 8d 3d
       0.088335454 0.021869544 -0.015147944 0.06927555
0003a0 5d 12 51 3d 66 78 4e 3d d5 d3 3c 3d ce 09 25 bd
       0.051042903 0.05040779 0.046100456 -0.040292554
0003b0 d7 18 3b bd 16 7e c2 3c 14 dc ab bb a4 56 ac 3d
       -0.045677986 0.023741763 -0.005244741 0.08414963
0003c0 6e 5c 06 be 20 28 9e 3d 39 a8 5e bd ba db 7e 3d
       -0.13121197 0.07722497 -0.05435965 0.062221266
0003d0 4f 07 3c 3d a6 fd 01 3d 33 c1 af 3d 24 26 6f bd
       0.045905408 0.03173604 0.08581772 -0.058385983
0003e0 b7 93 6f 3d 38 d4 06 3e d8 88 0e bd 9f b9 1e bc
       0.05849048 0.13166893 -0.034798473 -0.00968781
0003f0 4c 83 57 3c 02 f1 30 bd 28 12 98 3c 3e 42 ab bc
       0.013153862 -0.043198593 0.018563345 -0.02090561

encoder.encoder.3.bias f4 [20]
000000 3c 75 55 be 96 9a 98 3e 0c b0 98 3e 0e 86 c3 3d
       -0.20845503 0.2980544 0.29821813 0.09547053
000010 4a 11 15 bd 94 f4 44 3d 24 61 08 bb b8 df c0 3d
       -0.03639344 0.04808481 -0.0020809853 0.09417671
000020 81 f2 07 3d a5 2b 50 be 4b 5a ff 3d 91 0e 6c bc
       0.033190254 -0.20329149 0.12468394 -0.01440777
000030 2c d7 52 3e b6 65 83 3e 2d b0 05 3e 83 7d 27 3e
       0.20589894 0.25663537 0.13055487 0.16356473
000040 c3 64 e8 3e 7c 36 12 be ca ad 85 bc 8a c5 84 3e
       0.45389375 -0.14278597 -0.01631822 0.2593196

decoder.decoder.0.weight f4 [128, 20]
000000 ef 6a 3a bd f9 d2 00 3d 68 92 5b 3e 4b dd b8 3b
       -0.045512136 0.0314512 0.21442568 0.0056416146
000010 f4 39 fa bc ce 07 2b bd 4c 1f c1 3d a3 ec a9 3d
       -0.030545212 -0.04175549 0.094297975 0.08297088
000020 65 8a 0f be d4 f2 4b 3e cc 49 57 3e 95 42 45 3e
       -0.14017637 0.1991685 0.21024245 0.1926368
000030 e7 72 26 bd ab 3a 29 3e 55 a3 94 3c da d7 a2 3d
       -0.040636923 0.16526286 0.018144289 0.07951327
000040 bd 30 23 be a2 0e 4b bd 94 27 bb bd fe 16 94 bc
       -0.15936561 -0.0495745 -0.09138408 -0.01807737
000050 3f 38 cb bd cb dc 02 3d 79 17 e2 3d 3e 1d 12 be
       -0.099228375 0.031948846 0.11039633 -0.14268968
000060 ac 76 4e 3d e2 87 04 be 7b 0d 4d be 55 24 81 be
       0.050406143 -0.1294246 -0.20024674 -0.25223032
000070 f0 10 23 3c 66 4e db 3c 6d 29 f6 3d d5 a0 f4 bd
       0.009952769 0.026770782 0.1201962 -0.11944739
000080 fc 99 5d 3d a0 2d 4c 3e 39 a7 1e 3e da d5 2e bd
       0.05410193 0.1993928 0.15493478 -0.042684413
000090 a5 4a 62 be d2 53 bb bd bc 2a 5b be 5f cd d7 3d
       -0.22098787 -0.09146847 -0.2140302 0.10537218
0000a0 1e ce f0 bd 04 f4 cd 3d 5a 89 55 be 39 5a 81 be
       -0.11758064 0.10056308 -0.20853177 -0.25264147
0000b0 29 84 8b 3c 97 0b 14 3e 8c 3b 77 3e b9 cb 3a 3e
       0.017030792 0.14457546 0.24143809 0.18241777
0000c0 53 62 4e bd ae 7b aa 3b 3d 1f 0c 3d 19 10 18 be
       -0.050386738 0.005202732 0.03420948 -0.14849891
0000d0 fe 0c b5 3d 85 61 99 3b f5 16 12 3e 28 60 34 bc
       0.08840369 0.0046808147 0.1426657 -0.011009254
0000e0 29 92 b4 bd 63 ed 11 3e b1 be 7a be bb 09 c8 bd
       -0.0881694 0.14250712 -0.24486805 -0.09767481
0000f0 4e 64 bc 3c ed 56 ea bd 67 fc fa bd 5b 13 5a 3e
       0.022997048 -0.11442361 -0.12255173 0.21296446
000100 40 25 81 3c 6c 7b e6 bd ed c2 96 3e 36 dd 11 be
       0.015764832 -0.112540096 0.29445592 -0.14244542
000110 b6 60 6e bd f9 77 3f 3e 58 88 77 3d 29 4e 23 3e
       -0.0581977 0.1869811 0.060432762 0.15947784
000120 f2 86 09 be d4 0a 32 3e ab 19 98 bc 19 b1 48 3e
       -0.13430384 0.17386943 -0.018566927 0.19598807
000130 da 88 ef 3d ed 8c 0c be 94 89 53 be 72 1a 20 be
       0.11696024 -0.13725634 -0.2065795 -0.15635088
000140 a6 78 34 be f7 b3 49 be 55 48 49 3e 8d 33 eb 3c
       -0.17624149 -0.19697557 0.19656499 0.028711105
000150 30 c7 03 3e 64 57 45 bc d9 ce ef 3d 80 fb 97 bd
       0.12868953 -0.012044761 0.11709375 -0.07421017
000160 c3 b9 01 be 8b 51 2f 3c 1d b0 0b 3e f1 89 b3 3b
       -0.12668519 0.010700594 0.136414 0.0054790904
000170 4e 40 00 3e fe 6a a1 bd 1d 7e d5 3d 92 36 55 3e
       0.1252453 -0.07881735 0.10424445 0.20821598
000180 ea 44 8d bc d0 36 76 bd c9 80 02 bd 76 d9 2e 3e
       -0.017244775 -0.060110867 -0.0318611 0.17075142
000190 5e 05 bc bd 72 d1 0e 3e fa f8 c8 3d 03 67 88 3c
       -0.09180711 0.13947085 0.098131135 0.016650682
0001a0 ab 8c f4 bd 79 3a f3 3c bd 57 0b bb 43 06 d9 bd
       -0.11940893 0.029690968 -0.0021262013 -0.105968975
0001b0 58 3b f1 bd b0 3d 63 be df 72 6d 3c 6a dd d8 bd
       -0.11778897 -0.221915 0.014492719 -0.105891064
0001c0 17 8c 18 be a4 29 63 3d 5b d3 b4 3d 3b 80 06 be
       -0.1489719 0.055459633 0.08829375 -0.13134854
0001d0 c3 65 c1 bd f4 ba 8c 3c b5 8f 87 bd 05 a4 2e be
       -0.09443238 0.01717899 -0.06619207 -0.17054756
0001e0 5f 48 36 be 4f 9d e3 3d cb 95 2f be 12 0e 92 3d
       -0.17801045 0.111139886 -0.17146985 0.0713159
0001f0 fa 90 2d be ce 2a 38 bb 8b 36 21 3e 18 a5 03 3e
       -0.16949835 -0.0028101685 0.15743463 0.12855947
000200 47 f2 21 3e e6 e6 25 3d d3 b2 47 3e be af b2 bb
       0.15815078 0.040503405 0.1950181 -0.005453079
000210 9c 5d 2b be 6b a1 0a 3e c9 e9 b2 bd 36 b8 a2 bd
       -0.16734928 0.13538139 -0.08735997 -0.07945292
000220 44 58 f6 3d e7 0c c5 3d 2a e9 42 3d 32 64 fb bd
       0.12028554 0.096216016 0.047585644 -0.1227497
000230 e5 b4 5a bb ac 46 75 3c a0 2d 17 3e 86 9f 68 be
       -0.0033371982 0.014970463 0.14763498 -0.22717103
000240 fb 96 55 3e fb 2f 87 bd 36 aa 0e 3e 98 ac 5d 3c
       0.20858376 -0.066009484 0.13932118 0.013529919
000250 f0 93 1e be bd 0c cb bc 30 ac 0f 3e f1 14 36 3d
       -0.15486121 -0.024786348 0.14030528 0.044453565
000260 66 26 0b 3e f5 0e 2a 3d 73 eb 53 3d 2b 3c 2a be
       0.13588867 0.04151817 0.051738214 -0.16624515
000270 3f 46 07 3e 5b 69 48 3e 2e 9a 71 3d 2c 05 5e 3e
       0.1321039 0.1957144 0.058984928 0.2168166
000280 c9 ae ed bd 37 f4 aa 3b 2c 14 d2 bd 89 a5 4c bd
       -0.11605603 0.005217101 -0.10257754 -0.049962554
000290 b1 3f 3f 3c 27 3d 3b be 47 ff cc bd 23 e2 ee bd
       0.0116729 -0.18285047 -0.10009628 -0.11664226
0002a0 75 c6 25 3e 95 74 18 3e ca f9 45 bb 54 1e 81 3d
       0.16188987 0.14888223 -0.00302087 0.06304613
0002b0 ff fd f4 3d ca 61 e3 bc 39 68 74 bd f1 9d 22 3e
       0.119625084 -0.02775659 -0.059669707 0.15880562
0002c0 87 94 a3 bd 27 42 3a be fd fd 1e bd 0c 7b aa 3d
       -0.07987314 -0.18189298 -0.03881644 0.083242506
0002d0 c5 2a 18 be 4d e0 85 3d 40 c5 66 be 9b b3 e6 3c
       -0.14860065 0.065369226 -0.22536182 0.028161814
0002e0 a9 c0 aa bd 2b 4f d6 bd f4 b1 b7 bd dd 85 11 3e
       -0.08337528 -0.10464319 -0.08969489 0.14211221
0002f0 69 cf 86 3d c1 10 2d bd a2 1f a9 bd 98 85 6e be
       0.06582529 -0.042252306 -0.082579866 -0.2329315
000300 2e 78 c0 3d 14 61 2c 3e 3e b3 43 be c7 33 35 3d
       0.093979225 0.16833907 -0.19111344 0.04423883
000310 db 78 be bd 87 fd 81 bd 45 a5 e9 bd 67 e8 48 3e
       -0.09300395 -0.06347185 -0.11408476 0.19619904
000320 51 4b e2 3d ca c7 2b be 53 53 29 be 20 62 75 be
       0.11049522 -0.16775432 -0.16535692 -0.23963213
000330 93 55 50 39 fb 65 32 be 7b 4d 36 be b5 94 08 bd
       0.00019868305 -0.17421715 -0.17802994 -0.033344943
000340 00 30 23 be 85 a7 ac bd bd ab 65 be ff 07 1e 3e
       -0.1593628 -0.08430389 -0.22428794 0.15432738
000350 58 f3 30 be ce 6e ca 3d 95 49 21 3e b4 18 0d 3e
       -0.17280328 0.098844156 0.15750726 0.13778955
000360 9f 1e b1 bd b3 50 58 be d4 7d 2a be 45 3b 30 be
       -0.08648419 -0.21124534 -0.16649562 -0.1721011
000370 24 11 bd 3d 4a 53 13 be 2b 35 53 be 4e 89 11 bd
       0.09231785 -0.14387241 -0.2062575 -0.035531335
000380 e0 83 bb 3d 10 9c 80 be a3 7c 3c be 20 71 bf bd
       0.091560125 -0.25119066 -0.1840692 -0.09347749
000390 cc 5d 2c be bd 0f a4 3d b0 19 92 3d 96 70 10 3d
       -0.16832656 0.08010814 0.07133806 0.03526362
0003a0 62 a7 13 3e 8a 30 3b be 9d d5 43 3c a4 d7 07 bb
       0.1441932 -0.18280235 0.011952785 -0.0020727897
0003b0 d9 1d 48 bc f3 fa 0a 3c 66 69 a8 bd b1 d6 ff bd
       -0.0122141475 0.0084826825 -0.08223228 -0.12492121
0003c0 37 29 b2 bc 8c 9b ce bd c3 ff 0c be e5 ce d7 3d
       -0.021748168 -0.10088262 -0.1376944 0.10537509
0003d0 43 6b ba bd c3 00 f5 3d f4 3d b5 bb 0a ce 9b bc
       -0.0910249 0.11963036 -0.005531067 -0.019019146
0003e0 d5 9a 63 be c7 c6 c3 bc 41 e5 8e 3d 98 4b dc 3d
       -0.22227032 -0.023898495 0.069773205 0.10756606
0003f0 52 95 b3 bc 1e be ea 3d 5d 29 12 3e 46 87 c0 bd
       -0.021921787 0.11462043 0.14273591 -0.09400801

decoder.decoder.0.bias f4 [128]
000000 b8 fe 9e bd e1 91 d0 3d fb d3 96 3b 13 91 45 3e
       -0.077634275 0.10184074 0.0046029068 0.19293623
000010 06 eb a6 3e 30 58 81 3d 54 03 11 3e d1 54 ae 3c
       0.32601184 0.063156486 0.14161426 0.021280678
000020 39 a7 3a bc 59 bd 86 bd a7 e8 f1 bd ce 7d 06 3d
       -0.011392408 -0.06579084 -0.11811953 0.03283482
000030 b4 e5 2b be 18 db c1 3e 59 cd 15 be aa 54 98 be
       -0.16786844 0.37862468 -0.14629115 -0.29752094
000040 c4 30 c4 3e 0f f3 bd 3d 95 64 c8 bc b4 4d fe bd
       0.38318455 0.092748754 -0.024462024 -0.124171644
000050 41 d6 00 3e 86 68 46 bd d8 b0 13 3d d2 3d f6 bc
       0.12581731 -0.048439525 0.036057323 -0.030058775
000060 3c e6 e6 bd 24 44 da bd 68 1b 67 bd 9b 64 91 be
       -0.112743825 -0.10657528 -0.05642262 -0.28397068
000070 50 0a aa 3d 1a 36 8c 3d 71 51 48 be d0 b0 b9 3e
       0.08302748 0.068462566 -0.19562317 0.3626771
000080 a1 a3 ee bd 6b 41 75 bd b4 02 27 3e 90 32 28 3e
       -0.116523035 -0.05987684 0.16309625 0.16425538
000090 58 a5 98 bd 08 af d5 bd a3 05 ca 3c 3f 10 47 3e
       -0.07453412 -0.10433775 0.02466089 0.19439791
0000a0 48 93 5d 3e a8 2d ff bd 25 a0 d3 be aa 88 66 3c
       0.21638215 -0.1245988 -0.41333118 0.014070669
0000b0 a1 a4 10 bd e9 13 cf 3e ee a0 c4 3c b2 fe 90 3d
       -0.035313252 0.40444878 0.024002519 0.07079829
0000c0 c4 bd e1 bd b0 58 8c 3d 17 fd 7e 3e c4 78 0a be
       -0.11022523 0.06852853 0.24901234 -0.13522631
0000d0 f8 41 6b 3e 89 23 b0 3d 94 03 45 be 74 88 1f be
       0.22974384 0.08600528 -0.19239646 -0.15579396
0000e0 4f ad 51 3e 42 79 03 bd 72 3a 2c 3e 03 4b 21 be
       0.20476268 -0.032098062 0.1681917 -0.15751271
0000f0 0c fa 82 3c a0 b4 6c 3e 69 b8 43 3e c3 c3 80 3e
       0.015988372 0.23115778 0.19113316 0.25149354
000100 e3 d6 6d 3d 8b 85 5f be 76 24 48 3d 1b 09 31 3d
       0.05806626 -0.21828286 0.048862897 0.043221574
000110 5c ba 25 be c2 9a 58 bd 8b cb 5f 3e fc bf 38 3e
       -0.16184372 -0.052881964 0.21854989 0.18041986
000120 da e8 39 be 24 d6 f0 3d 2a 6e 66 3e 87 22 98 bd
       -0.18155232 0.11759594 0.22502962 -0.074284606
000130 96 99 d7 3d 51 66 12 3c 2b 1f 03 3d 13 9a 11 3e
       0.10527341 0.008935527 0.032012146 0.14218931
000140 e1 c9 d3 bd 1e 5a e9 bd 55 44 bb 3e 5d e2 f9 bd
       -0.1034124 -0.113941416 0.3657557 -0.122013785
000150 c5 3a be 3d 90 cf 0d be 20 bc 20 be 94 64 4f bd
       0.09288553 -0.1384871 -0.15696764 -0.05063303
000160 99 5e 95 be 46 96 95 3c c7 51 2c be 63 83 71 be
       -0.29173735 0.018260133 -0.1682807 -0.23585276
000170 3e d5 39 3e 63 fa a2 3b 1e 13 77 be 93 9b 84 3e
       0.18147752 0.004973696 -0.24128386 0.25899944
000180 95 12 97 3c 12 fd ae 3c cd 25 c4 3e f8 5b 3b 3e
       0.018441478 0.021360908 0.3831009 0.18296802
000190 35 c5 02 be 13 fc 70 be 74 64 22 bf c2 af 12 be
       -0.12770541 -0.23533659 -0.6343453 -0.14324859
0001a0 65 f5 11 3e 0b a8 b4 3c 0d fb db 3c 18 ed 92 bd
       0.14253767 0.022052785 0.026853109 -0.07174128
0001b0 dc 79 ae bd 73 3a 25 bd 2c d1 23 3e be 86 5b 3d
       -0.085193366 -0.040338945 0.15997761 0.053595297
0001c0 ef 5a 06 be 97 c5 6b 3d 2e 74 72 3c 64 e2 5d be
       -0.13120626 0.057561483 0.014798207 -0.21668392
0001d0 6f 0e cc 3d 98 ef 92 3e 52 1a 87 bd bf e4 69 be
       0.099636905 0.2869842 -0.06596817 -0.22841166
0001e0 2a f1 8f 3d 48 43 6a be a7 21 98 3d 85 bd 6d 3d
       0.0702842 -0.22877228 0.07428294 0.058042068
0001f0 d6 5e 2b 3e f3 9f 7b 3e 48 7c f7 3d 26 ba e6 3b
       0.16735396 0.24572735 0.12084252 0.0070412336

decoder.decoder.1.weight f4 [32, 128]
000000 81 8f 49 3e 3b 16 48 be c6 4a 49 be 91 81 ac 3e
       0.19683649 -0.1953973 -0.1965743 0.336926
000010 79 13 36 3e e4 f5 10 be a8 be 99 be 26 73 92 bc
       0.17780866 -0.141563 -0.30028272 -0.017877173
000020 62 b8 1e 3e ce 5b 22 bd 71 b5 59 3e b6 30 db 3e
       0.15500024 -0.039638333 0.2126062 0.428106
000030 53 d7 41 3e d9 a9 8e be dc bc be be db 89 42 bd
       0.18929796 -0.27863958 -0.37253463 -0.04749475
000040 26 f3 94 bd 38 c6 85 bd 2c 3f 80 be 66 8a 9a bd
       -0.072729394 -0.06531948 -0.25048196 -0.07545929
000050 e1 7a 36 be be 32 2e be 23 e5 61 3d e8 75 1d 3e
       -0.17820312 -0.17011544 0.055150162 0.15377009
000060 8e f5 e6 3e e7 00 16 bc c4 75 ba 3e 40 87 22 3f
       0.45109218 -0.009155489 0.36417973 0.63487625
000070 1b f2 8c bc 12 57 f9 be b4 e8 40 b9 91 3b 40 be
       -0.017205289 -0.48699242 -0.00018397236 -0.18772723
000080 6d 82 cf be 84 ac 10 3f 80 ea a4 be ac df 7a bd
       -0.40529194 0.5651324 -0.3221016 -0.061248466
000090 f3 a0 42 3e b9 d2 87 3d 11 29 0a be 0b aa 8a be
       0.1900671 0.06631989 -0.13492228 -0.27082857
0000a0 2f b5 d2 be f9 0e d0 3e c2 80 be bd 5e 54 aa 3e
       -0.41153857 0.40636423 -0.09301902 0.33267492
0000b0 02 40 08 3e 7a a0 09 be e3 75 05 be 4d 74 e3 3c
       0.13305667 -0.13440123 -0.13033251 0.027765417
0000c0 f5 9d 76 bc 22 70 80 be 1c 0a 70 be 47 f7 ab 3e
       -0.015052308 -0.2508555 -0.23441356 0.33587095
0000d0 14 20 17 bc e8 86 28 3e d2 8c c0 3d 3b 31 5f 3e
       -0.009223957 0.16457713 0.09401859 0.21796124
0000e0 1b 46 bb 3e 10 54 32 3d 30 33 a7 be 6c be ab be
       0.36576924 0.0435372 -0.3265624 -0.33543718
0000f0 3e fb 4e 3e 81 f1 b2 be 70 02 d6 bd 23 10 3d be
       0.20213029 -0.34949878 -0.10449684 -0.18463187
000100 da c9 d2 bd b1 50 04 3f f3 a2 b9 3e 86 25 b8 bd
       -0.102924064 0.51685625 0.36257133 -0.08991532
000110 a9 d9 8b be e3 43 0c be be 27 b5 be 56 a3 20 3e
       -0.273145 -0.13697772 -0.35381883 0.15687308
000120 53 c6 7d 3e 10 ba 59 be 7f b8 fc bd 8d 2b f4 be
       0.24782686 -0.21262383 -0.12339877 -0.47689477
000130 0f c7 67 3e fe 8a b4 be 01 a9 b8 3e e0 33 fe 3d
       0.22634529 -0.35262293 0.3606644 0.12412238
000140 5e 6c ba 3d 90 ac 6b 3e 43 4d 60 be 34 08 84 3e
       0.09102701 0.23015046 -0.21904473 0.25787508
000150 52 c8 87 be 84 45 37 be eb 53 8d be 7e e3 26 be
       -0.2652002 -0.17897612 -0.27603087 -0.16297719
000160 1d f4 bd be eb 22 a6 bc 00 6e aa 3e cf 93 cb 3d
       -0.37100306 -0.020280322 0.33287048 0.099403016
000170 b3 c0 9a 3e c9 44 5e 3e 55 97 82 3b 2d 78 0c be
       0.30225143 0.21705927 0.0039853253 -0.13717718
000180 30 61 0a 3f 5b 39 dd bd 0c eb da 3d 6a 5f ab 3a
       0.54054546 -0.10801955 0.10689363 0.00130747
000190 cd 4e 9c 3e ca 70 1d 3e 4d 40 67 3e c0 71 68 be
       0.3052887 0.15375057 0.22583123 -0.22699642
0001a0 9b 87 38 3e 7b 64 8d bd 9e e0 d8 bc 1f 38 1d 3e
       0.1802048 -0.06903931 -0.026474293 0.1535344
0001b0 f0 58 63 3e c6 50 4d 3e 94 0f b9 be c4 86 49 3e
       0.22201896 0.20050344 -0.36144698 0.19680315
0001c0 a7 37 af 3e e2 9d 5e 3e b2 90 03 bd e4 50 e8 3e
       0.34222147 0.21739915 -0.032120414 0.45374215
0001d0 4a b0 ac be e4 a9 16 be d8 22 85 be 17 63 d7 3e
       -0.33728248 -0.14713246 -0.26003146 0.42067787
0001e0 02 f2 12 be 8d 32 a0 3e 35 e3 4b bc 00 41 89 3e
       -0.14350131 0.31288567 -0.012444307 0.26807404
0001f0 77 02 30 be 83 86 f7 be 55 8b de bd 8e 76 07 be
       -0.1718844 -0.48344812 -0.10866419 -0.13228819
000200 ea f5 77 3e 8e d8 01 be 2c e6 bb 3e bc 20 08 3f
       0.24214903 -0.12680265 0.36699045 0.5317495
000210 90 0e 9c bd 7d 90 79 bc 6f fb f9 bc a7 5e 4a be
       -0.07619965 -0.015232203 -0.0305154 -0.1976267
000220 5a 20 32 3e 28 22 2f bd 6e 66 8f 3e ef f5 b6 3e
       0.17395154 -0.042757183 0.28007835 0.35734507
000230 cc 20 ed 3c 66 47 72 be 2b 8d ca be b2 0e 00 be
       0.028946303 -0.23660049 -0.39560828 -0.12505606
000240 04 4f 35 be 56 92 df bc 37 a3 13 be c3 84 82 bd
       -0.17705923 -0.027291458 -0.1441773 -0.063729785
000250 12 36 4e be bb b2 90 be 16 c4 b0 3c f2 d1 90 bd
       -0.20137814 -0.2826136 0.021577876 -0.07071294
000260 29 1e ed 3e 25 ff 36 3e 58 17 a8 3e 35 e7 cb 3e
       0.46312073 0.17870767 0.3283031 0.39824834
000270 ee bd 82 bd 5b e2 b4 be c3 ba 9d 3c 2f 84 86 be
       -0.063838825 -0.35328946 0.019254094 -0.26272723
000280 df e5 93 be b3 42 c9 3e 2a 29 9b be b0 fa 41 be
       -0.28886315 0.393087 -0.30304843 -0.18943286
000290 3d 85 0a 3e e5 70 ab bd eb 3f 5c be 27 5a 9b bd
       0.13527389 -0.08371142 -0.21508758 -0.075855546
0002a0 03 3d ce be 64 d8 c1 3e 42 3a fb 3d f4 76 cd 3e
       -0.40280923 0.37860405 0.12266971 0.40129817
0002b0 f8 dd 21 3e f0 4a 31 be 62 42 72 be 71 ab 46 3e
       0.1580733 -0.17313743 -0.23658136 0.19401337
0002c0 ae 3a 41 3d 2c 5a 59 be b3 07 13 be 74 07 ca 3e
       0.047175102 -0.21225804 -0.14358406 0.3945881
0002d0 79 de 96 bd f4 d8 f5 3c 77 79 8f 3e bb a1 99 3e
       -0.07366652 0.030010678 0.28022358 0.30006203
0002e0 69 ed 1c 3f 82 45 c9 3d 6e af 71 be 09 93 76 be
       0.6129976 0.09827711 -0.23602077 -0.24079527
0002f0 42 54 17 3e 53 e0 c5 be 18 a8 80 bd a9 4e f0 bd
       0.14778236 -0.38647708 -0.06282061 -0.11733753
000300 92 3c bf bd f9 a7 24 3f 17 a2 fc 3e e1 db 6b be
       -0.09337725 0.64318806 0.49342415 -0.23033096
000310 58 44 32 bf 49 4c 02 bf 75 c9 97 be 80 ae 2c 3e
       -0.69635534 -0.5089765 -0.29645887 0.16863441
000320 ea 33 b0 3e d3 aa 69 be c0 cb 81 be 07 4a ed be
       0.34414607 -0.2281907 -0.2535076 -0.4634554
000330 c8 5d 47 3e 8b 10 71 be b4 fb 9e 3e aa 8f 62 3e
       0.19469368 -0.23541467 0.3105141 0.22125116
000340 8f fd 61 bd f3 06 aa 3e 09 bf 55 be 29 95 b0 3e
       -0.055173453 0.33208427 -0.20873655 0.344888
000350 f7 d7 49 be 94 86 2c be 2c 4d 96 be b9 bb 87 be
       -0.1971129 -0.16848212 -0.29355752 -0.2651041
000360 64 f6 dd be 25 85 73 be 64 c3 a3 3e 4a 96 66 bc
       -0.43352044 -0.2378126 0.3198501 -0.014073918
000370 42 9b 49 3e 75 ea c4 bd 3d 1e b1 bd ed 8c bd be
       0.19688132 -0.09615032 -0.086483456 -0.3702158
000380 bd c0 06 3f ab 11 89 be 15 31 8b 3d 77 b1 81 bc
       0.52637845 -0.26771292 0.06796471 -0.015831692
000390 f6 ea 77 3e b9 ba 76 bd bc e6 cb 3e 6f 33 b5 be
       0.24210724 -0.060236666 0.39824474 -0.35390803
0003a0 d1 f9 50 3e 26 db 38 be 83 41 b0 bd be 98 b8 bd
       0.20407797 -0.18052348 -0.08606245 -0.09013508
0003b0 37 cd 41 3e 87 ca 93 3d 24 cc 90 be 75 56 17 3e
       0.1892594 0.072163634 -0.28280747 0.14779074
0003c0 29 08 56 3e 2d 7b 22 3d fe 29 02 3e c2 d3 9b 3e
       0.2090155 0.03966825 0.12711331 0.30434996
0003d0 03 2a be be 9b b8 4c be ea b5 4d be b8 9c c6 3e
       -0.37141427 -0.19992296 -0.20088926 0.38791442
0003e0 ad 13 c7 bd 7b e5 b1 3e b2 6f ba 3e b0 02 cd 3e
       -0.0972055 0.34745392 0.36413342 0.40041113
0003f0 cc 73 c5 be f7 d3 ae be 8d 25 94 bd d4 75 7f bc
       -0.38564909 -0.3414609 -0.07233725 -0.015592057

decoder.decoder.1.bias f4 [32]
000000 38 50 38 3e 21 4e 68 bf 1a 5d 2c 3e 9c ed a5 be
       0.17999351 -0.90744215 0.1683239 -0.32407844
000010 d9 b3 40 3d 45 93 05 3e e7 47 52 3e d9 27 d9 3d
       0.047046516 0.1304446 0.20535241 0.106033035
000020 8b cd ee bd 29 46 51 be b7 e2 e7 3d c0 42 25 bf
       -0.11660298 -0.2043692 0.11322539 -0.6455498
000030 2b 48 ee 3e 00 4f 10 3d d3 51 de bd 4a e0 14 bf
       0.46539435 0.03523159 -0.108554505 -0.5815474
000040 e1 5e b9 3b fd 04 d0 bc 3b 2e 8d 3d f7 5b 10 3d
       0.0056570624 -0.025393004 0.068935834 0.035243955
000050 b9 dc f3 3c 05 92 29 3e 0e 6f fc bd 63 92 e8 be
       0.029768335 0.16559608 -0.123258695 -0.45424184
000060 40 d8 4b 3d f0 a1 8a 3d f4 0a ed be 07 0f d4 be
       0.04976678 0.067691684 -0.4629742 -0.41417715
000070 52 80 9b 3d 33 0e 8c 3d 4b 4f 35 bf 60 14 a1 3d
       0.075928345 0.06838646 -0.70824116 0.07865214
