hw8/lightning_logs/version_5/checkpoints/epoch=49-step=100.ckpt (torch, 398423 bytes, 36 tensors)

encoder.encoder.0.weight f4 [32, 784]
0.00302618 0.005676776 0.022795226 -0.0018891804 0.030617673 -0.00047430396 0.029710378 -0.035035755
0.0036594383 -0.021746412 -0.008820219 -0.02890242 0.020626128 0.016345907 -0.015932446 0.01106523
-0.03378494 0.01703703 0.029678706 0.011196576 -0.0057059396 -0.017254332 0.032973353 0.0016434826
-0.028656527 0.007235918 0.023830846 -0.03397075 -0.010716103 0.004729692 -0.008706536 0.0076446757
0.030376103 -0.0024865158 0.019563947 0.008841205 -0.01649898 -0.0011821948 0.016541578 0.01790782
-0.01610136 0.03031509 0.033534784 0.0073317736 -0.02024278 0.0038023181 -0.028172515 0.0022833757
-0.011701018 -0.010995043 -0.02205589 -0.02957581 -0.0032425188 -0.007617049 0.034777705 0.03294603
0.016925868 0.035605874 -0.023873538 0.016375795 -0.007616142 0.027383666 -0.033551835 -0.0315836
-0.0009606071 0.011070106 0.012501467 -0.0029950403 0.03731895 0.08140607 0.055157427 0.07122112
0.052129522 0.049652047 -0.01377712 0.031009238 0.010655608 0.034598548 0.029858787 0.0032653846
-0.00069531053 -0.006950941 0.011090785 0.021000613 -0.0028921254 -0.025289267 0.015240237 0.013644237
0.0074237734 0.006864682 0.0018035211 0.041238695 0.013198569 0.07696479 0.08482817 0.014077633
0.115422145 0.10241964 0.13831392 0.080108106 0.008664971 -0.0032969061 0.01128331 0.048394166
0.05298507 0.028713595 0.021139476 -0.020501222 -0.021745896 -0.009784669 -0.02267154 0.015842773
0.003808044 0.029593978 0.0074130036 -0.015501568 0.02273353 0.0010640137 -0.027724326 0.008950998
0.054935463 0.026497558 0.0537002 0.0797626 0.070550814 0.019225834 0.034309182 0.03742294
0.07893934 -0.022517785 -0.04363158 -0.0008365249 0.04746169 -0.010653489 -0.03194595 -0.028784221
-0.009673736 -0.020602377 0.033471864 -0.009908328 -0.013433998 0.035267238 -0.010023875 0.0011653043
0.05033537 -0.030284299 -0.04910037 0.019114643 -0.03914816 0.0055134515 -0.018826641 0.01724044
0.032817535 0.02277014 0.011922326 -0.023037387 0.012159237 -0.02647807 -0.04557639 0.03129577
0.036078684 -0.04386503 0.019510759 -0.042815328 -0.060793422 -0.029452512 -0.019066496 -0.0009430945
0.014821395 0.028109577 -0.033320405 -0.03368609 -0.0015252959 -0.078869835 -0.06931437 -0.080945455
-0.05396608 0.022724211 0.042779557 0.054626387 0.03568638 0.054898024 -0.017075483 -0.008118377
0.03040705 -0.019111434 0.016613865 0.026034458 0.018405195 0.044201836 -0.03901176 -0.04421488
0.0105532985 -0.033043113 0.0315802 -0.007923791 0.0053090937 -0.0018730052 0.009323951 -0.016845401
-0.04384243 -0.10658447 -0.09308777 -0.057441443 -0.002059588 0.06691118 0.08976846 0.07747136
0.038719047 0.002076973 -0.020991312 -0.045618024 0.032418676 -0.0267524 0.05057691 0.040339436
0.00022583932 0.009479153 0.026610002 0.014937446 0.043771222 -0.03572492 0.022368807 0.0066540428
0.030593518 0.005978465 0.053012785 0.05398314 -0.01630714 -0.011300076 -0.018244633 0.06765502
0.10070183 0.04702726 0.086686224 0.024639994 0.015127924 0.036848824 -0.036306053 0.01087261
-0.008605883 0.06322104 0.09148906 0.0074229557 0.00735324 0.023743622 0.064373225 0.0069460315
0.10483643 0.15101445 -0.020803768 0.032758217 0.06911785 0.11229361 0.118607976 0.05229424
00000000: e052 463b 4004 ba3b 0ebd ba3c 609e f7ba
00000010: ead1 fa3c 00ac f8b9 2e63 f33c a781 0fbd
00000020: 30d3 6f3b 8825 b2bc ae82 10bc c5c4 ecbc
00000030: 20f8 a83c dae7 853c c384 82bc f04a 353c
00000040: 1462 0abd 3e91 8b3c c220 f33c d871 373c
00000050: e4f8 babb f558 8dbc 110f 073d 206a d73a
00000060: 18c1 eabc 481b ed3b e838 c33c ea24 0bbd
00000070: 9892 2fbc 88fb 9a3b dca5 0ebc 3080 fa3b
00000080: 4ed7 f83c d0f4 22bb 9244 a03c b4da 103c
00000090: de28 87bc e0f3 9aba 3482 873c 6cb3 923c
000000a0: 00e7 83bc 5a57 f83c c55b 093d 603f f03b
000000b0: 30d4 a5bc 5030 793b 0cca e6bc b0a4 153b
000000c0: a0b5 3fbc 8e24 34bc 8eae b4bc f848 f2bc
000000d0: 7080 54bb 7098 f9bb 1173 0e3d 6bf2 063d
000000e0: 1ea8 8a3c 77d7 113d 7092 c3bc 8826 863c
000000f0: d490 f9bb b653 e03c a66d 09bd ce5d 01bd
00000100: 40d1 7bba 645f 353c f4d2 4c3c 7048 44bb
00000110: c1db 183d 3ab8 a63d c1ec 613d 61dc 913d
00000120: c485 553d f25f 4b3d 6eb9 61bc 1607 fe3c
00000130: dc94 2e3c 35b7 0d3d 6a9a f43c 1000 563b
00000140: 8045 36ba b8c4 e3bb 20b6 353c 7a09 ac3c
00000150: d089 3dbb 702b cfbc 30b2 793c 148c 5f3c
00000160: 2043 f33b 20f1 e03b 2064 ec3a e8e9 283d
00000170: d03e 583c b79f 9d3d 64ba ad3d dfa5 663c
00000180: 7262 ec3d 63c1 d13d 2aa2 0d3e b80f a43d
00000190: 86f7 0d3c e810 58bb a2dd 383c f638 463d
000001a0: df06 593d c638 eb3c b22c ad3c 2ef2 a7bc
000001b0: 7324 b2bc e04f 20bc aab9 b9bc b4c8 813c
000001c0: 6090 793b 126f f23c c8e8 f23b 4afa 7dbc
000001d0: ab3b ba3c 6076 8b3a 201e e3bc 35a7 123c
000001e0: 0204 613d 6811 d93c bef4 5b3d 935a a33d
000001f0: f27c 903d 7f7f 9d3c c987 0c3d cc48 193d
00000200: f3aa a13d 3877 b8bc 07b7 32bd 3c4a 5bba
00000210: 3067 423d f98b 2ebc c2d9 02bd e3cc ebbc
00000220: 977e 1ebc 51c6 a8bc cb19 093d 8a56 22bc
00000230: 461a 5cbc 6174 103d 2e3b 24bc 20bd 983a
00000240: 762c 4e3d c716 f8bc 781d 49bd 5096 9c3c
00000250: d259 20bd 2faa b43b 543a 9abc d33b 8d3c
00000260: ae6b 063d 7288 ba3c dc55 433c e7b8 bcbc
00000270: 8937 473c 8ae8 d8bc 4fae 3abd fe2f 003d
00000280: 3ec7 133d d1ab 33bd 07d5 9f3c 205f 2fbd
00000290: 8602 79bd 6546 f1bc 5731 9cbc 003a 77ba
000002a0: 70d5 723c 0e46 e63c fa7a 08bd 6dfa 09bd
000002b0: 70ec c7ba 8286 a1bd b1f4 8dbd bbc6 a5bd
000002c0: 890b 5dbd 2028 ba3c 9e39 2f3d ebbf 5f3d
000002d0: e22b 123d c0dc 603d e2e1 8bbc f102 05bc
000002e0: 3518 f93c 958f 9cbc cd19 883c 3746 d53c
000002f0: 7ec6 963c fc0c 353d ccca 1fbd a91a 35bd
00000300: bee7 2c3c 3758 07bd 3d5a 013d cad2 01bc
00000310: e8f7 ad3b a07f f5ba 7cc3 183c 5eff 89bc
00000320: 1f94 33bd f548 dabd cda4 bebd b847 6bbd
00000330: 27fa 06bb bb08 893d 87d8 b73d 4ea9 9e3d
00000340: dd97 1e3d d31d 083b f9f5 abbc f7d9 3abd
00000350: 72c9 043d d927 dbbc bc29 4f3d f73a 253d
00000360: 48cf 6c39 734e 1b3c 38fd d93c 31bc 743c
00000370: 7449 333d 4b54 12bd ca3e b73c 280a da3b
00000380: 429f fa3c 00e7 c33b ef23 593d 6d1d 5d3d
00000390: 8d96 85bc f423 39bc c575 95bc b78e 8a3d
000003a0: c33c ce3d a89f 403d 8c88 b13d d0d9 c93c
000003b0: 1ddb 773c cbee 163d a8b5 14bd 0823 323c
000003c0: b1ff 0cbc 087a 813d 9e5e bb3d 443c f33b
000003d0: 73f3 f03b fc81 c23c 1cd6 833d 899b e33b
000003e0: 7bb4 d63d 88a3 1a3e aa6c aabc 7b2d 063d
000003f0: a98d 8d3d 31fa e53d bde8 f23d 7c32 563d

encoder.encoder.0.bias f4 [32]
-0.040028453 0.03651965 0.056938205 0.059800994 0.004205178 -0.010033197 0.060814638 0.0048179408
0.0062321373 0.027752114 -0.009130363 0.030528348 0.032507658 -0.0006103035 -0.029355843 -0.009419099
0.005524425 -0.0030807836 -0.03202065 -0.013672012 -0.03286738 -0.014442599 0.031813182 -0.026657466
-0.036773395 -0.05100452 0.011682938 -0.008572126 0.05034274 0.018548138 -0.01856693 -0.02055872
00000000: e0f4 23bd a195 153d 0938 693d e3f1 743d
00000010: 97cb 893b 4762 24bc c518 793d d1df 9d3b
00000020: f536 cc3b 6758 e33c 8597 15bc 9616 fa3c
00000030: c026 053d c6fc 1fba aa7b f0bc 9152 1abc
00000040: 3c06 b53b f9e6 49bb 1628 03bd 9300 60bc
00000050: f29f 06bd a7a0 6cbc 8a4e 023d c260 dabc
00000060: b39f 16bd 1eea 50bd cb69 3f3c 1a72 0cbc
00000070: 3034 4e3d 44f2 973c ad19 98bc c36a a8bc

encoder.encoder.1.weight f4 [64, 32]
0.16530497 -0.16383173 0.0797811 0.13284211 0.13766271 0.17642595 -0.008065945 0.11045031
-0.17204617 0.037913244 -0.076139204 -0.016611747 0.13330768 -0.20646226 0.013221373 -0.04362391
-0.15203053 -0.11564152 0.12071705 0.185406 0.046038125 0.15018111 -0.15458366 -0.03185363
0.015428983 -0.14714085 -0.10871426 -0.10255348 0.104067065 -0.01362192 0.13283682 0.025220485
-0.18710546 0.12316812 -0.090594456 0.022669801 -0.006815708 -0.14965406 -0.09931877 0.15069853
-0.0605537 -0.20777537 -0.03512685 0.17574924 -0.08048778 0.15769807 0.14006823 0.08946068
-0.05328639 -0.09710262 0.10501048 -0.12384352 0.059440777 -0.10077038 -0.016360302 -0.08978944
0.06967443 -0.045069892 -0.17320892 0.05373515 -0.019180452 -0.09560416 -0.043044478 -0.15311965
-0.092259906 0.17579484 -0.1410296 0.018938178 0.14356099 0.022534741 -0.09668442 -0.04693592
0.056794386 0.08625867 -0.16436529 -0.077851005 -0.1317131 0.054993793 0.06490345 0.007421259
-0.06639393 0.054397363 0.088296816 0.14173014 0.075083405 0.18496343 0.10715181 0.19483857
0.031832233 -0.12804538 0.02757096 -0.078658715 -0.008607142 0.13265772 0.17578901 0.013557863
-0.014997945 0.029501908 -0.1411389 0.011000021 -0.073714785 -0.22558954 -0.053204842 0.15149805
-0.10877262 -0.15549847 0.14142393 0.07831901 0.01440132 0.22686033 0.07849952 -0.03075249
-0.016859695 0.14190027 0.04489318 0.046968188 -0.092687055 -0.17406838 0.12762083 -0.020705394
0.005547898 -0.19763924 0.03198092 0.13201043 -0.08095578 0.14025591 0.13552213 -0.03840832
0.06512253 -0.029984575 0.03078806 -0.16099162 0.07153797 0.0004763912 -0.13231984 -0.21480305
-0.11132811 0.10921913 0.07772086 -0.07765663 -0.15196472 0.12250767 -0.09659814 -0.05324154
0.053421687 0.13097775 -0.057179376 0.01216274 -0.104533255 0.080551066 0.11329433 -0.098782696
0.11838438 0.14820579 -0.20102534 -0.05611328 0.16740848 0.15543891 -0.1765353 -0.050589435
-0.04183536 -0.044241007 0.029106557 0.010469943 -0.100212745 -0.108732276 -0.17675422 0.07790472
0.07749554 0.038818143 -0.09785855 0.100929685 -0.08866653 0.05676899 0.27208456 0.047525775
0.026757581 0.15614684 0.1946356 0.07294776 0.079739414 -0.03850784 -0.10688458 -0.001850047
0.034244664 0.13178481 -0.088301376 -0.01067841 0.13883403 0.036210623 -0.005298057 0.053998653
-0.051094793 0.20268832 -0.17072994 -0.0024832445 0.12875755 -0.056213554 -0.098076455 -0.17964385
0.07004226 -0.04989732 0.023724174 0.18367986 -0.12844524 0.04751489 -0.19174016 0.16985676
0.032348465 0.08975398 -0.1477442 0.10483786 -0.010053921 -0.1229064 -0.046608955 -0.08409243
-0.12517837 -0.06494962 -0.09948743 -0.062795885 0.0061913985 0.026883647 0.04193034 -0.10152561
0.036810968 0.04792447 -0.14109996 0.11896014 0.12619986 0.13211149 0.060491815 -0.16269515
-0.063532956 -0.074676864 0.08510067 0.119234666 0.03852104 0.09307393 -0.08756628 0.038402844
0.15371317 -0.024665074 0.060305048 -0.091558 0.19715798 0.044011507 0.061721314 -0.09112949
0.017555358 0.08420538 0.033079114 0.058386456 0.027201615 0.22160037 0.052488085 -0.12374006
00000000: b545 293e 81c3 27be 4664 a33d c307 083e
00000010: 74f7 0c3e 01a9 343e 0627 04bc c633 e23d
00000020: df2c 30be eb4a 1b3d dfee 9bbd 5c15 88bc
00000030: cf81 083e d86a 53be 759e 583c fcae 32bd
00000040: e4ad 1bbe 76d5 ecbd 803a f73d 12db 3d3e
00000050: 7992 3c3d 14c9 193e 2e4b 1ebe f478 02bd
00000060: d8c9 7c3c 17ac 16be 95a5 debd 8f07 d2bd
00000070: 1d21 d53d 792e 5fbc 6006 083e 319b ce3c
00000080: 9398 3fbe 913f fc3d 9689 b9bd 05b6 b93c
00000090: 4d56 dfbb ea3e 19be a467 cbbd b750 1a3e
000000a0: 2807 78bd 11c3 54be 2ce1 0fbd 9cf7 333e
000000b0: c7d6 a4bd 9a7b 213e 0c6e 0f3e 2937 b73d
000000c0: d442 5abd bddd c6bd bc0f d73d aca1 fdbd
000000d0: 2c78 733d b360 cebd 0a06 86bc 87e3 b7bd
000000e0: 78b1 8e3d 359b 38bd ae5d 31be 6319 5c3d
000000f0: 5320 9dbc 1dcc c3bd 684f 30bd 66cb 1cbe
00000100: c3f2 bcbd 9003 343e 106a 10be 3d24 9b3c
00000110: a701 133e c79a b83c 7b02 c6bd e13f 40bd
00000120: 3ba1 683d 63a8 b03d 604f 28be 5970 9fbd
00000130: cddf 06be 2c41 613d 1aec 843d 082e f33b
00000140: 8af9 87bd c5cf 5e3d f6d4 b43d b521 113e
00000150: 54c5 993d 0e67 3d3e 6872 db3d c383 473e
00000160: 8462 023d 541e 03be 7edc e13c d217 a1bd
00000170: f804 0dbc 6dd7 073e 0902 343e cd21 5e3c
00000180: f1b9 75bc fcad f13c b786 10be 6f39 343c
00000190: c7f7 96bd f200 67be 52ed 59bd 4e22 1b3e
000001a0: 2ec4 debd fe3a 1fbe 6fd1 103e b865 a03d
000001b0: 84f3 6b3c 134e 683e 5bc4 a03d a5ec fbbc
000001c0: 581d 8abc 4e4e 113e e9e1 373d b761 403d
000001d0: b6d2 bdbd fb3e 32be 09af 023e 5c9e a9bc
000001e0: 24cb b53b f161 4abe 6dfe 023d be2d 073e
000001f0: 25cc a5bd 3f9f 0f3e 50c6 0a3e 0b52 1dbd
00000200: f65e 853d 36a2 f5bc 3e37 fc3c fdda 24be
00000210: 8082 923d 25c4 f939 da7e 07be 55f5 5bbe
00000220: feff e3bd 47ae df3d 1d2c 9f3d 700a 9fbd
00000230: a49c 1bbe 4de5 fa3d 3fd5 c5bd cd13 5abd
00000240: b3d0 5a3d 081f 063e ec34 6abd 3b46 473c
00000250: 8815 d6bd f5f7 a43d dc06 e83d 954e cabd
00000260: 8373 f23d 42c3 173e 96d9 4dbe 0ad7 65bd
00000270: 216d 2b3e 612b 1f3e abc5 34be de36 4fbd
00000280: 8e5b 2bbd 0f36 35bd e070 ee3c 208a 2b3c
00000290: 573c cdbd 07af debd 0fff 34be 838c 9f3d
000002a0: fbb5 9e3d c6ff 1e3d 106a c8bd 39b4 ce3d
000002b0: cc96 b5bd 9a86 683d ab4e 8b3e 63aa 423d
000002c0: b732 db3c f5e4 1f3e 8e4e 473e a365 953d
000002d0: 6b4e a33d 66ba 1dbd 4de6 dabd 477d f2ba
000002e0: 2244 0c3d 99f2 063e 5ad7 b4bd 7ff4 2ebc
000002f0: 822a 0e3e 9751 143d 539b adbb b12d 5d3d
00000300: c648 51bd 878d 4f3e d4d3 2ebe eebd 22bb
00000310: 05d9 033e 2f40 66bd 4fdc c8bd 8ff4 37be
00000320: 5172 8f3d 2261 4cbd 3359 c23c 9316 3c3e
00000330: 2687 03be f99e 423d 8857 44be eeee 2d3e
00000340: d37f 043d efd0 b73d 414a 17be 3bb5 d63d
00000350: 33b9 24bc 5ab6 fbbd 08e9 3ebd a738 acbd
00000360: c22e 00be 4e04 85bd 11c0 cbbd 219b 80bd
00000370: 37e1 ca3b 183b dc3c 26bf 2b3d a9ec cfbd
00000380: 19c7 163d 734c 443d 827c 10be 60a1 f33d
00000390: 893a 013e 3c48 073e 44c6 773d 8f99 26be
000003a0: 911d 82bd 2ff0 98bd 4349 ae3d 4e31 f43d
000003b0: 3dc8 1d3d 8b9d be3d f355 b3bd 4d4c 1d3d
000003c0: fc66 1d3e 690e cabc 6d02 773d c382 bbbd
000003d0: c8e3 493e 6945 343d 7dcf 7c3d 19a2 babd
000003e0: 41d0 8f3c df73 ac3d f77d 073d a326 6f3d
000003f0: ecd5 de3c 35eb 623e bffd 563d 6e6b fdbd

encoder.encoder.1.bias f4 [64]
-0.12918504 -0.20174463 -0.03974141 -0.1430111 -0.075595714 -0.20274623 -0.088404484 -0.068439424
-0.09892456 0.005878921 0.03413913 -0.15295339 -0.028616598 0.10625999 0.1143648 0.05486771
-0.15210544 0.11562726 -0.12438031 0.046753444 -0.17961946 -0.09259589 -0.09998732 0.1410666
-0.031778943 -0.014903478 0.031261228 -0.16874796 -0.15302767 0.040431254 -0.15132485 0.1368197
-0.17573784 -0.025808092 0.047231846 0.11480007 -0.091136575 -0.033388786 -0.19638422 0.04151324
-0.17518932 0.13192537 -0.15223229 0.082186274 -0.094078064 -0.052450467 0.0513039 -0.15258215
-0.047422208 0.06336383 -0.102556214 -0.087952815 -0.1268121 -0.19420329 0.08948662 0.151208
-0.07482879 0.13167657 -0.009239148 0.068119586 -0.109061256 0.056188963 0.089870825 0.0059813336
00000000: 1549 04be 2596 4ebe e4c7 22bd 8071 12be
00000010: edd1 9abd b59c 4fbe 690d b5bd f829 8cbd
00000020: f698 cabd f7a3 c03b 79d5 0b3d d09f 1cbe
00000030: 5b6d eabc d69e d93d 1838 ea3d f7bc 603d
00000040: 87c1 1bbe fccd ec3d 1bbb febd 8a80 3f3d
00000050: 2aee 37be eaa2 bdbd 27c6 ccbd c373 103e
00000060: a32a 02bd b82d 74bc c60b 003d 44cc 2cbe
00000070: 49b3 1cbe 3e9b 253d e7f4 1abe 771a 0c3e
00000080: 9ff4 33be 7e6b d3bc 2e76 413d 4d1c eb3d
00000090: d0a5 babd aec2 08bd f218 49be ca09 2a3d
000000a0: d464 33be 7217 073e c8e2 1bbe 4751 a83d
000000b0: 00ac c0bd 4dd6 56bd 0a24 523d 7f3e 1cbe
000000c0: ca3d 42bd e5c4 813d fe08 d2bd 9b20 b4bd
000000d0: 08db 01be 3add 46be c344 b73d 45d6 1a3e
000000e0: d63f 99bd 39d6 063e cc5f 17bc 4882 8b3d
000000f0: 825b dfbd 6626 663d 320e b83d 10ff c33b

encoder.encoder.3.weight f4 [20, 64]
0.1195107 -0.014564587 -0.12940693 0.011792201 0.021946993 0.026963556 -0.09471306 0.045443706
-0.12107047 0.15196528 -0.0063367756 -0.15338644 0.05313585 -0.12442261 0.0018280889 -0.0822518
-0.047498893 -0.019503407 0.10859718 0.111540124 -0.001366852 0.17787126 0.0020369363 -0.11872112
-0.026683455 0.0070563126 0.074837305 0.021416895 -0.054557633 -0.109691955 0.24005018 -0.04216313
-0.10947225 -0.0048695533 0.019148545 -0.11834222 -0.018504528 0.05734481 0.06282155 0.05569479
-0.021382967 -0.049799133 0.017125586 0.08967103 0.09736379 -0.0562347 0.13299464 0.08450161
0.0645952 -0.06835356 -0.04912276 -0.041249055 -0.06648908 0.130228 0.09466961 -0.042777136
0.024284782 0.012590851 -0.07312595 0.026295438 0.07235573 0.15435317 0.05216046 0.16328196
-0.028974675 0.047760677 0.16846389 -0.17312749 -0.10598391 0.042293236 -0.09866674 0.17702678
-0.057204258 -0.09646566 0.034129743 0.115915686 0.039833196 0.02132775 -0.100088835 0.19225842
0.083718516 -0.11261824 0.06436323 0.06754079 0.0005744769 -0.03835512 -0.04675835 0.13838008
0.046912678 -0.046894968 0.04000773 -0.043500535 -0.02704565 -0.014666211 -0.09955433 0.17303358
-0.11330455 0.06759271 0.018499425 -0.0019023939 0.012094323 0.060772397 0.18431279 -0.07621418
0.12117503 -0.09320783 0.0631621 0.04652679 -0.16152824 0.04890457 -0.13067862 0.097480394
-0.0029568386 -0.0012700746 0.038279667 0.026390485 0.048131406 -0.012814348 -0.096688844 -0.17046031
-0.042713687 0.00603052 -0.06516305 -0.024402548 0.052710433 0.021774758 -0.03133853 0.081334
-0.07262774 -0.030714413 -0.031177854 0.049100902 -0.041395277 -0.06719254 -0.11757733 0.030283207
0.014383413 -0.023510072 -0.03559756 -0.0537639 -0.14969848 0.094027855 -0.0779791 0.10420128
0.03272417 -0.18153673 0.06345682 0.08942972 -0.050782144 0.12718552 -0.049504768 -0.07691803
0.12165774 -0.07438413 -0.01720608 -0.12066339 0.11832304 0.07092572 -0.07162161 -0.17151973
0.1078993 0.063917466 -0.009772032 -0.09048695 -0.11746181 -0.012160591 0.06861377 0.086945124
0.013353107 -0.1096351 0.026221598 -0.09263746 0.009521351 -0.01790353 -0.06408198 -0.12132883
0.040082037 -0.029360818 -0.07438706 -0.0014140997 -0.12929319 -0.068504676 -0.055820826 -0.077198796
0.067803815 -0.16430147 -0.019222967 0.025458338 0.07959209 -0.036270536 0.039834183 -0.16456795
-0.10152232 -0.028061925 0.081288084 -0.02615502 -0.042175904 -0.060704034 -0.049581207 -0.12370741
-0.17351359 0.03515354 0.09965112 0.07567837 0.1592464 0.011400847 -0.0748133 0.058049817
-0.011219511 -0.055895317 0.093846366 0.08765073 0.033128045 0.032925934 -0.1450778 0.07442315
0.12310523 -0.03716612 -0.089141265 0.114042826 -0.0146809 0.0067043984 0.002457288 -0.06402435
-0.004681033 -0.038737092 0.06299251 -0.11365918 -0.07118129 -0.025948884 0.113213375 0.017380374
-0.15912987 -0.022083063 0.035883527 0.079201296 -0.14248575 0.07544695 -0.024550708 0.03791299
-0.06056418 0.056040917 0.08606334 -0.065188795 -0.064042576 0.05335093 -0.09174259 -0.14445461
-0.043780353 -0.04216302 0.048954796 -0.07391494 0.079136714 0.048572376 0.11600877 0.060198568
00000000: 07c2 f43d 4ea0 6ebc 4083 04be 1334 413c
00000010: 2eca b33c ade2 dc3c ecf8 c1bd 2e23 3a3d
00000020: cbf3 f7bd c99c 1b3e baa4 cfbb 5611 1dbe
00000030: faa4 593d 48d1 febd 7c9c ef3a a273 a8bd
00000040: 338e 42bd 9cc5 9fbc 3368 de3d 266f e43d
00000050: f127 b3ba e223 363e 1f7e 053b 0f24 f3bd
00000060: 4397 dabc a438 e73b 4d44 993d 7c72 af3c
00000070: d377 5fbd 2da6 e0bd b7cf 753e 3fb3 2cbd
00000080: fd32 e0bd c690 9fbb 69dd 9c3c 685d f2bd
00000090: cf96 97bc 64e2 6a3d 96a8 803d 3820 643d
000000a0: 552b afbc 2dfa 4bbd f54a 8c3c 72a5 b73d
000000b0: ab66 c73d 5b56 66bd bf2f 083e 2e0f ad3d
000000c0: 7d4a 843d f4fc 8bbd f234 49bd c5f4 28bd
000000d0: 6d2b 88bd 7d5a 053e 24e2 c13d 1437 2fbd
000000e0: e1f0 c63c db49 4e3c 0fc3 95bd 8869 d73c
000000f0: 3e2f 943d c20e 1e3e 35a6 553d 6333 273e
00000100: 4c5c edbc b3a0 433d cc81 2c3e 5548 31be
00000110: 180e d9bd ac3b 2d3d ca11 cabd 8246 353e
00000120: 034f 6abd ca8f c5bd a1cb 0b3d 3465 ed3d
00000130: 2228 233d 89b7 ae3c 60fb ccbd 64df 443e
00000140: 9d74 ab3d 64a4 e6bd ded0 833d d352 8a3d
00000150: 7e98 163a 421a 1dbd af85 3fbd 82b3 0d3e
00000160: 8227 403d f014 40bd 25df 233d 9e2d 32bd
00000170: d78e ddbc 8c4a 70bc 24e3 cbbd b72f 313e
00000180: 370c e8bd 0c6e 8a3d 1b8c 973c bf59 f9ba
00000190: 4427 463c 7aec 783d 7ebc 3c3e 2e16 9cbd
000001a0: 9d2a f83d bfe3 bebd 225b 813d e092 3e3d
000001b0: a967 25be 2950 483d 9ed0 05be cda3 c73d
000001c0: 85c7 41bb a278 a6ba 24cb 1c3d dc30 d83c
000001d0: 7025 453d 45f3 51bc cd04 c6bd 268d 2ebe
000001e0: 8cf4 2ebd ab9b c53b 3574 85bd dae7 c7bc
000001f0: e5e6 573d fa60 b23c d55c 00bd 7192 a63d
00000200: dabd 94bd cb9c fbbc b368 ffbc 071e 493d
00000210: 188e 29bd 3e9c 89bd 62cc f0bd 7d14 f83c
00000220: 68a8 6b3c 3298 c0bc bfce 11bd 8937 5cbd
00000230: 8f4a 19be ad91 c03d 82b3 9fbd 7b67 d53d
00000240: c709 063d c4e4 39be a6f5 813d ee26 b73d
00000250: f000 50bd ec3c 023e 83c5 4abd 3387 9dbd
00000260: b127 f93d b556 98bd c4f3 8cbc 5e1e f7bd
00000270: 5a53 f23d 8141 913d 5aae 92bd dea2 2fbe
00000280: 4ffa dc3d 29e7 823d df1a 20bc 3951 b9bd
00000290: d18f f0bd 373d 47bc 6085 8c3d 4910 b23d
000002a0: fdc6 5a3c 5e88 e0bd adce d63c b5b8 bdbd
000002b0: 71ff 1b3c 6caa 92bc 6a3d 83bd 407b f8bd
000002c0: 102d 243d 1986 f0bc 3e58 98bd 5059 b9ba
000002d0: 6f65 04be 2e4c 8cbd 61a4 64bd 671a 9ebd
000002e0: badc 8a3d a53e 28be 7c79 9dbc 018e d03c
000002f0: 2d01 a33d 6a90 14bd 2b29 233d 8084 28be
00000300: efea cfbd 1fe2 e5bc 5e7a a63d 0d43 d6bc
00000310: a4c0 2cbd cba4 78bd aa15 4bbd 505a fdbd
00000320: 8cad 31be 29fd 0f3d e315 cc3d 43fd 9a3d
00000330: 7d11 233e 9eca 3a3c b737 99bd a5c5 6d3d
00000340: 0ad2 37bc 7df2 64bd 8632 c03d 3a82 b33d
00000350: 46b1 073d 58dd 063d 468f 14be 2a6b 983d
00000360: 981e fc3d 803b 18bd b28f b6bd 498f e93d
00000370: 2888 70bc 92b0 db3b 740a 213b 331f 83bd
00000380: 5a63 99bb c9aa 1ebd 3802 813d 25c6 e8bd
00000390: 7fc7 91bd c192 d4bc 6adc e73d 4961 8e3c
000003a0: f1f2 22be 8ae7 b4bc 9bfa 123d 4a34 a23d
000003b0: c9e7 11be ee83 9a3d 911e c9bc a74a 1b3d
000003c0: 2512 78bd 298b 653d fa41 b03d b481 85bd
000003d0: c128 83bd 8186 5a3d 8ae3 bbbd e9eb 13be
000003e0: 0753 33bd 22b3 2cbd d384 483d b760 97bd
000003f0: 6e12 a23d d4f3 463d 0296 ed3d c692 763d

encoder.encoder.3.bias f4 [20]
0.033582438 0.07546644 0.09856511 -0.045936 -0.084225446 0.10073169 0.0322536 0.029517507
0.08781607 0.17775185 0.0914199 0.042252693 0.05243082 -0.026501924 -0.084116235 -0.086167105
-0.11510608 -0.09868962 0.079761095 0.071251504
00000000: bd8d 093d 268e 9a3d 81dc c93d 6327 3cbd
00000010: 647e acbd 6b4c ce3d 5a1c 043d b3ce f13c
00000020: e9d8 b33d 9504 363e 5b3a bb3d 2911 2d3d
00000030: b3c1 563d 901a d9bc 2245 acbd 6178 b0bd
00000040: bdbc ebbd c91d cabd c959 a33d 4fec 913d

model.0.weight f4 [32, 20]
0.18558176 -0.019021673 -0.112825915 -0.16195416 -0.12137148 -0.033137474 0.06664669 -0.08596668
0.17343928 -0.16444631 -0.19981956 -0.014951405 0.12989067 0.15571618 -0.17360604 0.07915926
0.15722221 -0.050400406 0.10336708 -0.14040197 0.17902862 0.13928501 0.27683413 0.23016267
-0.02419356 0.042617608 -0.031227201 -0.0020715783 0.23057579 0.17167494 -0.122865625 -0.1906859
0.15982692 -0.17774828 0.07111947 -0.110033356 0.056703288 -0.055854537 -0.09473629 -0.050752357
-0.024899678 -0.12516457 0.01649708 -0.08406941 -0.024042105 0.06409357 0.20757565 0.059718326
0.0709355 0.054211706 -0.039318178 0.06756741 -0.030711135 -0.0108870445 0.11520391 -0.1443328
-0.07195635 -0.24659753 -0.14245567 -0.19162822 -0.06550016 -0.19746597 0.035762854 -0.0007619138
-0.114525825 -0.043697372 -0.08387279 0.021274293 0.21901272 0.009568916 -0.18108462 -0.06527692
-0.23998825 -0.09547631 -0.12453161 0.07678491 0.056905273 0.042515695 -0.048762295 -0.078427896
0.299572 0.035679497 0.15880656 0.08399024 0.13152048 -0.094366625 0.0434002 -0.19588174
-0.13780001 0.016481666 -0.19585136 -0.11845464 0.21609409 -0.22388014 -0.3335478 0.15872109
0.033141166 0.21496387 0.060732923 -0.124866635 -0.22337416 0.18511122 0.16032915 0.2696484
0.12543534 -0.09876608 0.22023702 -0.036862757 -0.09354424 -0.21245745 0.053045843 0.2318249
0.14070396 0.102730125 -0.034579817 -0.042604454 -0.20773445 0.08002047 0.002785969 -0.09325799
-0.045741 -0.22644861 0.1345798 0.14288522 -0.16493122 -0.16992223 -0.14560015 0.14798859
-0.012527099 -0.16900042 0.1559913 -0.30515996 0.02718635 0.033086177 0.16717339 0.17087823
-0.046974253 0.117238246 -0.008781293 -0.20615518 -0.06507036 0.059251938 -0.07343273 0.17001785
0.021121223 0.20588808 -0.17670462 0.06668616 -0.2608932 -0.090909675 0.041913304 -0.25096798
0.03533611 0.2310883 0.021449063 -0.01633429 -0.05721512 -0.09263407 0.13899277 -0.0699971
-0.047976635 0.24204785 -0.024009665 -0.051806863 0.15391314 -0.22802494 0.22137505 -0.17474647
0.14343727 -0.15515015 0.2084625 -0.053280596 -0.1650535 0.0012245922 0.1178303 0.04720331
0.21669145 0.014135299 0.042822223 0.03985899 0.21327022 0.0030937067 -0.03902782 0.22623044
-0.071038045 -0.10403471 0.0136531545 0.091871336 -0.010606058 -0.06573263 -0.09102033 0.13866636
-0.12235882 -0.052033216 -0.20952752 0.0026916265 0.05060302 0.16113973 -0.2215803 -0.15334493
0.12932986 0.032366775 -0.15312642 0.2752792 0.095266186 -0.11416813 -0.023274558 -0.0304307
0.011884207 0.18571629 -0.2059234 0.18808609 -0.07986345 0.04417074 -0.22512156 -0.04767366
-0.16669776 -0.008636393 0.12958638 -0.096671686 -0.19000916 -0.07860411 0.07715158 0.066818066
0.061220318 0.1452751 0.07827518 -0.1473525 -0.1946375 -0.26599303 0.11001604 0.06555078
-0.28117505 -0.0326962 -0.047284707 0.110434316 0.28066072 -0.03312269 0.2333057 -0.14686549
-0.002692 0.15386304 0.11520364 0.07417112 0.08560436 0.04528827 0.12020073 0.11776668
0.02813523 0.028311297 0.165246 0.12203615 0.04641853 -0.25331426 0.10042856 0.095954336
00000000: 2509 3e3e 57d3 9bbc 4611 e7bd 50d7 25be
00000010: 9c91 f8bd 29bb 07bd 0f7e 883d 4c0f b0bd
00000020: 119a 313e 9d64 28be 809d 4cbe bdf6 74bc
00000030: 0f02 053e 1074 1f3e c8c5 31be 401e a23d
00000040: dcfe 203e a870 4ebd 1fb2 d33d 89c5 0fbe
00000050: 4753 373e bba0 0e3e 34bd 8d3e c3af 6b3e
00000060: 9331 c6bc cd8f 2e3d 30d0 ffbc 51c3 07bb
00000070: 0f1c 6c3e 8ecb 2f3e f9a0 fbbd 2a43 43be
00000080: aba9 233e a503 36be 16a7 913d 2b59 e1bd
00000090: b541 683d bac7 64bd 1a05 c2bd b4e1 4fbd
000000a0: 69fa cbbc 242b 00be e224 873c 952c acbd
000000b0: f3f3 c4bc 7d43 833d b68e 543e 349b 743d
000000c0: a246 913d 180d 5e3d 190c 21bd c860 8a3d
000000d0: eb95 fbbc 935f 32bc 07f0 eb3d facb 13be
000000e0: da5d 93bd 1084 7cbe e6df 11be 303a 44be
000000f0: f324 86bd 8534 4abe 127c 123d 2bbb 47ba
00000100: 848c eabd 04fc 32bd 7fc5 abbd 6d47 ae3c
00000110: df44 603e f1c6 1c3c 3f6e 39be e8af 85bd
00000120: 7bbf 75be 1589 c3bd 6e0a ffbd 6841 9d3d
00000130: 8115 693d f024 2e3d f9ba 47bd ce9e a0bd
00000140: 8061 993e aa24 123d 309e 223e 1303 ac3d
00000150: 4ead 063e 4a43 c1bd 68c4 313d 3995 48be
00000160: 721b 0dbe 8f04 873c 428d 48be 5998 f2bd
00000170: c547 5d3e d640 65be c7c6 aabe c887 223e
00000180: 08bf 073d 7d1f 5c3e 16c3 783d 14ba ffbd
00000190: 32bc 64be cc8d 3d3e 532d 243e 5b0f 8a3e
000001a0: 1f72 003e df45 cabd d085 613e 67fd 16bd
000001b0: 1f94 bfbd 728e 59be 9946 593d 8263 6d3e
000001c0: b314 103e 2c64 d23d 91a3 0dbd 0282 2ebd
000001d0: 57b8 54be c6e1 a33d ce94 363b 0cfe bebd
000001e0: ea5a 3bbd 25e2 67be 49cf 093e 8150 123e
000001f0: bbe3 28be 1800 2ebe 3518 15be 528a 173e
00000200: 763e 4dbc 720e 2dbe 2fbc 1f3e ed3d 9cbe
00000210: e9b5 de3c 5f85 073d 802f 2b3e b4fa 2e3e
00000220: 1368 40bd 9b1a f03d 6adf 0fbc 581a 53be
00000230: 9c43 85bd 29b2 723d e663 96bd 2919 2e3e
00000240: 6a06 ad3c 53d4 523e 0ef2 34be c192 883d
00000250: cb93 85be da2e babd 49ad 2b3d e07e 80be
00000260: 99bc 103d 69a2 6c3e f2b5 af3c 7dcf 85bc
00000270: 675a 6abd eeb6 bdbd 1f54 0e3e a45a 8fbd
00000280: 2683 44bd 64db 773e ebaf c4bc 6f33 54bd
00000290: 689b 1d3e 5f7f 69be 24b0 623e bdf0 32be
000002a0: 38e1 123e aedf 1ebe 3277 553e c13c 5abd
000002b0: c903 29be 7f82 a03a 0351 f13d 4258 413d
000002c0: 5de4 5d3e be97 673c 5b66 2f3d 2e43 233d
000002d0: 8263 5a3e c9bf 4a3b a3db 1fbd f4a8 673e
000002e0: 657c 91bd 2610 d5bd 7bb1 5f3c 0a27 bc3d
000002f0: 08c5 2dbc d49e 86bd de68 babd 8efe 0d3e
00000300: 4397 fabd c820 55bd 628e 56be 0066 303b
00000310: 1d45 4f3d d001 253e f2e5 62be 7406 1dbe
00000320: 0c6f 043e 0693 043d 2ccd 1cbe 65f1 8c3e
00000330: eb1a c33d fbd0 e9bd 49aa bebc ce49 f9bc
00000340: fab5 423c 692c 3e3e 95dd 52be a499 403e
00000350: 738f a3bd 61ec 343d 4486 66be 7545 43bd
00000360: d1b2 2abe a87f 0dbc 4bb2 043e cefb c5bd
00000370: c391 42be 31fb a0bd a601 9e3d e9d7 883d
00000380: 28c2 7a3d ffc2 143e bd4e a03d 93e3 16be
00000390: 0e4f 47be 3d30 88be 1750 e13d 7d3f 863d
000003a0: 2df6 8fbe 73ec 05bd 9cad 41bd 632b e23d
000003b0: c3b2 8f3e a8ab 07bd b0e7 6e3e e863 16be
000003c0: 446c 30bb 468e 1d3e e3ef eb3d 07e7 973d
000003d0: 5751 af3d 3180 393d cd2b f63d a82f f13d
000003e0: db7b e63c 18ed e73c 3f36 293e 17ee f93d
000003f0: 5b21 3e3d 68b2 81be 7dad cd3d b583 c43d

model.0.bias f4 [32]
0.14636713 0.0726266 -0.14522581 -0.118946984 -0.075981654 0.017289663 0.16283423 -0.007321525
-0.18727714 -0.10021552 -0.23220117 0.25756046 -0.014511423 -0.09649197 -0.27309594 0.03011471
-0.11469813 -0.14538133 0.10538455 -0.0975561 -0.26142073 -0.24820697 0.122185044 -0.13547997
0.10788917 -0.15761709 -0.02508201 -0.15335645 -0.033565346 0.055327162 0.10541266 0.07417972
00000000: 44e1 153e 41bd 943d 13b6 14be 7a9a f3bd
00000010: 459c 9bbd 0da3 8d3c 04be 263e 67e9 efbb
00000020: 94c5 3fbe cb3d cdbd 25c6 6dbe f7de 833e
00000030: 52c1 6dbc 959d c5bd 3bd3 8bbe 20b3 f63c
00000040: dae6 eabd d8de 14be dbd3 d73d 7ecb c7bd
00000050: f0d8 85be f829 7ebe 273c fa3d 43bb 0abe
00000060: fff4 dc3d 6066 21be ca78 cdbc 7909 1dbe
00000070: d17b 09bd bc9e 623d 98e2 d73d 89eb 973d

model.2.weight f4 [64, 32]
-0.011923566 -0.08341457 -0.0895242 0.061718043 0.016634088 -0.16133745 -0.14119346 0.10888038
-0.15691431 -0.009397136 -0.003770655 0.22355627 0.03894641 0.00521322 0.19125874 0.073523834
-0.072353885 -0.045967773 -0.08618577 0.02526703 -0.06349036 0.13627252 0.14495954 -0.2054757
0.08767145 -0.021248523 -0.07730933 0.087990515 0.09391025 -0.118374206 0.12959382 -0.1314955
-0.19417143 0.090407304 -0.16735351 -0.028335053 0.15443079 -0.17220488 0.045512546 -0.07335953
0.15624924 -0.12781106 -0.25462136 -0.20508753 -0.0895842 -0.009766526 0.08691089 -0.047989883
-0.06746078 0.18198258 -0.24833019 -0.04951609 -0.12680355 0.06062123 -0.18097588 0.093810946
0.11027014 -0.011352164 0.10678149 0.013900528 -0.21579996 -0.024887728 -0.08233157 -0.02344734
-0.11611885 -0.037291326 -0.11049839 0.054478325 -0.1503388 -0.10813182 -0.03306857 0.08116866
-0.12335789 0.043201678 -0.03422551 -0.25835517 0.032292273 -0.1401774 -0.048210174 -0.036240768
-0.02102061 -0.08627318 -0.103601985 0.013731005 0.025719667 -0.08800519 0.018014073 -0.17156896
-0.04177807 0.11864475 0.001076854 0.011757977 -0.016176581 -0.22442318 0.103211135 0.10071904
0.15515812 -0.12525228 -0.17197487 -0.11315212 0.20896606 0.09205631 -0.13694762 0.10727809
-0.027335135 -0.10634824 0.13726151 0.18173304 -0.04774604 0.07019421 0.14236125 -0.1006957
-0.026231997 -0.04113979 0.05435639 0.01310535 -0.096904285 -0.059810095 0.096042454 0.06704823
-0.07372674 -0.05965512 0.084350735 -0.12101815 -0.055027287 0.21222487 0.11828086 0.114230804
-0.1284515 -0.09370275 0.011524728 -0.054403074 0.079750225 0.15889418 -0.161045 -0.17475843
-0.11808678 0.036815107 -0.044948753 -0.07538385 0.10927459 0.035145447 -0.019434804 0.13212304
0.13538551 -0.06071168 -0.044023834 -0.09860402 -0.08879066 -0.050655894 -0.20940834 0.08473812
-0.18479413 0.07731479 -0.07301545 0.0011149878 0.04826468 0.09393163 0.047329895 0.13711284
0.087256946 -0.11257033 -0.06591184 -0.23094283 0.083282664 0.017145343 0.14512716 0.16462295
-0.11117403 -0.15418099 0.0042812936 -0.081067175 -0.0971353 0.099748634 -0.13499537 -0.09586955
-0.096819 -0.030109702 0.117042586 -0.057195667 0.09311981 -0.018571397 0.042754725 -0.07096218
-0.15600786 -0.01540144 -0.13551517 0.08530735 -0.2191182 -0.009868673 0.06817294 -0.03231451
-0.13929014 -0.17003423 -0.16037014 -0.088436164 -0.06865117 -0.14336176 -0.040605087 -0.018041067
-0.06251528 -0.073410705 0.056600947 -0.07491064 -0.13278285 -0.010811408 0.037614025 -0.0054523014
-0.18978757 -0.19426419 -0.06458971 -0.056661595 -0.12517962 -0.09063578 0.09984382 0.00048516758
0.14527576 -0.23808911 0.11980199 -0.21188144 0.06234746 -0.13773485 -0.0017639337 -0.022864038
-0.08818909 0.17574778 -0.021463986 -0.18554561 -0.0951298 -0.09076155 0.12663536 0.07373188
-0.068249546 0.050663084 -0.05473539 -0.0326981 -0.14041018 0.007850017 0.09936309 -0.14364175
-0.0014301469 -0.09553223 0.01678271 0.07623695 -0.0076716207 -0.12722333 -0.096484624 0.05791125
-0.17538485 -0.11372237 0.0026075162 -0.09676718 -0.19622749 -0.00020622442 -0.05904671 -0.103548534
00000000: 105b 43bc 42d5 aabd 7758 b7bd 0fcc 7c3d
00000010: 3644 883c a535 25be 0595 10be adfc de3d
00000020: 25ae 20be 72f6 19bc 181d 77bb efeb 643e
00000030: 4586 1f3d a9d3 aa3b 55d9 433e aa93 963d
00000040: 462e 94bd b448 3cbd 2a82 b0bd cdfc ce3c
00000050: 3c07 82bd 068b 0b3e 4670 143e 3968 52be
00000060: 178d b33d 6211 aebc 5b54 9ebd 5f34 b43d
00000070: 0454 c03d 2d6e f2bd 3eb4 043e c2a6 06be
00000080: e0d4 46be 7727 b93d b85e 2bbe ea1e e8bc
00000090: 1b23 1e3e 7a56 30be 5d6b 3a3d 853d 96bd
000000a0: cdff 1f3e e7e0 02be bb5d 82be 7702 52be
000000b0: ec77 b7bd c703 20bc 56fe b13d 0a91 44bd
000000c0: e128 8abd a459 3a3e 454a 7ebe 62d1 4abd
000000d0: cad8 01be f84d 783d be51 39be f41f c03d
000000e0: 50d5 e13d 6dfe 39bc 41b0 da3d 0abf 633c
000000f0: aafa 5cbe 59e1 cbbc 749d a8bd a314 c0bc
00000100: b8cf edbd cabe 18bd fb4c e2bd aa24 5f3d
00000110: 6af2 19be 3774 ddbd e972 07bd c13b a63d
00000120: 10a3 fcbd 3ef4 303d 0c30 0cbd 2147 84be
00000130: e744 043d aa8a 0fbe 0878 45bd 3371 14bd
00000140: 6a33 acbc feaf b0bd 472d d4bd 02f8 603c
00000150: 0db2 d23c 113c b4bd 4092 933c c6af 2fbe
00000160: 7b1f 2bbd 05fc f23d 3925 8d3a 88a4 403c
00000170: c084 84bc 31cf 65be 5c60 d33d c945 ce3d
00000180: c5e1 1e3e 2242 00be 2e1a 30be 4cbc e7bd
00000190: 33fb 553e 0588 bc3d ff3b 0cbe 9eb4 db3d
000001a0: efed dfbc 1bcd d9bd 488e 0c3e 3a18 3a3e
000001b0: 5a91 43bd fbc1 8f3d 26c7 113e 8c39 cebd
000001c0: 7ce4 d6bc 3282 28bd cea4 5e3d d2b7 563c
000001d0: c175 c6bd 6efb 74bd e8b1 c43d 9550 893d
000001e0: 0cfe 96bd ed58 74bd 14c0 ac3d 5dd8 f7bd
000001f0: 4b64 61bd 7a51 593e 3c3d f23d d7f1 e93d
00000200: ca88 03be 3ae7 bfbd 36d2 3c3c c2d5 5ebd
00000210: 1654 a33d 28b5 223e fbe8 24be e0f3 32be
00000220: 7bd7 f1bd 70cb 163d 2f1c 38bd d962 9abd
00000230: 5bcb df3d acf4 0f3d bd35 9fbc 434b 073e
00000240: 80a2 0a3e d0ac 78bd 5652 34bd e8f0 c9bd
00000250: e1d7 b5bd 8e7c 4fbd 246f 56be 2e8b ad3d
00000260: ac3a 3dbe 3757 9e3d 2089 95bd c824 923a
00000270: 2fb1 453d 3a5f c03d fedc 413d 4f67 0c3e
00000280: c5b3 b23d 468b e6bd c9fc 86bd 477c 6cbe
00000290: 1a90 aa3d 6474 8c3c 379c 143e eb92 283e
000002a0: 36af e3bd 9fe1 1dbe 184a 8c3b 8c06 a6bd
000002b0: dfee c6bd 0349 cc3d 3a3c 0abe 4157 c4bd
000002c0: 0a49 c6bd 9fa8 f6bc 06b4 ef3d 0146 6abd
000002d0: 99b5 be3d 0b23 98bc 941f 2f3d 9f54 91bd
000002e0: 86c0 1fbe 5256 7cbc 7dc4 0abe 9fb5 ae3d
000002f0: 8560 60be 37b0 21bc 419e 8b3d 385c 04bd
00000300: 13a2 0ebe 741d 2ebe 1238 24be 051e b5bd
00000310: fc98 8cbd 6dcd 12be 8551 26bd dcca 93bc
00000320: 0308 80bd 5a58 96bd 65d6 673d c06a 99bd
00000330: 3af8 07be 5522 31bc 2a11 1a3d 38a9 b2bb
00000340: ac57 42be 31ed 46be 9c47 84bd fd15 68bd
00000350: 162f 00be 409f b9bd eb7a cc3d 175e fe39
00000360: 2bc3 143e a2cd 73be bf5a f53d 73f7 58be
00000370: 0d60 7f3d 5d0a 0dbe cb33 e7ba 5d4d bbbc
00000380: 7b9c b4bd 3af7 333e 3ed5 afbc abff 3dbe
00000390: 6ad3 c2bd 31e1 b9bd b3ac 013e bd00 973d
000003a0: 6bc6 8bbd 1884 4f3d 3732 60bd 71ee 05bd
000003b0: b0c7 0fbe 5c9d 003c e07e cb3d d316 13be
000003c0: c473 bbba 67a6 c3bd e57b 893c 1e22 9c3d
000003d0: 3862 fbbb d546 02be bb99 c5bd 5934 6d3d
000003e0: 1698 33be 46e7 e8bd dde2 2a3b df2d c6bd
000003f0: dcef 48be f23d 58b9 f7da 71bd 4111 d4bd

model.2.bias f4 [64]
-0.08939406 -0.083724536 -0.17559713 -0.0012575684 0.07206791 0.003447378 -0.1655275 -0.102631904
-0.03612071 -0.11932564 -0.21040343 -0.15657237 -0.13459155 -0.11968914 0.045893695 -0.07465388
-0.18737052 -0.13142835 -0.17847158 -0.10997512 0.07920232 -0.104039386 -0.010621628 -0.09078096
0.070625104 -0.0054419558 -0.17790352 0.025889326 0.07465282 0.15899274 0.023135148 0.041383892
0.028507924 -0.268132 0.02621733 -0.025987988 -0.18562675 0.12343553 -0.28383085 -0.021319097
0.020387297 -0.1324474 0.039013002 -0.07927457 0.039948914 -0.07720885 -0.0891674 0.046379562
0.06647139 -0.1067667 0.073602736 -0.23823895 -0.07262396 -0.029200858 0.15042649 0.026746808
-0.16748582 0.069013625 -0.005981477 0.16675217 -0.10264578 0.0004845843 0.07112576 -0.11282865
00000000: 3c14 b7bd c577 abbd bccf 33be fed4 a4ba
00000010: 5798 933d 68ed 613b 0a80 29be ad30 d2bd
00000020: 4ff3 13bd 0061 f4bd ff73 57be 8254 20be
00000030: 5ed2 09be 941f f5bd 07fb 3b3d 22e4 98bd
00000040: 0fde 3fbe 2795 06be 41c1 36be a33a e1bd
00000050: d334 a23d 9a12 d5bd 5606 2ebc 5eeb b9bd
00000060: e5a3 903d 6f52 b2bb 572c 36be da15 d43c
00000070: 94e3 983d fece 223e ec85 bd3c 2882 293d
00000080: 7389 e93c 9948 89be bac5 d63c c3e4 d4bc
00000090: f014 3ebe c4cb fc3d 4752 91be 63a5 aebc
000000a0: 4303 a73c 4ba0 07be 19cc 1f3d b55a a2bd
000000b0: 79a1 233d ac1f 9ebd 669d b6bd 7ff8 3d3d
000000c0: 2722 883d 80a8 dabd 08bd 963d e9f4 73be
000000d0: dfbb 94bd a336 efbc 6709 1a3e 1f1c db3c
000000e0: 6781 2bbe 0457 8d3d 4400 c4bb 15c1 2a3e
000000f0: f337 d2bd ce0f fe39 62aa 913d b512 e7bd

model.4.weight f4 [10, 64]
-0.122426964 -0.09459873 0.019754693 -0.03402537 0.1263671 0.03177176 0.13185777 -0.0052979384
0.07461037 -0.101849966 0.037641887 -0.06709679 -0.0076773735 0.11692291 -0.027779266 -0.117699474
0.08033935 0.09477269 -0.07339266 -0.034496903 -0.041717324 -0.011798272 -0.08794312 -0.099572435
-0.06046892 0.14349571 -0.0932906 0.055368412 0.071284324 -0.07007086 0.08266295 -0.091005415
0.07939018 0.16597044 -0.11180277 -0.058601826 0.024237854 -0.13112602 0.037581835 -0.112709045
-0.061988845 -0.009822102 -0.05238225 -0.022122875 0.09763726 -0.02180501 -0.10546643 0.053890925
0.056439333 0.059723847 -0.023666743 0.0019487408 0.041174166 0.06894434 -0.051322702 -0.062230363
-0.0027873258 -0.039845657 0.0552254 0.00041859847 0.06508698 -0.15948635 0.009809152 0.0220499
0.1294221 -0.14471449 0.14252667 -0.10532222 0.066167526 -0.14368828 0.1253096 -0.0782795
0.08038454 -0.22182855 -0.079587586 0.105123006 -0.09555952 0.012354512 -0.05259268 -0.10412576
0.046438485 -0.10171749 0.0038448358 0.065266155 -0.14963797 0.04257838 -0.049827445 0.0488506
-0.098699294 0.037176024 -0.15350316 -0.18831028 -0.12397922 -0.24453422 0.0824771 0.06574035
-0.040141247 0.13926941 -0.036985323 0.12405552 0.10699542 -0.15373215 0.08079759 -0.18894455
-0.04329601 -0.0028864383 0.076085 0.025764715 -0.028508589 0.11806874 0.13881272 -0.2088031
-0.06658203 -0.17047614 -0.09431071 0.11338946 -0.057771973 0.027347337 0.060050733 -0.053249083
0.13730207 0.13244061 0.104298025 0.0070342096 -0.0030787324 0.011997358 0.15174238 -0.0023874003
-0.049570322 0.04420897 -0.031358313 -0.07615935 0.04708164 -0.082319796 -0.014672429 -0.034948245
0.07965166 0.037721988 -0.027538206 0.0616033 -0.0028726938 -0.098028205 -0.030076342 -0.033662513
0.02138911 0.036280118 -0.07174672 -0.085308686 -0.011111638 0.09568767 -0.046902988 0.036100857
-0.11598279 0.008361876 0.105441265 -0.051864143 -0.14603114 0.0007887102 0.101256505 0.048951294
0.09234958 0.011452044 0.03796019 -0.043996032 -0.13765785 0.046384595 0.10401569 0.03906361
0.016672123 0.011966271 0.07192788 0.025943583 -0.023571152 -0.07355798 -0.08342415 0.041400485
-0.04679771 0.15652081 -0.008711181 0.053481326 -0.058954522 0.14717841 -0.101285666 0.025744714
-0.036835905 0.1014372 0.050586566 0.019487206 -0.027855527 -0.07323207 -0.08192373 0.20048979
-0.15611665 -0.16767186 -0.035245538 0.12543347 0.0325689 -0.10868866 -0.06596597 -0.08488803
-0.039585814 0.115738764 -0.027560828 -0.024136227 -0.20215984 -0.017306523 0.081129715 0.0057674707
0.073260956 -0.099999905 0.13446385 -0.035954203 -0.029784169 -0.14592034 -0.047782913 0.115109615
0.005684551 0.045801375 -0.016519018 -0.1563789 -0.1534534 -0.0466867 0.02331278 -0.10747492
-0.052311715 0.0051689567 -0.09424651 -0.19113517 -0.03770558 0.07240254 0.0094122095 -0.055916958
0.019527717 -0.05652971 0.10571643 -0.04527062 0.12335915 0.023547802 0.16245061 0.1033132
0.033262663 0.040564846 -0.054089315 -0.11769058 0.12143879 0.10409062 0.07453991 0.034060262
0.0045621083 0.12638834 0.12873435 -0.0072469767 0.13693845 0.024029473 0.2052579 -0.103025764
00000000: fdba fabd fbbc c1bd 98d4 a13c 305e 0bbd
00000010: 6166 013e 1b23 023d b905 073e 549a adbb
00000020: 52cd 983d b796 d0bd 612e 1a3d 0b6a 89bd
00000030: 7a92 fbbb 4775 ef3d 5891 e3bc 6c0c f1bd
00000040: f588 a43d 2f18 c23d e44e 96bd a04c 0dbd
00000050: c9df 2abd 8a4d 41bc 861b b4bd a2ec cbbd
00000060: 42ae 77bd 8af0 123e 240f bfbd fdc9 623d
00000070: 84fd 913d 5081 8fbd 314b a93d 0c61 babd
00000080: 5297 a23d 28f4 293e daf8 e4bd 7808 70bd
00000090: 778e c63c e645 06be 69ef 193d 00d4 e6bd
000000a0: 04e8 7dbd e2ec 20bc c58e 56bd 083b b5bc
000000b0: 0bf6 c73d 6ca0 b2bc c9fe d7bd bbbc 5c3d
000000c0: ee2c 673d fea0 743d c2e0 c1bc e46c ff3a
000000d0: 3ea6 283d b132 8d3d c137 52bd 44e5 7ebd
000000e0: 91ab 36bb 3335 23bd 0734 623d 5677 db39
000000f0: 534c 853d 6450 23be 91b6 203c fea1 b43c
00000100: 3a87 043e 0930 14be 83f2 113e 2db3 d7bd
00000110: d782 873d 0523 13be 2951 003e 0151 a0bd
00000120: a6a0 a43d 0627 63be d1fe a2bd bb4a d73d
00000130: b6b4 c3bd 946a 4a3c 6c6b 57bd e33f d5bd
00000140: 4836 3e3d 4251 d0bd a4f9 7b3b 43aa 853d
00000150: b23a 19be ab66 2e3d dd17 4cbd 9117 483d
00000160: db22 cabd e345 183d ef2f 1dbe 69d4 40be
00000170: d1e8 fdbd 2e67 7abe c1e9 a83d e0a2 863d
00000180: 266b 24bd a49c 0e3e ec7d 17bd d210 fe3d
00000190: 6a20 db3d f66b 1dbe 3579 a53d ae7a 41be
000001a0: 2857 31bd 662a 3dbb 74d2 9b3d 8610 d33c
000001b0: d88a e9bc 06ce f13d ec24 0e3e 7bd0 55be
000001c0: 295c 88bd 4c91 2ebe f925 c1bd bc38 e83d
000001d0: 4ea2 6cbd 8607 e03c c2f7 753d b61b 5abd
000001e0: ea98 0c3e 839e 073e 349a d53d 3a7f e63b
000001f0: 8fc4 49bb 9190 443c 5b62 1b3e ee75 1cbb
00000200: 400a 4bbd 7714 353d 9371 00bd 6ff9 9bbd
00000210: aed8 403d 4897 a8bd a164 70bc e425 0fbd
00000220: 6920 a33d 5f82 1a3d ce97 e1bc be53 7c3d
00000230: ce43 3cbb 03c3 c8bd a962 f6bc b4e1 09bd
00000240: 3738 af3c 769a 143d f2ef 92bd 52b6 aebd
00000250: 960d 36bc e6f7 c33d 591d 40bd 7ede 133d
00000260: 6388 edbd 4000 093c 97f1 d73d 7f6f 54bd
00000270: 3089 15be 72c1 4e3a 925f cf3d 2781 483d
00000280: c721 bd3d 5ba1 3b3c 257c 1b3d 2f35 34bd
00000290: 2ef6 0cbe c6fd 3d3d 2e06 d53d 2a01 203d
000002a0: fa93 883c 2e0e 443c ed4e 933d a387 d43c
000002b0: 4a18 c1bc 91a5 96bd 48da aabd 8e93 293d
000002c0: f5ae 3fbd fe46 203e 57b9 0ebc 3c0f 5b3d
000002d0: 4c7a 71bd f0b5 163e dc6e cfbd 94e6 d23c
000002e0: 3fe1 16bd 4fbe cf3d dc33 4f3d a2a3 9f3c
000002f0: 4631 e4bc b2fa 95bd a1c7 a7bd 324d 4d3e
00000300: 0bdd 1fbe 2cb2 2bbe a05d 10bd a271 003e
00000310: f866 053d 2998 debd 2b19 87bd c7d9 adbd
00000320: bc24 22bd 7208 ed3d 3fc7 e1bc 56b9 c5bc
00000330: fd02 4fbe 69c6 8dbc 5627 a63d 0dfd bc3b
00000340: d709 963d c0cc ccbd e4b0 093e b744 13bd
00000350: eefd f3bc 246c 15be 04b8 43bd 97be eb3d
00000360: 7845 ba3b 399a 3b3d e452 87bc ca21 20be
00000370: e322 1dbe 8e3a 3fbd 71fa be3c d01b dcbd
00000380: cf44 56bd 5a60 a93b 5004 c1bd f0b8 43be
00000390: 2b71 1abd c847 943d ab35 1a3c 2e09 65bd
000003a0: 97f8 9f3c b28b 67bd db81 d83d b06d 39bd
000003b0: b9a3 fc3d 52e7 c03c 7459 263e df95 d33d
000003c0: 6e3e 083d 5327 263d c28c 5dbd c207 f1bd
000003d0: e6b4 f83d 772d d53d 61a8 983d c682 0b3d
000003e0: bd7d 953b f26b 013e f0d2 033e 0c78 edbb
000003f0: 9839 0c3e 75d9 c43c 202f 523e 2cff d2bd

model.4.bias f4 [10]
-0.102385804 0.049341 0.011065607 -0.035617523 0.14225072 0.0032570001 0.14235725 0.07944827
0.040280294 -0.04746919
00000000: a6af d1bd ca19 4a3d 854c 353c aee3 11bd
00000010: 2caa 113e 6573 553b 19c6 113e c6b5 a23d
00000020: f3fc 243d 0e6f 42bd

exp_avg f4 [32, 784]
0.0 0.0 0.0 0.0 0.0 0.0 0.0 0.0
0.0 0.0 0.0 0.0 0.0 0.0 0.0 0.0
0.0 0.0 0.0 0.0 0.0 0.0 0.0 0.0
0.0 0.0 0.0 0.0 0.0 0.0 0.0 0.0
0.0 0.0 0.0 0.0 0.0 0.0 0.0 0.0
0.0 0.0 0.0 0.0 0.0 0.0 0.0 0.0
0.0 0.0 0.0 0.0 0.0 0.0 0.0 0.0
0.0 0.0 0.0 0.0 0.0 0.0 0.0 0.0
0.0 0.0 0.0 0.0 -5.8534044e-07 -7.788949e-07 -7.0132174e-08 -2.3421924e-07
-2.9219e-07 -2.3637838e-07 0.0 0.0 0.0 0.0 0.0 0.0
0.0 0.0 0.0 0.0 0.0 0.0 0.0 0.0
0.0 0.0 0.0 -2.0706776e-07 -6.0995654e-07 -7.7880134e-07 -8.273808e-07 -1.2887278e-06
-3.608536e-06 -4.7250714e-06 -3.8218823e-06 -4.2783363e-06 -1.7961131e-06 1.7039523e-06 2.0960383e-06 2.8310899e-08
-3.6641595e-07 0.0 0.0 0.0 0.0 0.0 0.0 0.0
0.0 0.0 0.0 0.0 5.126574e-07 0.0 -1.1994184e-07 -5.802092e-07
-1.447434e-06 -2.1784124e-05 -5.1185416e-05 -4.5507164e-05 -2.4353052e-05 -1.0477008e-05 2.550274e-06 -6.6685525e-06
-7.1028903e-06 -8.636128e-06 3.551868e-06 -1.7176623e-07 -7.221001e-07 3.1348677e-08 1.7885007e-07 2.2500507e-07
1.7885007e-07 5.653967e-08 0.0 0.0 0.0 0.0 0.0 0.0
8.060651e-07 1.7780222e-07 -2.8206117e-07 -1.1240078e-06 -3.4831032e-06 -4.9312803e-05 -5.2619518e-05 -8.523867e-05
-0.00013225258 -0.00014528575 -9.995647e-05 -5.71544e-05 -3.7871174e-05 -1.2825017e-05 -5.1635566e-06 1.6113717e-06
7.1973714e-06 7.892232e-06 2.4777273e-06 2.660721e-07 2.652009e-07 2.3654363e-07 0.0 0.0
0.0 0.0 0.0 0.0 3.2887456e-07 1.1708494e-06 1.9287565e-06 2.15116e-06
6.0313155e-06 -4.081771e-05 -9.316947e-05 -0.00013618922 -0.00012856597 -0.0001397787 -0.00012795904 -6.65957e-05
-7.138866e-05 -6.647715e-05 -3.848643e-06 -2.4308906e-06 3.287301e-06 6.5812264e-06 1.0089463e-05 2.007488e-06
-6.3632534e-08 2.35729e-08 0.0 0.0 0.0 0.0 0.0 0.0
6.7541155e-09 1.3474694e-06 3.6834988e-06 1.07266505e-05 2.0153031e-05 -1.6206992e-05 -5.7886427e-05 -5.8246675e-05
-2.5245194e-05 -9.17296e-05 -0.00011018025 -5.626282e-05 -4.1855026e-05 -2.936414e-05 -2.2487098e-05 8.363242e-06
1.19941005e-05 1.0043307e-06 9.863987e-06 9.093674e-06 -1.6080041e-07 -1.9405544e-08 0.0 0.0
0.0 0.0 6.5525796e-10 1.0647925e-09 6.166084e-08 2.2535714e-07 1.1972866e-06 1.6687423e-05
6.6605303e-06 -2.0892583e-05 -3.360321e-05 2.5447542e-05 3.5696663e-05 -2.8165015e-05 -7.731328e-05 -2.3098875e-05
2.8361299e-05 -1.1726601e-05 -2.6288437e-05 -4.6204595e-06 9.3904555e-06 4.6635632e-06 4.48403e-06 9.20503e-06
3.5388891e-06 -3.708785e-07 0.0 0.0 1.5562418e-09 1.187656e-08 1.7364307e-08 4.4361933e-08
00000000: 0000 0000 0000 0000 0000 0000 0000 0000
00000010: 0000 0000 0000 0000 0000 0000 0000 0000
00000020: 0000 0000 0000 0000 0000 0000 0000 0000
00000030: 0000 0000 0000 0000 0000 0000 0000 0000
00000040: 0000 0000 0000 0000 0000 0000 0000 0000
00000050: 0000 0000 0000 0000 0000 0000 0000 0000
00000060: 0000 0000 0000 0000 0000 0000 0000 0000
00000070: 0000 0000 0000 0000 0000 0000 0000 0000
00000080: 0000 0000 0000 0000 0000 0000 0000 0000
00000090: 0000 0000 0000 0000 0000 0000 0000 0000
000000a0: 0000 0000 0000 0000 0000 0000 0000 0000
000000b0: 0000 0000 0000 0000 0000 0000 0000 0000
000000c0: 0000 0000 0000 0000 0000 0000 0000 0000
000000d0: 0000 0000 0000 0000 0000 0000 0000 0000
000000e0: 0000 0000 0000 0000 0000 0000 0000 0000
000000f0: 0000 0000 0000 0000 0000 0000 0000 0000
00000100: 0000 0000 0000 0000 0000 0000 0000 0000
00000110: 4a20 1db5 4015 51b5 929b 96b3 b27d 7bb4
00000120: 4ade 9cb4 32cf 7db4 0000 0000 0000 0000
00000130: 0000 0000 0000 0000 0000 0000 0000 0000
00000140: 0000 0000 0000 0000 0000 0000 0000 0000
00000150: 0000 0000 0000 0000 0000 0000 0000 0000
00000160: 0000 0000 0000 0000 0000 0000 5a56 5eb4
00000170: e5bb 23b5 d20e 51b5 2d19 5eb5 5af8 acb5
00000180: 2d2a 72b6 0e8c 9eb6 b83d 80b6 a18e 8fb6
00000190: fa11 f1b5 5bb3 e435 aaa9 0c36 5330 f332
000001a0: d3b7 c4b4 0000 0000 0000 0000 0000 0000
000001b0: 0000 0000 0000 0000 0000 0000 0000 0000
000001c0: 0000 0000 0000 0000 0000 0000 0000 0000
000001d0: 8c9d 0935 0000 0000 5dc9 00b4 acbf 1bb5
000001e0: 7445 c2b5 0dbd b6b7 ecaf 56b8 f2de 3eb8
000001f0: c849 ccb7 68c6 2fb7 6025 2b36 6ec2 dfb6
00000200: 5d55 eeb6 e3e3 10b7 a15c 6e36 be6e 38b4
00000210: 57d6 41b5 3ca4 0633 ef09 4034 ec98 7134
00000220: ef09 4034 06d6 7233 0000 0000 0000 0000
00000230: 0000 0000 0000 0000 0000 0000 0000 0000
00000240: 5f60 5835 e7e9 3e34 316e 97b4 9ddc 96b5
00000250: 42bf 69b6 38d5 4eb8 c7b3 5cb8 2ac2 b2b8
00000260: 48ad 0ab9 d957 18b9 b99f d1b8 12b9 6fb8
00000270: ddd7 1eb8 072b 57b7 9d42 adb6 4f46 d835
00000280: f380 f136 e168 0437 0847 2636 acd8 8e34
00000290: ef60 8e34 9efc 7d34 0000 0000 0000 0000
000002a0: 0000 0000 0000 0000 0000 0000 0000 0000
000002b0: 2d90 b034 1426 9d35 c96f 0136 a65c 1036
000002c0: 9b60 ca36 af33 2bb8 fa63 c3b8 04ce 0eb9
000002d0: aacf 06b9 8f91 12b9 be2c 06b9 4ba9 8bb8
000002e0: 7fb6 95b8 a669 8bb8 9723 81b6 6222 23b6
000002f0: 679b 5c36 4ed4 dc36 ea45 2937 62b8 0636
00000300: 5ba6 88b3 5b7d ca32 0000 0000 0000 0000
00000310: 0000 0000 0000 0000 0000 0000 0000 0000
00000320: d411 e831 b2da b435 0732 7736 9df6 3337
00000330: 4e0e a937 40f4 87b7 14cb 72b8 e44d 74b8
00000340: a4c5 d3b7 f45e c0b8 9210 e7b8 befb 6bb8
00000350: 7e8d 2fb8 0353 f6b7 ada2 bcb7 da4f 0c37
00000360: 453a 4937 8acc 8635 807d 2537 0891 1837
00000370: 7ba8 2cb4 3eb1 a6b2 0000 0000 0000 0000
00000380: 0000 0000 0000 0000 ae1d 3430 0e58 9230
00000390: 686a 8433 b3f9 7134 74b2 a035 f8fb 8b37
000003a0: 857d df36 7b42 afb7 2cf1 0cb8 2e78 d537
000003b0: 00b9 1538 e943 ecb7 4023 a2b8 75c4 c1b7
000003c0: 6de9 ed37 5ebd 44b7 fd85 dcb7 7209 9bb6
000003d0: b38b 1d37 b47b 9c36 8675 9636 4e6f 1a37
000003e0: a77d 6d36 271d c7b4 0000 0000 0000 0000
000003f0: 64e3 d530 aa09 4c32 8428 9532 7688 3e33
